lstm_kospi_only_window_seqlen128_layaers1.pt (torch, 154742 bytes, 11 tensors)

lstm.weight_ih_l0 f4 [256, 64]
000000 a4 94 c0 bd a5 db 89 3d 50 50 86 3d d5 dc 80 bd
       -0.09403351 0.06731347 0.06558287 -0.0629212
000010 b0 18 d3 bd d1 65 00 be 75 1c f1 bd 05 48 a0 3d
       -0.10307443 -0.1253884 -0.11773006 0.07826237
000020 9a ff bb 3d 11 bd b4 3a 22 a6 c2 3d 53 19 ee 3c
       0.091796115 0.0013789256 0.095043436 0.02906481
000030 b7 5b 57 3d 3f 12 21 3d e7 5c db 3b a1 a4 d4 bd
       0.0525777 0.03932404 0.0066944244 -0.10382963
000040 8d 06 13 bc 2d eb 82 bd 48 a0 8a bd fb b0 ef bb
       -0.00897373 -0.063925125 -0.067688525 -0.007314799
000050 76 23 9b bc 01 46 0f bc d7 0e 6c 3d 94 2f d0 3b
       -0.018937808 -0.008744718 0.05763134 0.006353328
000060 53 13 3e 3d cd c6 1b be c4 32 a1 bc 60 f6 30 bc
       0.046405148 -0.15212555 -0.019677527 -0.010800928
000070 b4 75 49 bd 21 11 99 3d 91 32 40 3c 00 19 9c 3d
       -0.049184516 0.0747397 0.011730806 0.07621956
000080 1e 27 fa 3d cf d5 21 3d 11 55 09 bb 07 ed e2 3d
       0.12214492 0.039510544 -0.0020955245 0.11080366
000090 c5 7d 39 bd 7a 30 1d bd ed c3 73 bd 9c 15 92 3d
       -0.04528596 -0.03837631 -0.05951302 0.07133028
0000a0 c0 e7 7c 3d f9 f2 87 3d 99 50 9c 3d 59 4d 7a bd
       0.06174445 0.0663814 0.0763256 -0.06110892
0000b0 e7 a9 25 3d 79 de 9b 3d 36 49 57 bc 40 28 c2 bd
       0.040445235 0.07610793 -0.013140013 -0.09480333
0000c0 6d c7 c5 3d 26 a7 91 3d 2c 73 a1 3d 82 49 61 bd
       0.09657178 0.07111959 0.078832954 -0.055001743
0000d0 de 80 e7 bd 8e 67 0d 3c 73 2c ca bd 15 cc 69 3d
       -0.11303876 0.008630646 -0.09871759 0.057079393
0000e0 e7 93 9d 3d a5 a5 52 bd 01 9a e9 3d 52 44 e9 bd
       0.07694226 -0.051427502 0.11406327 -0.11389984
0000f0 61 b8 a2 3c 7e 42 71 3d a3 66 9d bd 24 2a 60 bd
       0.01986331 0.058901303 -0.07685592 -0.05472769
000100 1b 61 b0 3d 2d 73 e2 3d b9 21 2c 3c c7 ab a5 3d
       0.086122714 0.11057124 0.010506087 0.080894046
000110 d8 8b a1 3c 22 fd 91 3d 83 60 ae 3d 38 a6 21 3d
       0.019720003 0.071283594 0.08514502 0.03946516
000120 52 2b a4 bc 79 3b 7b 3d ce 7a cb bd 20 1c 63 3d
       -0.020040188 0.061336014 -0.099355325 0.055446744
000130 65 6e a7 bd aa 97 1e bc cd 55 44 3c ee b0 4b 3d
       -0.08175353 -0.009679714 0.011983347 0.04972928
000140 30 5d f5 3c ae d6 bc bd d5 ce f7 bd 30 dc ba 3d
       0.029951662 -0.092206344 -0.12099997 0.09124029
000150 66 e1 f8 bc 8b 73 d2 3d fb f7 e2 3d 10 d7 3c bd
       -0.030380916 0.10275944 0.11082455 -0.046103537
000160 6e 20 8d bd b0 1d 4a bd 6e b0 41 bd 42 60 32 bc
       -0.06890951 -0.04934472 -0.047287397 -0.010887207
000170 9e 95 d1 3d 3e a4 ea bd 86 e2 f3 3d c1 54 9d 3d
       0.10233615 -0.11457108 0.1190844 0.07682181
000180 fc a0 83 3d 61 40 24 be cb d7 8a bd 5d 1f d9 bc
       0.0642719 -0.16040184 -0.067794405 -0.026504213
000190 ea 02 62 bd 8a 6f 7f 3d 0e f9 07 3d 2f d5 cf bd
       -0.05517856 0.06236223 0.0331965 -0.101480834
0001a0 4e 1f b0 bd 78 0e 6c 3d ba 13 88 bd b1 79 a3 bd
       -0.08599721 0.057630986 -0.066443875 -0.07982195
0001b0 ad 00 14 bd c3 cc 12 3d 01 f4 ab bd a4 9e 00 bd
       -0.036133457 0.035839807 -0.083961494 -0.03140129
0001c0 d4 05 cf bd fe 6c 12 3e ea a1 31 bd 44 ad a9 bc
       -0.101085335 0.1429939 -0.043367304 -0.020712502
0001d0 07 b1 05 3d 33 9f ff 3d c9 46 83 bd 1b 3b ea bd
       0.03263953 0.12481537 -0.064099856 -0.11437055
0001e0 0b 62 9b ba c2 a6 e2 3d 24 ac a7 3c f2 48 ac 3d
       -0.0011854781 0.11066963 0.020467825 0.08412351
0001f0 ff 33 c9 3d 7e e3 eb bd cd 61 88 3b 4b 4b ba bb
       0.098243706 -0.11518 0.0041620494 -0.005685245
000200 c7 be 2d 3c d8 3a ef ba 6d 24 d9 3d eb 32 a7 bd
       0.010604567 -0.001825179 0.10602651 -0.08164009
000210 bd 0a 63 bd d2 0a 0e 3e 17 38 d3 3c 4b b5 57 bb
       -0.055430163 0.13871315 0.025783582 -0.0032914456
000220 69 c7 9a 3d 2a 2c 22 3d e2 70 06 bc 84 b7 08 bd
       0.07557566 0.0395929 -0.008205624 -0.03337814
000230 66 9d df 3d 2a 7a 13 3c 45 d5 87 3d 76 13 11 bd
       0.10918693 0.009001294 0.06632475 -0.03541895
000240 61 50 df bd 7f 42 ea 3d c4 31 a1 3d d1 e0 04 bd
       -0.10904003 0.114384644 0.0787082 -0.032440964
000250 ec ce 85 bd e6 cb 49 bd 04 18 cf bd 41 4b 77 3b
       -0.06533608 -0.04926672 -0.101120025 0.0037734064
000260 3c fb da 3d 8d a5 2a 3e 3c 1f 86 3d 07 0e 01 3e
       0.106924504 0.16664715 0.06548926 0.12603007
000270 f4 d8 71 3c 4f 6b ad 3b f9 3c 3c 3d 4b 76 06 3e
       0.014761198 0.005292333 0.045956586 0.13131063
000280 fc fa 86 3d fe 1c 0e 3d 3b 7a fd 3c 76 30 07 ba
       0.0659084 0.034695618 0.030942073 -0.00051570626
000290 59 c8 c3 bd 95 5d 42 3d 3b 80 e4 3d ea dd 12 3e
       -0.09559698 0.047452528 0.111572705 0.14342466
0002a0 5d 80 6c 3d 62 76 17 bd e3 7a 82 bd 81 49 a0 3d
       0.057739604 -0.036978133 -0.06371095 0.0782652
0002b0 6a 7d 1f 3e af 00 b8 3c 42 68 98 3c 4e 7f 35 3c
       0.15575185 0.022461263 0.018604401 0.011077715
0002c0 b4 1a a0 3d ee 87 cc 3c a0 0a ca bd 8f eb ce bd
       0.07817593 0.02496716 -0.09865308 -0.10103523
0002d0 5f cb b5 bd ca 28 a7 3d 91 ee 95 3d e1 90 ec 3c
       -0.088766806 0.08162077 0.073208936 0.028877677
0002e0 cb fe 5c bd f6 3a 01 bd 7e c5 d2 3d 98 84 02 3e
       -0.053953927 -0.03155037 0.10291575 0.12745893
0002f0 c1 2e 57 bd 99 35 1d 3d 82 db eb bc c1 9f 0a 3e
       -0.052534822 0.038381193 -0.028791193 0.13537504
000300 23 0d ab bd 3b 33 ad bd 66 2d 87 bd cf 82 0c bd
       -0.08352115 -0.08457037 -0.06600456 -0.034304436
000310 79 38 3b be 5d c4 2f 3d c3 4c e4 3d 65 9d f4 3d
       -0.18283261 0.042911876 0.11147454 0.11944083
000320 a3 23 bf bd 80 ea 72 bc 3a 0e 82 3d 8a 7b 16 be
       -0.09332969 -0.014826417 0.0635037 -0.14695564
000330 a2 82 8b 3d c1 af c3 3c 4e 03 cf bd be de db 3d
       0.068120256 0.023887517 -0.10108052 0.10735844
000340 3a 7c c0 bd a4 c9 f6 bc 4b e4 54 3d ab 96 c6 bd
       -0.09398694 -0.030125447 0.05197553 -0.096967064
000350 c6 82 05 bd 83 12 a4 bd e3 99 21 bb ff 90 70 bd
       -0.03259542 -0.08011343 -0.0024658374 -0.05873203
000360 c4 90 87 3d 0c 0f 11 be cd 90 57 3c 21 aa d1 3d
       0.06619409 -0.14165896 0.013157082 0.10237528
000370 4e 82 b5 3c 8f 60 88 bd 79 ab cc 3d 84 e1 44 bc
       0.02215686 -0.06659042 0.09993643 -0.012016658
000380 9c 94 bd bd f7 60 92 3d 1a e9 34 3d bd af 87 3c
       -0.092568606 0.07147401 0.044167615 0.01656329
000390 2b ee 01 be 4b 85 c5 3d 24 c3 29 3d 47 0f 49 bd
       -0.1268851 0.09644564 0.041445866 -0.049086835
0003a0 4a ab aa 3d a5 88 f2 3c df 7c 64 bd 80 d6 35 3d
       0.08333452 0.029606173 -0.05578315 0.044394016
0003b0 b7 ef 37 3d 8b 10 a5 3b bc 3f 05 3e 4d e5 d1 bc
       0.044906344 0.0050373725 0.13012594 -0.025622034
0003c0 af d4 1c bc 11 53 e2 3d ea f0 59 3d 14 ba b4 bc
       -0.009572192 0.11051 0.05320827 -0.022061385
0003d0 5a ec 55 3d 99 6b d4 3c c3 24 c4 bd 4b 0c e7 3d
       0.052227356 0.025930213 -0.09577324 0.112816416
0003e0 de 50 92 3d 2f 61 38 bd 64 07 ef 3d 66 ac 09 3e
       0.071443304 -0.045014556 0.116713315 0.13444671
0003f0 cb 05 b1 bd ca 3a 63 39 54 d7 b7 bd 01 8b 47 3d
       -0.08643683 0.00021670308 -0.089766175 0.04871655

lstm.weight_hh_l0 f4 [256, 64]
000000 d7 8a 83 3d a6 b3 52 bc 73 96 f7 bd 0d 57 68 3d
       0.06422966 -0.012860214 -0.12089243 0.056723643
000010 83 47 e6 bd 5c fd 13 3c 1d 4e 4a bd 36 a9 7b bc
       -0.112441085 0.009032574 -0.0493909 -0.015360167
000020 dd 7c c2 bd 4f a6 a6 3d d2 90 da bc b4 71 1c 3d
       -0.09496472 0.081371896 -0.026680384 0.038194373
000030 80 24 ea bd 29 07 88 3d 0f 53 e1 bd 7b c1 8b bd
       -0.11432743 0.06641991 -0.1100217 -0.06824013
000040 e0 df 37 bb 66 52 89 bd da 3f 78 bd 88 7b c0 bd
       -0.0028057024 -0.067051694 -0.06060777 -0.09398562
000050 27 9f 04 bc 1d 00 a6 bd 6b 6c 73 bd 15 51 da 3d
       -0.0080945855 -0.0810549 -0.059429567 0.106599964
000060 35 4e ea 3d 1a 9d e9 3d a2 0b e6 bc 90 3c 9f bd
       0.11440698 0.11406918 -0.028081719 -0.07775223
000070 31 43 a9 3d 59 b9 3c 3d 24 a0 eb 3d e1 75 34 bd
       0.08264769 0.0460752 0.11505154 -0.04405773
000080 83 b2 e7 3d b4 31 be bd 1f 77 ba 3d 92 1d 17 bd
       0.11313345 -0.09286824 0.09104752 -0.036893435
000090 ad 17 ba 3d 09 f5 77 3d ce f0 de bd 46 32 96 bd
       0.09086547 0.060536418 -0.108857736 -0.07333808
0000a0 d2 10 08 bc 4f 0d de bd 3b 73 3e ba ee e3 78 bc
       -0.0083047915 -0.10842382 -0.00072650955 -0.015191061
0000b0 18 2a d0 bd 81 64 36 3d 99 d6 a5 bc 0f 18 e6 bd
       -0.10164279 0.04452944 -0.02024393 -0.112350576
0000c0 dd e4 59 3d 8a 5c e4 3d 6d 3f 06 bc ff 3b 95 bd
       0.053196777 0.11150463 -0.008193833 -0.07286834
0000d0 0e 34 9c 3c 7a 58 b2 3d 7a e5 af 3d 5e e3 85 3d
       0.01906779 0.08708282 0.08588691 0.065375075
0000e0 e6 5c 5b 3c 22 d1 ed 3d ea 6a 1f 3d 35 0f d2 bc
       0.013388848 0.116121545 0.03892032 -0.025642017
0000f0 42 22 d6 3c 8a 31 b4 bd bc cd a9 3d fb 64 68 3d
       0.026139382 -0.08798511 0.08291194 0.056736927
000100 27 e8 f8 3d 8a 8c ea 3d 8b 3d 56 bd ea eb bf bc
       0.121536545 0.11452587 -0.052304786 -0.023427922
000110 33 00 5c 3d 08 ac 7a bc 35 d3 c3 bd b6 0c ed bc
       0.053711127 -0.0152998045 -0.09561769 -0.028936725
000120 fa 45 3b 3d a4 4c b6 3c eb b1 32 bd 4d 87 30 bc
       0.04572103 0.022253342 -0.043626707 -0.010774446
000130 52 13 09 3e c7 09 bf 3d b3 10 48 bd 21 e9 aa bd
       0.13386276 0.09328037 -0.04884405 -0.08345247
000140 81 fa e4 3c 27 f4 e6 bd 9a 1f 83 3d 30 5d 4e bd
       0.02795148 -0.11277037 0.06402512 -0.05038184
000150 a6 c9 95 3b d6 92 2e bd dc 1d c4 3d 2b a3 89 3c
       0.0045711575 -0.042620502 0.09576008 0.016801437
000160 01 1b f7 3c 56 23 b7 bd 6c 2f 31 bd 88 6e ca bd
       0.030164244 -0.08942287 -0.043258116 -0.098843634
000170 e7 53 c5 bc 2d f6 8a bc 9a 27 05 3c 52 51 10 3d
       -0.02408786 -0.016963089 0.0081271175 0.035233803
000180 6e a5 dc bd ac 98 be 3d 98 f0 6f 3c a5 86 12 3d
       -0.10773741 0.093064636 0.014644764 0.03577294
000190 49 ff 17 bc 37 1f b1 3c bf 8c 29 bd d4 43 c8 bd
       -0.009277173 0.02162133 -0.04139399 -0.09778562
0001a0 c9 c5 ea 3d 9e a6 41 3d 8a ae de bd 9d 48 b0 3d
       0.11463506 0.04727804 -0.108731344 0.086076
0001b0 e6 4b cd 3c ba cc ed 3c 92 ad 13 3e 59 51 f7 bc
       0.025060605 0.029028285 0.1442168 -0.030190157
0001c0 f1 1d 0e bd 53 68 80 3d 88 36 f9 3d 35 85 49 3d
       -0.034696523 0.06269898 0.12168604 0.0491993
0001d0 52 31 5e 3d 63 29 bc 3d 4f b0 a5 bd 4f 1a b3 3d
       0.054246254 0.091875814 -0.08090269 0.08745252
0001e0 ee 54 8b 3d 62 8f cd 3d 97 83 b2 3b a4 4a 72 bd
       0.068033084 0.10037114 0.0054478156 -0.059153214
0001f0 f4 c8 88 bd 41 91 55 bd b8 eb dd 3d 14 1c f8 bb
       -0.06678954 -0.052140478 0.108359754 -0.0075717065
000200 37 ec c9 bb af ed 1b bd 2e 9a a1 bd 80 19 fd bd
       -0.006162192 -0.03806847 -0.078907356 -0.12358379
000210 8b 51 c5 3d 06 e3 05 be 97 ea a6 3c 47 f1 8e bd
       0.09634694 -0.13074884 0.020375533 -0.06979614
000220 33 14 8d bd cf 9f 05 3d d2 c3 a0 3d c8 68 b7 3a
       -0.06888618 0.03262311 0.0784985 0.0013993019
000230 fa b1 0c 3d b0 e1 bb bd 16 ec d3 3d 51 a7 b7 3d
       0.03434942 -0.09173906 0.10347764 0.0896746
000240 39 fb cc 3c b0 6f bd 3d 8c 47 08 3e 91 d4 8b 3d
       0.025022136 0.09249818 0.13308543 0.06827653
000250 80 33 d0 bd 82 ee e2 3d 32 07 cc bc 5a 80 f2 3d
       -0.10166073 0.11080648 -0.024905775 0.11840887
000260 d2 ea b0 bd b1 6f 67 3d 11 e7 34 bb f7 7f 92 bc
       -0.086385384 0.056503 -0.0027603547 -0.017883284
000270 86 13 e3 3c fc f8 a1 bd 64 c8 3d 3c 26 ab c5 3b
       0.02771927 -0.07908818 0.011583421 0.0060323654
000280 b8 e9 69 bd 42 dc 3b bd 00 d8 e8 3d a3 37 2c bd
       -0.057107657 -0.04586435 0.11369324 -0.042045247
000290 72 c0 a1 3d f5 fb d0 3a 40 7d 86 bd 30 ba 9b 3c
       0.07898034 0.001594423 -0.06566858 0.01900968
0002a0 cd ad 92 3d 02 72 ad bb 6e 99 3e 3d 21 96 c2 bd
       0.07162056 -0.005293132 0.04653304 -0.09501291
0002b0 96 c7 47 3d cc b1 9e bd f3 9b 00 3e 1f 1e cc bc
       0.048774324 -0.07748756 0.1255949 -0.024916707
0002c0 6d 59 ad bd eb b2 a4 3d d8 9f 96 3d 23 a8 ae bd
       -0.08464322 0.080419384 0.073547065 -0.08528163
0002d0 3f f0 43 3d 74 56 57 3d 3e 13 c6 3c 98 a1 2c bc
       0.04783654 0.052572682 0.024179097 -0.010536574
0002e0 c8 82 a2 bd 36 dd f2 3d 5d e4 24 3c bb f9 e7 bd
       -0.07935101 0.11858599 0.010064212 -0.11326929
0002f0 d8 cb a7 bd ce cc bd bb ba 14 54 3d a4 12 d7 bd
       -0.08193177 -0.005792237 0.05177758 -0.10501602
000300 32 ba 85 bc b4 10 8b 3d 33 d5 92 3c 82 f1 22 3c
       -0.016324136 0.06790295 0.017923927 0.009945275
000310 d4 96 49 3c 70 13 8f bd 1e e0 ae 3d eb ae ed 3d
       0.012304027 -0.06986129 0.08538841 0.116056286
000320 ff 18 e1 3d ee 08 93 bd a5 94 2a 3d 27 a8 de 3d
       0.10991096 -0.071794376 0.041645665 0.10871916
000330 76 e2 a7 bd 90 3e aa 3d aa ba 93 bd a3 4a e7 3d
       -0.08197491 0.08312714 -0.07213338 0.11293533
000340 ff fb be 3d 9f 1b dd bd 6d 1e cd 3d e8 00 f3 3d
       0.09325408 -0.10796284 0.10015569 0.11865407
000350 85 9c dc bb e9 57 f6 3d 73 b9 e3 3d 2e 9f 06 bd
       -0.006732526 0.12028486 0.11119356 -0.03286665
000360 ae a8 86 3d 90 b2 49 bd d8 d3 ed bd 2b 6e 0d 3d
       0.06575142 -0.049242556 -0.116126716 0.034528892
000370 25 16 c0 bc 21 81 c8 bc 27 c1 a1 3d ee c5 05 be
       -0.02344806 -0.024475636 0.07898169 -0.13063785
000380 a9 c5 c1 3b 49 20 02 3d 9f ab 32 bc 65 07 a7 3c
       0.0059134555 0.03176907 -0.0109051755 0.020389268
000390 64 ec 05 bc e9 8e 98 bd 65 3b 3d bd 96 e5 8c 3d
       -0.008174036 -0.07449133 -0.04619922 0.068797275
0003a0 5c b5 bd bd 77 87 8c 3d b8 fb fc bc cf 23 98 bd
       -0.09263107 0.06861775 -0.030881748 -0.07428705
0003b0 34 56 a2 bd ce ed 45 3d f4 05 af bd 2f a1 c1 bd
       -0.07926598 0.04832249 -0.08546057 -0.094545715
0003c0 6c 75 b8 3d 03 da 81 bc aa 16 6f 3d 2d ca f8 bc
       0.090067714 -0.015851026 0.058371224 -0.030369842
0003d0 41 5a c1 3c e6 6d 85 3d 15 98 48 bb ee de 23 3d
       0.023602607 0.06515102 -0.0030608226 0.040007524
0003e0 75 23 86 3d 95 46 fd 3d ae ae ca 3a 40 ec a9 bb
       0.06549732 0.12366978 0.0015463436 -0.005185634
0003f0 75 12 c0 bc bc 4a c7 3d f1 b7 39 3d 21 23 a4 3d
       -0.023446301 0.09731051 0.045341436 0.08014513

lstm.bias_ih_l0 f4 [256]
000000 c6 1d e0 3c ad a2 d7 3d 0e c9 f7 3d 1c 0b 99 3d
       0.027357947 0.10529075 0.12098895 0.07472822
000010 c5 09 b1 3d 52 d6 11 3c f2 47 dc bd 57 65 ae 3d
       0.086444415 0.008901196 -0.1075591 0.08515423
000020 8b 68 09 3e db 3c ba bd 68 a4 8b 3c 8b 48 e5 3d
       0.13418786 -0.090936385 0.017046168 0.11195477
000030 df 6c 9a bd 31 0d e9 bd c2 07 88 3d 1a 3e ac 3d
       -0.07540297 -0.11379469 0.06642105 0.084102824
000040 ed ee 0e 3e 22 1f 82 3d 30 48 90 bd cd a3 78 3d
       0.1395833 0.06353594 -0.07045019 0.060703088
000050 86 c0 9b bd 73 f2 df bd e7 ff 50 3d 72 37 4a 3d
       -0.0760508 -0.109349154 0.051025297 0.049369283
000060 01 fa 73 3d 42 13 ed bd 85 04 d4 3d 95 81 db bd
       0.059564594 -0.11575939 0.103524245 -0.10718075
000070 19 b4 a0 bd 05 c4 9c bd 9d b6 84 bd 71 f3 d1 3d
       -0.07846851 -0.07654575 -0.06480143 0.10251511
000080 4e 0f 86 bd 2c 24 c4 3c b1 30 18 3d 3f e5 66 bd
       -0.06545888 0.02394303 0.03715581 -0.05637097
000090 6c ce 6f 3d 53 80 1d 3c 6e 2b 5d bc 02 be a0 bc
       0.05854647 0.009613114 -0.013499124 -0.019621853
0000a0 11 f1 46 bd a5 83 f5 3d a6 05 92 3d a1 9b c7 bd
       -0.048569743 0.11988 0.071299836 -0.09746481
0000b0 3d 80 a2 3d 8d 95 ac 3c 3a e9 66 bc a2 3e db 3d
       0.07934616 0.021067405 -0.0140936915 0.10705306
0000c0 38 ec 2e 3c aa 8d b4 bd 09 50 96 bd b2 e1 a4 3d
       0.010676436 -0.08816083 -0.07339484 0.080508605
0000d0 76 53 c3 3d 9a 9b a9 3d 7c 73 c6 3d bb 65 cb 3d
       0.09537403 0.08281632 0.09689996 0.09931513
0000e0 2a 8a c7 bc ec b0 51 3d a1 ab f8 3c b4 25 d2 3d
       -0.024357874 0.051194116 0.030355277 0.102610976
0000f0 d5 f0 b0 bd 83 68 01 3e 5e 0b 97 bd 19 f4 f7 3d
       -0.08639685 0.12637524 -0.07375215 0.12107105
000100 91 1f a4 3d 80 9c 0b 3d 4d 7d c7 bd e0 2b 4f bd
       0.08013833 0.034084797 -0.09740696 -0.05057895
000110 2a 01 80 bc 22 c8 d8 3c 97 44 d8 bd ec 29 18 bd
       -0.015625555 0.026462618 -0.105599575 -0.037149355
000120 5e a3 ef 3d ef 51 5b 3c f0 f3 01 3d 03 14 dd 3b
       0.11701082 0.013386234 0.031726778 0.0067467703
000130 8c e1 48 3c 36 00 e6 bd 7d 44 9f bd 0d 84 a0 3d
       0.012260806 -0.11230509 -0.07776735 0.07837687
000140 22 ac b3 bd 6d 76 98 bd ae 95 89 3d 63 ee 95 bb
       -0.08773066 -0.07444463 0.06718002 -0.004575537
000150 ab cf f1 bd 30 a7 30 bc ba 0a 8a 3d 4e ca a8 bd
       -0.11807188 -0.010782048 0.06740327 -0.082417116
000160 2e 63 94 3d da fb b4 bd a1 38 c2 3c 78 04 81 3c
       0.072454795 -0.088370994 0.023708643 0.015749201
000170 18 ee ef bd 92 4b 95 bc d9 00 de 3c b0 3e 0f bd
       -0.11715335 -0.018224511 0.027100014 -0.034971893
000180 1d 47 be 3d dd cd e4 bd 71 c8 9e bd 82 5f a2 bc
       0.092909075 -0.11172078 -0.07753075 -0.019820932
000190 34 fb a3 bd f7 7a 8a bc 2d 68 e1 3d 81 c6 87 bd
       -0.080068976 -0.016904337 0.11006198 -0.066296585
0001a0 b7 2d 53 3d 31 ca d5 bd cb a8 09 bd 7f c8 5f bd
       0.05155727 -0.104389556 -0.03360824 -0.054634567
0001b0 05 f2 2a 3d 47 cc a0 3d 7d de ad 3d 54 b5 3a bc
       0.041734714 0.07851463 0.08489702 -0.011395771
0001c0 c4 b4 2e 3d 7f f3 53 3c 1e 3b 76 bd d6 52 a8 3d
       0.04265286 0.012936472 -0.060114972 0.08218925
0001d0 97 68 4c bc 26 23 61 3d 4d 98 17 3d 49 a7 a5 3b
       -0.012476108 0.05496516 0.03701048 0.0050553423
0001e0 41 2d db bc 6b ae 85 bd cc b2 8a bc 20 5d ae bc
       -0.026754977 -0.06527408 -0.01693096 -0.02128464
0001f0 a5 42 7e bd c7 54 4c bd 06 da 85 bd 03 3b b5 3d
       -0.062075276 -0.049885537 -0.06535725 0.08849146
000200 e5 7c dc 3d 1c e2 04 bd 76 c1 8a 3d 4d 99 ff bd
       0.10766009 -0.032442197 0.06775181 -0.12480412
000210 64 ea 90 3c 3f 7d d1 bd 50 18 85 bd d5 56 08 3e
       0.017689891 -0.10228967 -0.06498778 0.13314374
000220 8a 96 42 bc 3e 1b e6 bc d6 89 cf bd 21 3c 03 bc
       -0.011876712 -0.028089162 -0.10133712 -0.008009941
000230 57 d3 c9 bd 5d 3d 98 bd 02 b5 e1 bd 0b df d1 bc
       -0.09854763 -0.07433579 -0.110208526 -0.02561905
000240 bd e7 4b 3d 6a 7b a1 3d f7 ef d7 3d dc b0 ff 3a
       0.04978155 0.078848675 0.105438165 0.0019507664
000250 b4 0b bc bd b7 76 03 bc d7 56 b2 bd e7 4b 77 3d
       -0.0918192 -0.008023909 -0.0870797 0.06037512
000260 fe a1 19 bd 10 b6 8d bc d1 43 e2 bd a9 0f b9 bc
       -0.037508003 -0.017298728 -0.11048091 -0.022590475
000270 2d c2 27 3d c5 a6 cd bd d5 d4 b0 3c 1a d8 ef bd
       0.040956665 -0.100415744 0.021585861 -0.1171114
000280 06 05 81 bc 46 58 93 bd 58 61 ef bd 95 d8 42 bd
       -0.015749466 -0.07194571 -0.11688489 -0.04756983
000290 21 2e 83 3d 73 2f 27 3d c1 ba a7 3c bb a4 c8 bd
       0.06405283 0.040816735 0.020474793 -0.09797045
0002a0 f4 b3 a3 bd 4b 4c 60 bd 13 5d e3 3d 51 5d 28 bd
       -0.07993308 -0.05476026 0.11101737 -0.04110462
0002b0 3d 78 9c bd d4 a3 ac bd d0 a5 39 bd f4 3b f8 bd
       -0.07640121 -0.08429685 -0.045324147 -0.1212081
0002c0 c3 b9 13 bd 28 ea 97 3d 81 3a f6 3c 06 c3 8d 3d
       -0.036065828 0.07417709 0.030057194 0.069219634
0002d0 f1 60 63 3d ee f2 7c bd 87 65 50 3d 66 9f f1 3d
       0.055512372 -0.061755113 0.050878074 0.11797981
0002e0 3e 1b 9f bc ec b0 07 3d 36 f1 40 bd b6 dc 94 bd
       -0.01942217 0.03312771 -0.047105037 -0.0726866
0002f0 9d 67 8a bd 07 93 50 3d c6 4d 3f 3d cc 62 65 bc
       -0.06758044 0.050921466 0.04670503 -0.014000606
000300 6c 05 b5 3d ad 4d ef bd f8 84 dc bd 42 5c 44 3c
       0.08838925 -0.11684737 -0.10767549 0.011984887
000310 9f e8 b6 3d f3 c0 72 bd 88 85 9c bd e8 4d 7b bd
       0.08931088 -0.059266042 -0.076426566 -0.061353594
000320 a0 1c 71 3d 34 74 cc 3a 6f f2 30 3c 4b 6b aa bb
       0.05886519 0.0015598596 0.010799988 -0.0052007786
000330 ec c6 1b bd 39 bb 0e bd a5 80 d6 3d 6b ff e1 bc
       -0.038031504 -0.03484652 0.10473756 -0.027587613
000340 bb b0 85 bc ae e7 07 bc 66 3f 8e 3d a0 8f 4a 3d
       -0.016319623 -0.008294983 0.06945686 0.049453378
000350 b6 70 76 bd 5d ec f0 ba 19 5c 0c 3e b7 88 b1 bc
       -0.060166083 -0.0018380989 0.13707007 -0.021671636
000360 8c b5 ed bc 30 7e 76 bc 97 c2 ee 3d ff 33 da 3d
       -0.029017232 -0.015044734 0.11658209 0.10654449
000370 41 37 c5 bd 20 44 e5 3d 60 84 c7 bb d6 5f 92 bd
       -0.096296795 0.111946344 -0.0060887784 -0.071471855
000380 d7 ca 75 bc bd 00 86 3c 37 5a 0d bb ff 2e d5 bc
       -0.015001974 0.016357774 -0.0021568665 -0.026023386
000390 c9 6f 3e 3d 4a 98 cd bd 31 b4 cf bd be 71 a5 bd
       0.046493325 -0.100388125 -0.10141791 -0.08078335
0003a0 83 c4 e8 3d cd ce 76 3d 7c 97 2c 3c 99 23 0f 3e
       0.11365607 0.060255814 0.010534164 0.13978423
0003b0 af fa 5e 3d 35 60 eb bd ca 41 b5 3d 30 01 3e bc
       0.05443829 -0.114929594 0.08850439 -0.011596963
0003c0 4e b6 e1 bd 89 8c 6d 3c e0 90 2d bd a5 94 fb 3d
       -0.110211 0.014498838 -0.04237449 0.12284211
0003d0 11 7b 73 3d 35 4a 97 3d 94 91 65 bd a0 1c b5 3d
       0.059443537 0.07387201 -0.056047037 0.088433504
0003e0 38 ed f5 3b e6 e6 9e bd 65 85 dc 3d b1 e4 03 3e
       0.0075050853 -0.07758884 0.107676305 0.12880208
0003f0 b8 c1 57 bd f7 01 7e 3c 2e 46 41 bb ea e6 fd 3d
       -0.05267498 0.015503398 -0.0029491293 0.12397559

lstm.bias_hh_l0 f4 [256]
000000 9b b3 22 bc af 5e 92 bd d2 c3 98 3c a1 d4 a0 3d
       -0.009930517 -0.07146966 0.018648062 0.07853056
000010 e1 b1 a5 bd b7 d5 4d bd f2 57 8f 3d 7a 28 bd bd
       -0.08090568 -0.050252642 0.06999196 -0.09236236
000020 4e f0 ca 3d 21 3a 21 3d 57 46 f8 3d 01 22 b8 b9
       0.09909116 0.039362077 0.12122791 -0.0003512055
000030 28 5b 08 3d ee d4 13 bc 92 a7 c2 3d 98 fe 14 3d
       0.03329006 -0.009022934 0.09504618 0.036375612
000040 71 ee d0 bd 4e 65 f8 3d ca c9 cc bd de 57 19 3d
       -0.10201729 0.12128697 -0.09999426 0.037437312
000050 3e f3 df bd a6 88 57 bc 0b 4e f7 3c 12 d3 21 3d
       -0.10935067 -0.013155138 0.030188581 0.039507933
000060 17 78 11 3d 80 c9 45 3d 59 54 b2 3d 05 a4 1f bd
       0.035514917 0.04828787 0.08707494 -0.03897478
000070 69 12 34 bd d5 09 90 bd eb e2 7b 3d 31 16 b0 bc
       -0.04396287 -0.07033125 0.061495703 -0.021494957
000080 da 9f fe 3d 8e 4e 75 3c 65 30 ff b9 df 4a 2d bd
       0.12432833 0.014972342 -0.00048673447 -0.04230773
000090 e8 a8 e7 3d 1d 86 00 3e 1e 19 a4 bc 69 7f 29 3d
       0.11311513 0.1255116 -0.020031508 0.041381273
0000a0 58 20 93 3d 35 23 cc bd 3e e6 c8 bd 91 04 9e bd
       0.071839035 -0.09967653 -0.0980954 -0.07715715
0000b0 98 b0 23 3d f2 2f c2 3d 4e fb 81 3d 6c 53 9c bd
       0.039963335 0.09481801 0.06346761 -0.07633099
0000c0 db 09 a5 bd 81 89 4a 3d 78 ee 25 bd 16 da 43 bd
       -0.080585204 0.04944754 -0.040510625 -0.047815405
0000d0 04 95 69 3d c3 bb 0e 3e aa aa 5c 3d 35 31 da 3d
       0.057026878 0.13938813 0.053873695 0.10653917
0000e0 cc 12 a1 3d bb b7 d9 3b 27 18 c0 3d a4 7e b6 bc
       0.07864913 0.006644217 0.09379607 -0.022277184
0000f0 8e 3b 17 3d 02 3c b2 bd 2c a3 32 3d 7b 45 b5 bc
       0.03692203 -0.08702852 0.043612644 -0.022127857
000100 a3 85 cf 3d 9d b2 4f bd d0 43 4f 3c a4 d7 00 bc
       0.10132911 -0.05070745 0.012650445 -0.007863913
000110 01 c6 e9 bc 44 e7 8c 3d a1 17 b1 3c 3d de a8 bd
       -0.028536798 0.06880048 0.021617712 -0.082455136
000120 f8 17 b8 3c 62 b5 8d 3b fb 0c 80 bd b2 ab 9f bd
       0.022472367 0.004324601 -0.06252476 -0.0779642
000130 8f 4c c8 3d 57 51 00 3e a4 e8 40 bd 39 21 b1 bd
       0.097802274 0.12531029 -0.047096863 -0.08648915
000140 c6 f5 6f 3d 11 3d 57 3d d5 eb cd bc fd 2a 37 bd
       0.058583997 0.05254847 -0.025136868 -0.04471873
000150 f2 0b 3e bd 01 53 b2 3d e6 f2 a1 bd 88 6c ef bd
       -0.04639811 0.08707238 -0.07907657 -0.116906226
000160 ec 27 80 bd 80 fa df bd 11 a6 b8 3d ca fd ae 3d
       -0.062576145 -0.10936451 0.0901605 0.085445
000170 ea 96 ed bd 2f 9a 87 3d 69 28 a8 bd 1f 14 6b 3c
       -0.1160105 0.06621205 -0.082108326 0.014348059
000180 3d c8 d8 3d a2 9b 9a 3c bf 48 e4 3d 74 34 b8 3c
       0.105850674 0.01887304 0.11146688 0.02248595
000190 d1 b2 55 3d be 3b 3f bd 75 4a 88 3d a3 16 d0 3d
       0.052172486 -0.046687834 0.066548266 0.101605676
0001a0 46 81 a6 3d 14 22 de 3d d4 03 ae bd 9c e3 82 bd
       0.08130126 0.10846344 -0.08496824 -0.06391069
0001b0 6f b7 de bd a1 f8 c3 bd 65 1d b7 bd 1c c4 25 3d
       -0.10874831 -0.095689066 -0.089411534 0.040470228
0001c0 20 54 f9 bd 08 87 85 3d db bf 79 3d 7e bb c0 3d
       -0.12174249 0.06519896 0.060973983 0.09410761
0001d0 4e 53 5a 3d f2 2e 07 3e ed 4d 8b bd fa b4 37 bd
       0.0533021 0.13201502 -0.068019725 -0.044850327
0001e0 ca bf 87 3d 96 eb e4 3d bc a6 c2 bd 8f 7f ce bc
       0.06628378 0.11177747 -0.09504458 -0.025207309
0001f0 05 ba bc 3d 9c 41 d8 3d 69 c9 de 3c f8 ed 63 bd
       0.09215168 0.10559389 0.02719565 -0.055646867
000200 a5 b2 ee 3d ab c9 b1 bd e4 62 b0 3b fd b4 a7 bb
       0.116551675 -0.08681043 0.0053828824 -0.005118011
000210 a9 5e 06 3d 27 21 b3 3c 82 8a ed bd ec 18 c6 bd
       0.03280512 0.021866394 -0.11598684 -0.09672722
000220 fe 63 09 3e 07 09 83 3d 74 7e d2 3c 6d ba 77 3d
       0.1341705 0.06398206 0.025695063 0.060480524
000230 5d 81 0c bd 16 b5 98 3b c6 de 59 bc 14 51 1b 3d
       -0.034303058 0.004660259 -0.013297742 0.03791912
000240 a7 75 08 3e 02 8c df 3c a5 dd e5 3d 91 1c 12 3d
       0.13326131 0.02728844 0.11223916 0.035671774
000250 35 62 d0 3d 02 96 05 bc 27 15 46 3d 94 ac 15 3d
       0.101749815 -0.00815344 0.048360016 0.036541536
000260 d2 e1 dd 3d 2f 18 e3 3d 65 d8 9a 3c 72 f7 14 3d
       0.108340874 0.11088597 0.018902013 0.036368795
000270 9b 3a 8a 3c fe 95 1e bd 39 53 55 3d 33 dc ca 3c
       0.016873648 -0.038717262 0.05208132 0.024763202
000280 6f 41 ab 3d 92 63 ac bd a6 16 d8 bc 05 e1 94 3d
       0.0836209 -0.08417429 -0.026377987 0.072694816
000290 25 45 c2 3d ac 16 e8 bd 14 9b 75 bb b9 39 bb 3c
       0.094858445 -0.11332449 -0.0037476467 0.022854673
0002a0 12 88 d5 bc ad 06 ec 3d 7d 7b f5 3d c1 6e 7d bd
       -0.02606586 0.11524711 0.11986444 -0.0618732
0002b0 db 18 b7 3d b6 f8 04 be e1 51 b6 3d 51 34 2a bd
       0.08940288 -0.129855 0.08902336 -0.0415538
0002c0 0a df 88 3c 46 4c 91 3d ae 99 43 3d 92 24 6b bd
       0.016707916 0.07094626 0.047753982 -0.057407923
0002d0 46 78 25 bd 72 bb 00 3e ab 61 25 bd fe b5 9e bd
       -0.040397905 0.12571505 -0.040376347 -0.07749556
0002e0 7d c9 ca 3d bc 8d 82 bd c8 44 b7 3d 8f 9f c8 3d
       0.09901712 -0.0637469 0.08948666 0.097960584
0002f0 1e 45 fc bd 5a 6b b1 3d 99 b5 cc bd 86 14 93 bc
       -0.123178706 0.08663054 -0.099955745 -0.017954122
000300 49 51 8a bd 70 8a 82 bc 51 22 50 bc 71 66 bb bd
       -0.06753785 -0.015935153 -0.012703494 -0.091503985
000310 79 f4 b5 bd 17 dc 91 bd 1f 16 52 3d bf ca 2c bd
       -0.0888452 -0.07122057 0.051290628 -0.04218554
000320 e9 7d 02 3d 70 bb 06 3b 53 5c 6c 3d 2a 8e b1 bc
       0.03185836 0.0020558499 0.057705235 -0.021674234
000330 9c e0 b7 3d c0 9f c1 3d fb 8c e1 3d f7 ea 0c 3d
       0.08978388 0.09454298 0.11013218 0.034403767
000340 c9 40 10 bd 0f 34 13 bd 77 9d c3 3d 40 c4 5d 3d
       -0.035218034 -0.03593832 0.095515184 0.054142237
000350 ae e5 5e 3d 97 7d f5 bd a7 9e 1e 3b 00 b0 4d 3d
       0.05441826 -0.11986845 0.002420345 0.050216675
000360 4f 25 d8 bd 0b bd ea 3b db 91 8a 3d 1f 07 1c bd
       -0.10553991 0.007163649 0.06766101 -0.03809273
000370 c1 ce c6 bd 4e 4f cc bd 29 b6 a9 3d 28 8d b0 bc
       -0.09707404 -0.09976064 0.082866974 -0.021551684
000380 60 5c d0 3d 6e 98 f7 bd 3f fc bd 3d 59 a1 c5 3d
       0.10173869 -0.120896205 0.09276628 0.09649915
000390 49 ed 00 3e ac 38 b6 3d 7c f5 62 bd ae ce f1 3d
       0.12590517 0.08897528 -0.055409893 0.11806999
0003a0 5b 20 d9 3d e0 4b 14 bd e2 82 c6 3d ea 91 1d 3d
       0.106018744 -0.036205173 0.09692933 0.038469233
0003b0 73 66 e2 3d 99 5b 7f 3d 91 d2 7a 3d 6a ed b7 3d
       0.11054697 0.062343214 0.061235968 0.0898083
0003c0 68 9b f7 bd d5 70 9c 3d fb 4d bd 3d 8d e5 05 3e
       -0.12090188 0.076387085 0.09243389 0.13075848
0003d0 4c 7f 6b 3c ad cd ec 3d 2c 65 0f bc e0 ac d4 3d
       0.014373612 0.11562667 -0.008752149 0.10384536
0003e0 f0 4d d8 3c df cb 50 3d 3e 8f 6e bc 36 9b ac bd
       0.026404351 0.050975677 -0.014560519 -0.08428042
0003f0 d0 09 8f bd fc 6d 1e bb db b1 e2 3c 92 16 9d bd
       -0.069842935 -0.0024174443 0.027672699 -0.076703206

emb.linear1.weight f4 [32, 1]
000000 49 21 0b 3f be b8 7e bf 0c 2f 58 3e de 8f 09 be
       0.54347664 -0.99500644 0.21111697 -0.13433787
000010 b0 f7 94 3d e7 1e 4b 3f cc f5 66 3f 28 d7 07 3e
       0.07273805 0.7934403 0.90218806 0.1326567
000020 d8 e3 7b be 58 53 6f 3e 68 b3 80 3e 03 a9 4f 3f
       -0.24598634 0.23371637 0.25136876 0.81117266
000030 cc 24 ae be bc f8 ea be 00 7a 52 be 7e 7c 51 bd
       -0.3401245 -0.45892894 -0.20554352 -0.051144116
000040 f6 6f b4 be 48 c5 86 3e 11 4b 4d 3f 04 46 da 3e
       -0.3524167 0.2632239 0.8019267 0.42631543
000050 5e 57 b9 3e 4a 8f 28 3f b6 22 74 bf d0 14 75 bf
       0.36199468 0.6584364 -0.95365465 -0.9573488
000060 fa 63 f5 3e 7d 11 2e bf 10 d0 13 bf 82 53 14 bf
       0.4792784 -0.67995435 -0.57739353 -0.5793992
000070 44 36 c0 be 25 f4 5f 3f 3e 67 09 3f d9 5d 2a bf
       -0.375414 0.8748191 0.5367316 -0.6654945

emb.linear1.bias f4 [32]
000000 c5 e4 d5 3e 36 d6 48 bf 8f 06 43 bd ab 3c ac 3d
       0.417761 -0.7845186 -0.047613677 0.08410009
000010 30 e5 82 be 95 c0 c3 be dd 20 86 3e 0c 02 1b bf
       -0.2556548 -0.38232866 0.26196948 -0.6055
000020 00 d0 17 ba b6 64 07 3f 28 04 ea be 09 b7 5f 3f
       -0.0005791187 0.5288805 -0.45706296 0.87388664
000030 d0 f1 95 bd a8 47 28 bf e0 6c 03 be db 1e 2a 3f
       -0.07321513 -0.6573434 -0.12834501 0.6645333
000040 3b 8a 47 3f b0 f0 46 bf 42 ef 4b be da 41 41 bf
       0.779453 -0.7771101 -0.19915488 -0.75491107
000050 0b 01 6e 3f 7c 51 67 bf c9 9c 63 3f ee b3 12 bf
       0.9297034 -0.9035871 0.8891111 -0.573058
000060 8b 20 64 be 4b 6c be 3e f2 e5 55 bf 79 d4 52 3f
       -0.22278039 0.37191996 -0.83553994 0.8235546
000070 64 89 d4 be 35 40 fb 3e 98 77 5d 3f 3f 0e 83 3e
       -0.4151107 0.49072424 0.8651061 0.25596806

emb.linear2.weight f4 [64, 32]
000000 15 2a 78 3d 20 0b 93 bb 50 04 a4 bd ec 55 eb 3d
       0.060587008 -0.00448741 -0.08008635 0.11490998
000010 25 cb 1d 3e 80 8f 05 be 50 51 12 be 00 b6 05 3d
       0.15409525 -0.13043022 -0.14288831 0.03264427
000020 53 97 18 be 40 90 20 3e 8e 98 d6 3d f6 9d 81 bd
       -0.14901476 0.15680027 0.10478316 -0.06328957
000030 c0 a2 dd 3b 7c 1b 48 bd 86 58 6f bd 8a b5 00 be
       0.006763786 -0.048854336 -0.058434032 -0.12569252
000040 2f 83 aa bd f1 5c 1c 3e 92 6b e5 bd eb 12 bd bd
       -0.083258025 0.1526983 -0.11202158 -0.09232124
000050 10 56 4c 3d d2 a1 12 be e6 be 0b 3e 1a 25 aa 3d
       0.049886763 -0.14319542 0.1364704 0.08307858
000060 37 9f d5 bd 16 d7 2c 3e ac 2a d6 bd a1 03 3a 3d
       -0.104307584 0.16878924 -0.10457358 0.045413617
000070 a7 96 0d 3e 62 03 26 3e e7 60 db 3d a9 10 36 3e
       0.13827 0.16212228 0.10711842 0.17779793
000080 0b df 09 be a0 c0 26 bd 8d d6 bf bd ba 61 76 3e
       -0.1346399 -0.040711045 -0.09367094 0.24060717
000090 7c 40 65 3d 7f f2 68 be 5e 1e 4f 3b 3f fd 33 3e
       0.0559697 -0.22748755 0.0031603794 0.17577074
0000a0 b0 ac 5a 3c fa ab 69 3d 02 fb fa 3d 7a 96 3d 3a
       0.013346836 0.057048775 0.12254907 0.00072322006
0000b0 52 7d fa 3d 8c 97 cf bd 00 75 0f bb d3 09 1e 3e
       0.12230934 -0.10136327 -0.0021889806 0.15433435
0000c0 c5 6a 4d 3d 6a 5e c1 bd 3d be aa bd 50 dc b0 bd
       0.05015065 -0.09441836 -0.08337066 -0.08635771
0000d0 54 92 04 3e 60 26 21 3c 73 a1 d6 3d 32 3c 95 bd
       0.12946445 0.0098358095 0.10480013 -0.07286872
0000e0 d2 76 89 bd d0 a0 60 3d d5 7e 12 3e ad 72 a5 bd
       -0.06712116 0.054840863 0.14306195 -0.08078513
0000f0 80 7b 21 3b 53 ee f5 bd b6 1a 07 3e 2a 09 93 3d
       0.0024640262 -0.12008347 0.13193783 0.07179482
000100 9e 2d cd 3c 6e 9e b5 3d b8 5f 46 3d fb 0b b9 3b
       0.025046166 0.08868109 0.04843113 0.00564718
000110 7b 8d 11 3e b6 7f e4 bc ea 46 92 3d 90 f3 63 bc
       0.14214127 -0.027892929 0.07142432 -0.01391305
000120 f0 d1 c5 bc 8f 44 08 bd 60 d1 30 3d f7 9c d5 3d
       -0.024147958 -0.033268508 0.043168426 0.10430329
000130 00 33 d3 bb 64 3c 3a 3d e4 85 cd bd f1 0b 0e be
       -0.0064452887 0.04546775 -0.10035303 -0.13871743
000140 72 ea 3d bd 7b 53 20 3e 11 9a 57 bd d0 95 d4 3c
       -0.046366163 0.15656845 -0.052637164 0.025950342
000150 f6 17 fd 3d 73 f3 06 3e a1 cd be 3d 6e 0a 29 be
       0.12358086 0.13178806 0.09316564 -0.16507885
000160 58 81 1d bd 09 3e 5a 3e b0 3e a9 bd 65 91 f5 3d
       -0.03845343 0.21312727 -0.0826391 0.119906224
000170 bc 4a 3e bd 92 69 45 3d f7 bb fa bc a9 91 68 3e
       -0.04645799 0.048196383 -0.030607207 0.22711815
000180 28 f9 8b bd a1 91 05 be fa 52 d1 3d 41 f0 a0 be
       -0.06834632 -0.13043834 0.10220905 -0.314333
000190 6a 57 a1 3d 2e 14 fe bd 8e 21 21 3e 40 32 f7 bc
       0.07878001 -0.12406193 0.15735456 -0.030175328
0001a0 4c ef 52 3d 2b 0e e3 3d 7e 64 af 3d 5c 42 c6 bc
       0.051497743 0.11086687 0.08564089 -0.024201564
0001b0 1b f7 2e 3e 68 d3 ae bc c0 fd 8d 3b 6f c0 8e 3d
       0.17086451 -0.02134104 0.004333228 0.069702975
0001c0 12 04 18 3e 74 7e ac bd 4f 77 44 bd 59 8b 0e 3e
       0.14845303 -0.084225565 -0.047965344 0.13920344
0001d0 98 3e 66 bb 20 a5 fa 3c 1e 71 4f be e6 1f cc 3d
       -0.0035132524 0.030596316 -0.20257995 0.09967022
0001e0 74 8c 3b bd c9 87 00 3d 38 d0 6f 3d 6a 1a 22 be
       -0.045788243 0.031379495 0.058548182 -0.15830389
0001f0 1c 58 ec bd 22 ec d1 bd 10 1a 25 3e f8 3b 75 bb
       -0.11540243 -0.10250117 0.16123223 -0.0037419777
000200 ff 88 a4 3d 78 01 a1 bc cf aa b6 bd 4a 69 8a 3d
       0.080339424 -0.01965402 -0.08919298 0.067583635
000210 94 00 7d 3d d9 a2 35 bb 62 56 10 3d 28 80 83 3c
       0.06176813 -0.0027715473 0.03523863 0.01605232
000220 44 e8 30 bd 1e 06 e2 bd ca 27 e0 3d 9e ac a0 3c
       -0.043190256 -0.11036323 0.10945089 0.01961356
000230 58 0d b3 bc f8 f8 26 be 6c 32 1c bd 56 c9 f5 3d
       -0.021856949 -0.16305912 -0.038134024 0.120012924
000240 87 f6 a6 bc e0 c3 7f 3d e2 c4 33 bd 4a ea f2 3d
       -0.020381225 0.06244266 -0.043888934 0.11861093
000250 31 70 b1 3d 78 be 8d 3c 46 46 44 3d 84 e3 01 be
       0.08663977 0.017302737 0.04791858 -0.12684447
000260 4e b0 5a 3e c4 35 8a bd 5a d7 c3 bd 47 3f 64 bd
       0.21356317 -0.06748536 -0.095625594 -0.05572441
000270 48 17 66 3d 82 ef b8 be 7d e6 85 bd a7 77 f7 bd
       0.056174546 -0.3612023 -0.06538103 -0.12083369
000280 37 f7 0e bd c0 28 30 3d 6a 3b 6d be 36 87 3e 3e
       -0.03490373 0.043007612 -0.23167196 0.18606266
000290 19 5e 09 be 74 bc 98 be ac de d3 bd 7d 86 32 be
       -0.13414802 -0.29831278 -0.10345206 -0.17434116
0002a0 e0 19 d9 bb 77 98 92 bd 16 82 a5 3d d7 f2 9b bd
       -0.006625399 -0.071579866 0.080814525 -0.076146774
0002b0 20 28 c0 bb 0a 96 f4 bd ca 75 10 be 11 c2 32 3e
       -0.0058641583 -0.1194268 -0.14107433 0.17456843
0002c0 31 c5 ee bd c4 7e 39 bd 1d a3 68 be 84 28 44 3d
       -0.11658705 -0.04528691 -0.22718473 0.0478902
0002d0 88 4c 8e 3c 66 ab 28 be 0c a2 67 3e 1e 7c e8 bd
       0.017370477 -0.16471633 0.2262041 -0.113517985
0002e0 e6 79 93 be 0b 61 34 3e 6a 16 19 be 5f 35 93 bd
       -0.2880394 0.17615144 -0.14949957 -0.07187914
0002f0 60 c5 5b bc 00 b3 c2 bd 67 7d 99 bd 2e 50 77 3e
       -0.013413757 -0.09506798 -0.07494622 0.2415168
000300 1f 77 c1 3c ce 75 ce 3d e5 cd 9e 3d 15 1b a7 3c
       0.023616372 0.10081063 0.07754115 0.020398656
000310 bf 0d e1 bd 91 38 3a 3c 80 7d f7 bd 84 19 36 bd
       -0.1098895 0.011366026 -0.12084484 -0.044457927
000320 44 0a 72 bd b0 ca d7 bd 8d 8a 21 3e 5a 30 1d 3d
       -0.05909182 -0.105367064 0.15775509 0.03837619
000330 8f 97 33 be 02 92 d9 3d 59 cf 0c be 21 38 f1 3d
       -0.17538284 0.10623552 -0.13750972 0.11778284
000340 24 07 7f 3d 0e 33 d7 bd 5c b2 9c bd d0 58 d0 3c
       0.06226267 -0.10507785 -0.07651207 0.025432974
000350 7c 12 d9 3d 52 cf af 3d a0 0a 23 3e 97 a9 00 be
       0.10599229 0.08584465 0.15922022 -0.12564693
000360 8a 8c 53 be 76 ee b9 bc 98 9e e4 3c 4a 83 34 3e
       -0.2065908 -0.022696715 0.027907655 0.17628208
000370 d0 85 95 bd 31 7d 25 be 80 72 24 be 61 a7 2e 3c
       -0.07300913 -0.16161038 -0.16059303 0.010660023
000380 8e 9b 15 3c 00 67 eb bd 55 1e 30 3e 59 03 fa bd
       0.009131325 -0.11494255 0.17199071 -0.1220767
000390 48 5f a8 bc 4c 2d b5 3d fb d5 73 bd 01 fa 32 be
       -0.020553246 0.0884653 -0.05953024 -0.17478181
0003a0 da df 6e bd e0 9b 8a 3a 47 a5 da bd 8e a4 c8 3d
       -0.05831895 0.0010575019 -0.106760554 0.09797011
0003b0 3e 36 f4 3d ee 8c 0c be f0 7f d1 bd 32 5d 24 3e
       0.119244084 -0.13725635 -0.1022948 0.16051176
0003c0 2a bd 1f 3e 0e 35 b7 3d 73 4e 9a 3d da 35 f9 3d
       0.15599504 0.08945666 0.07534494 0.121684745
0003d0 60 68 cd 3d 8b 49 2d 3e a6 1d 42 be 98 ab 12 bd
       0.100296736 0.16922586 -0.18956622 -0.035808176
0003e0 91 42 ac bd cd 5c 45 bd 38 87 c4 bc 98 6c ef 3c
       -0.08411134 -0.048184205 -0.023990259 0.029226586
0003f0 c0 79 ff bb b2 cf 16 3e bd fa 35 3e a8 5c 8e 3c
       -0.007796496 0.14727667 0.1777143 0.017378166

emb.linear2.bias f4 [64]
000000 6d c8 3c 3e 7e 69 8a 3c 53 75 48 bd fe e0 25 bd
       0.18435831 0.016896006 -0.048940014 -0.040497772
000010 dd b5 ea 3d 6c 11 6b bc f5 57 20 3e 24 77 14 bd
       0.11460469 -0.014347415 0.15658553 -0.036246434
000020 9b 0a 20 bc 12 cc 12 3e 9a 13 90 bd 91 76 cd 3a
       -0.009768154 0.14335659 -0.07034989 0.0015675594
000030 c3 e7 82 3d 9e 95 2d bd 23 55 4b 3e 56 ce 38 bd
       0.06391861 -0.042379014 0.19856696 -0.045118652
000040 97 2a 85 3d ce c1 45 be 09 32 e8 3d 41 d9 7c bd
       0.06502264 -0.19312212 0.113376684 -0.061730627
000050 5e ac c3 bd ca 5c bc 3d 33 e1 d6 3d 4b 36 f8 3d
       -0.09554361 0.091973856 0.10492172 0.121197306
000060 d6 77 e2 3d 4b 8f a3 3c f6 dc 92 bd fe e0 f5 3c
       0.11058013 0.019965788 -0.07171051 0.030014511
000070 d2 06 b6 3d 5e b0 40 3e 0f 59 f3 3d 0a 62 18 be
       0.088880196 0.18817279 0.11882221 -0.14881149
000080 9d 4d 0f 3e c3 51 df bd ad f2 0f bd dc c2 02 be
       0.13994451 -0.10904267 -0.035143543 -0.12769645
000090 66 88 01 3e 85 1c 0c 3d 7d 4c d4 3c 21 24 fc bc
       0.12649688 0.034206886 0.025915379 -0.030778946
0000a0 9c 34 dd 3d 1c 44 06 3e ca 11 12 3e 17 0c 06 3e
       0.1080105 0.13111919 0.14264598 0.1309055
0000b0 58 72 bd bc 66 e6 c5 3d 3b 94 c1 3d c0 1d 0e be
       -0.023125812 0.09663086 0.09452101 -0.13878536
0000c0 84 30 1c be 64 3e dc 3d 5f 3c 7b bc 58 eb fe 3d
       -0.15252882 0.107540876 -0.015334218 0.12447232
0000d0 04 c3 23 bb c0 6a 86 3d 0b f7 63 bd 98 8b 3c 3d
       -0.0024988065 0.0656333 -0.05565552 0.046031564
0000e0 90 38 5c 3c c9 16 d8 bd 4f b1 1a 3e e7 4e 57 3d
       0.01344122 -0.10551221 0.151067 0.05256548
0000f0 80 8a 09 3d 22 a8 ac bc 46 29 99 3b 5a 2b 02 be
       0.03357935 -0.021076266 0.0046741096 -0.1271185

linear1.weight f4 [32, 64]
000000 61 c1 c4 3d 07 7a 5a bd 83 51 43 bd 6f 2f d9 bd
       0.096071966 -0.05333903 -0.047685158 -0.1060475
000010 82 a6 7d 3d 3c 19 31 3c 92 0b 89 bd b3 28 74 3d
       0.061926372 0.010809239 -0.0669166 0.059609126
000020 8c c6 00 3e 12 34 3b 3d 21 ba 31 3d 03 e6 1a 3c
       0.1257574 0.045703955 0.043390397 0.009454253
000030 d7 61 e7 b8 ef 90 bb 3d 3d 42 f1 bd 04 0b b9 3c
       -0.000110331624 0.09158503 -0.11780212 0.02258826
000040 9b 1b c3 bc 0a 6a 64 3d 49 e5 7a 3d f6 7e 89 3c
       -0.023816874 0.05576519 0.06125382 0.016784173
000050 08 b2 fc bd 10 7e 9b 3c 72 24 00 be a3 b7 81 bd
       -0.12338644 0.01898101 -0.12513903 -0.06333854
000060 f5 0e 9d 3d 37 3c 34 3d bc bf d3 bc 75 ab c1 3d
       0.076688685 0.044002738 -0.025848262 0.09456531
000070 00 d2 bf bc 6e ea eb bd a6 c2 fa 3b ff 1a 15 3c
       -0.023415565 -0.11519323 0.0076525984 0.009100675
000080 af 6d a8 bc 5f 41 15 be 39 e3 57 3b 74 61 da 3d
       -0.020560114 -0.14575718 0.0032941832 0.10663119
000090 6b dc 56 3e 47 8c 14 be b9 64 1a 3e 97 5e e3 bd
       0.2098252 -0.14506637 0.15077485 -0.11102026
0000a0 36 14 58 3d c2 34 40 3e 32 84 53 3c 48 cc cd 3d
       0.05275365 0.18770126 0.012909936 0.10048729
0000b0 cb 14 8f 3d 26 9b d5 bd f2 5e fd 3d f1 27 86 bd
       0.06986388 -0.10429983 0.12371625 -0.06550587
0000c0 7a 62 da 3c a2 dc 89 3a f7 1f 93 bc 62 ca d2 bd
       0.026658285 0.0010518024 -0.017959578 -0.10292508
0000d0 bb 37 0a 3d 24 35 47 bd 48 20 3c bd cd 99 0b 3c
       0.033744555 -0.048634663 -0.045929223 0.008520556
0000e0 56 b5 82 3d 4f ea 95 bc 27 ef 35 3c 31 de 14 be
       0.06382243 -0.018300204 0.011104382 -0.14537884
0000f0 65 d2 55 bd 05 f4 7f bd f3 18 11 3c 29 d5 1d bd
       -0.0522026 -0.062488575 0.008856046 -0.038533363
000100 24 16 07 bd 23 39 3d bd 2b 62 9c bc e3 4b 8d 3d
       -0.0329801 -0.046197068 -0.019089779 0.0689924
000110 b4 12 9d bd 04 9f 11 3d 2d c7 55 3c 51 ab 8d bd
       -0.07669583 0.03555204 0.0130479755 -0.06917442
000120 a2 12 e6 3b 4a ea e3 bc 09 20 22 bc fb f6 c3 3d
       0.007021264 -0.027821679 -0.009895333 0.09568592
000130 62 e8 06 be 37 99 b4 bd ac 47 aa 3d 71 55 92 3d
       -0.13174585 -0.08818286 0.083144516 0.07145203
000140 9a 4f aa bd 47 9a 54 3d 14 8c 87 bc 21 92 86 3d
       -0.08315964 0.051904943 -0.016546287 0.065708406
000150 78 d5 8e 3c fe cd 88 3d 7a 12 e5 bc cf 2b 83 bc
       0.017435774 0.06679915 -0.027962912 -0.0160121
000160 bc 8d 7e bd 5f c4 05 3d 51 af 9d bc 54 92 85 bd
       -0.062146887 0.032657977 -0.019248636 -0.065220505
000170 26 ac 73 bd 6d 0f d5 3c 4d ed a3 bd 9a 1a f1 3d
       -0.059490345 0.026008332 -0.08004246 0.11772652
000180 2c b7 cf 3d 65 3b 75 3b e7 1d ac 3d b9 db ea bc
       0.10142359 0.0037419435 0.08404141 -0.028669225
000190 9c 96 9c 3b a3 0e 9e 3d ad 64 00 be 89 09 b2 3c
       0.004778696 0.077176355 -0.12538405 0.021733062
0001a0 9f 56 81 3d 38 12 be bc 31 1a 1a bd 1f b5 8f 3d
       0.0631535 -0.023202047 -0.037622634 0.07016968
0001b0 f5 85 f7 3c 76 89 05 3e 87 41 0a be 09 48 d3 3d
       0.030215243 0.13040718 -0.13501559 0.10316474
0001c0 46 fb 9a bd 8b e9 d6 bd 29 09 2c be aa cd db bd
       -0.07567458 -0.104937635 -0.1680037 -0.10732587
0001d0 93 55 d8 bd fe 57 8b bc 6a b2 98 bb d0 32 8d 3a
       -0.10563197 -0.017009731 -0.0046599405 0.001077259
0001e0 56 aa 91 3d e1 f5 b5 ba 64 b9 05 3e c8 21 2b 3d
       0.07112567 -0.0013882482 0.13059002 0.041780263
0001f0 a2 dd 6b 3d b5 7c b9 bd 4f de 0b bd 32 6f a5 3d
       0.057584412 -0.09056989 -0.034147557 0.080778494
000200 98 98 2d bd 83 1a f4 3d 45 21 8b bd 05 70 7e 3d
       -0.042381853 0.11919119 -0.06793455 0.06211855
000210 e0 5c a3 3d 88 b9 e2 3c 6c 78 52 bd 09 a2 16 3d
       0.07976699 0.027676359 -0.051384374 0.036775623
000220 b6 54 62 3c c8 1b 09 3d c5 f2 89 3d e8 3c 65 bd
       0.013814142 0.03347376 0.06735758 -0.055966288
000230 a8 28 22 bd e1 ee 00 3d 51 b6 03 3e 9e 46 e4 bd
       -0.039589554 0.031477813 0.12862517 -0.11146282
000240 d9 5e 46 3d 37 99 a7 bd 80 2d c1 bd ac 31 84 bb
       0.048430298 -0.0818352 -0.094325066 -0.0040342417
000250 dc 9c b5 3d 00 68 2d bd c3 fb e6 3d b1 20 01 3d
       0.08867809 -0.04233551 0.112784885 0.031525318
000260 a5 f6 57 3d 41 0e 67 bd 3f b4 0a 3e 36 09 21 bd
       0.052725453 -0.056410078 0.13545321 -0.039315425
000270 24 12 d0 bd 45 ae 3e 3d da 7d e0 3c da 95 bb 3d
       -0.1015971 0.046552915 0.02740376 0.09159441
000280 27 76 56 3d 9d 64 c3 bd f4 70 97 3d 76 12 59 3d
       0.052358773 -0.09540675 0.07394591 0.05299612
000290 fd 9b 0a be ab b7 86 b9 5c 0b cb 3d dc 6b 22 bd
       -0.13536067 -0.00025695315 0.09914276 -0.039653644
0002a0 14 14 26 3d 6c 97 0d be 78 7e d0 bd d1 08 43 bd
       0.04054649 -0.13827294 -0.10180372 -0.04761583
0002b0 5c 23 b8 bd 40 2b cb 3d 03 d5 58 bb 45 5c cf bc
       -0.08991119 0.09920359 -0.003308595 -0.025312552
0002c0 1e 97 a3 3d 03 1c 97 3c c3 3d cc 3c 10 94 b8 3d
       0.07987808 0.018445974 0.024931794 0.09012616
0002d0 d2 f5 e4 3d 84 68 e7 bd 2d a1 0c be f2 71 d9 bd
       0.11179699 -0.11299232 -0.13733359 -0.106174365
0002e0 d8 d6 3a 3d ae c7 dc 3d 70 21 27 3c 8d 04 db bd
       0.045615047 0.107802734 0.010200843 -0.10694227
0002f0 2e bb 04 3d 29 a1 09 be 55 72 cd 3d 1d 6b aa bd
       0.03240507 -0.13440384 0.10031573 -0.083212115
000300 6a d1 86 3d 3f 8a 2c 3a 1f 0a ea bd cf aa 8e bd
       0.06582911 0.00065818796 -0.11427712 -0.06966173
000310 8b f1 8f bb 78 93 c0 3c 01 e1 ce bd 09 84 40 bc
       -0.004392808 0.023507819 -0.1010151 -0.01175023
000320 3c 11 92 bd c9 5d ad bc 85 17 e9 bd 20 5e cf 3c
       -0.071321934 -0.021162884 -0.11381439 0.025313437
000330 e7 75 b5 bd e6 6c 56 3c 90 39 e1 bd 7e f0 02 bd
       -0.08860379 0.013087487 -0.10997307 -0.031967632
000340 e9 25 13 3e 3b 64 4c bd 9f 6a ff 3c 86 67 ae bd
       0.1436993 -0.049900275 0.03117877 -0.08515839
000350 b8 db 82 3d a6 dd 21 3d 63 c8 d6 bd 16 a5 05 35
       0.06389564 0.03951802 -0.104874395 4.978659e-07
000360 ca 9d 24 3c 0b fb 83 bc fe db 3d 3b 93 e9 c7 bc
       0.0100473855 -0.016110918 0.0028970237 -0.024403369
000370 24 7c 91 bd 19 31 29 3d 9a 4c 26 3d 19 45 b8 3d
       -0.07103756 0.04130659 0.040600397 0.08997554
000380 88 fe 19 be 6a 67 e8 3c c1 f7 35 3d 0b 0a da 3d
       -0.15038502 0.028369624 0.04442573 0.10646447
000390 73 d3 e9 3c 4e 08 3d bd f3 ec d1 3d 14 54 ef bd
       0.02854321 -0.046150498 0.102502726 -0.116859585
0003a0 57 95 d7 bc 4c ca 7d 3d 93 91 a4 bd bf 5f 18 bd
       -0.026316328 0.061960503 -0.080355786 -0.037200686
0003b0 d9 e9 fc 3b d8 dc a3 bc ae ed 40 bd 76 cb 73 bd
       0.0077183065 -0.020002767 -0.04710167 -0.059520207
0003c0 4a 6e 99 bb 0e af 9c 3d 71 d8 1d bd c6 0f 00 3e
       -0.004682337 0.076505765 -0.038536493 0.12506017
0003d0 ee 54 5c 3d a8 9e aa 3d a1 fc 8c 3d 91 a9 26 3c
       0.053791933 0.083310425 0.06884123 0.010172264
0003e0 50 01 ac 3d a1 91 f0 3c 24 cf aa 3b 76 cf 4b 3d
       0.08398688 0.029366316 0.0052126814 0.049758397
0003f0 32 a6 50 3d 67 40 6c bc 64 c6 5a bd 5c 73 92 3d
       0.050939746 -0.014419652 -0.053411856 0.07150909

linear1.bias f4 [32]
000000 96 dc ac bc 44 1a 1d 3d c7 c6 cf 3d 34 aa 23 bd
       -0.021101277 0.038355127 0.10145336 -0.03995724
000010 59 a5 80 bc b3 96 60 bd 0c 2b 82 3d 38 99 f2 bd
       -0.015703844 -0.054831218 0.06355867 -0.118456304
000020 f4 64 ec 3d 40 c9 3c 3d dd ed 52 3d 4f af e7 bd
       0.11542693 0.046090364 0.051496375 -0.11312734
000030 49 10 a1 3d dd 06 bd 3d 5e 43 84 bd 82 f0 88 3d
       0.07864434 0.09229825 -0.06458162 0.06686498
000040 b8 88 2b bc 9b e0 aa bd 41 3c 91 3d 49 32 80 bd
       -0.010469608 -0.08343621 0.07091571 -0.06259591
000050 7a 15 c2 3d 4c 64 47 bd f3 32 b2 3c 3c f9 96 bc
       0.094767526 -0.048679635 0.02175281 -0.018429391
000060 39 93 16 3d 86 64 eb bc 07 a4 24 3d 83 31 de 3c
       0.036761496 -0.028734457 0.04019549 0.027123218
000070 84 5f 7a bd e8 59 b7 3c 16 a3 b0 bd b6 98 27 bd
       -0.061126247 0.022381738 -0.08624856 -0.04091712

linear2.weight f4 [1, 32]
000000 7b 72 04 be fe e9 17 3e 2a 6d e4 3d 79 ec 3b be
       -0.12934296 0.14835355 0.11153634 -0.18351926
000010 2e a7 aa 3d d5 d8 e0 bd 7c 82 9b 3d ee 75 98 3d
       0.08332668 -0.109788574 0.07593247 0.07444368
000020 53 ce b2 bd 92 5e 10 3e ad 27 4b 3d 0e ef cb 3b
       -0.087307595 0.14098576 0.049598385 0.006223566
000030 b6 e0 4c 3d 4a f8 88 bd b7 70 96 bd 36 8a 25 3e
       0.05001899 -0.066879824 -0.073457174 0.16166005
000040 3a b5 03 3e 28 15 aa ba 74 d7 00 be 37 64 fd 3d
       0.12862101 -0.0012976276 -0.12582189 0.1237263
000050 69 74 be bd 28 c4 dc 3d 15 57 ed 3d fb 12 16 3e
       -0.09299547 0.10779601 0.11588875 0.14655678
000060 b4 7b 06 3e da ff 23 3e 10 c6 ce bd 02 75 88 3d
       0.13133126 0.16015568 -0.10096371 0.066629425
000070 8f ed ca bd 5f da c4 bd a8 a9 ba 3d e1 bc 9e bc
       -0.09908592 -0.096119635 0.091143906 -0.019377174
