lstm_kospi_only_window_seqlen128_layaers1.pt (torch, 154742 bytes, 11 tensors)

lstm.weight_ih_l0 f4 [256, 64]
00000000: 962b ee3d 1ffc d03d 3ab5 c7bd 252a 743c
00000010: e1c0 563d 7c20 203c 2e60 5d3d 0847 7a3d
00000020: befc 273c 1b0e 6ebd 3540 a5bd 774a a43d
00000030: 671b a33d 9df0 043e 7892 25bd 5197 d13d
00000040: 13b5 353c f8c2 d8bd 9e62 74bc f7ab 2c3d
00000050: 4025 1f3c e84b 903d 67ea a73d cf5e b9bd
00000060: dc04 ed3d 8691 6abd cda1 babd 56a6 af3d
00000070: c126 babd f7dc 2fbd 760c 2dbd ffdb ad3d
00000080: b1bd 1a3d 9072 0d3d 41d3 783d feec 973d
00000090: 7ef6 f53d b039 9abd 1626 25bd 6df6 073d
000000a0: 722c 5cbd 7d07 e83c 2d0f c33d 2f91 c3bc
000000b0: 17c8 203c 8653 9c3d b9fd d43d 4496 f1bd
000000c0: ceca a6bc aadd 813d 9de8 b6bb 6d71 9fbd
000000d0: 0f81 d63d 5834 0bbd 38b8 5bbd 2599 a13d
000000e0: 1d15 d93d ff04 3a3e 568a 293d f918 ef3b
000000f0: 5a31 a7bd 5829 25bd 9252 06bd 495b 6b3d
00000100: 2ff7 e7bd 9c83 b63d 478f 9dbb 0447 8d3d
00000110: 8757 c23d 72c8 7d3d 60ad 40bd f2da 15bb
00000120: fdf8 54bd 25d9 ef3b 9a3a 033d 6447 f13b
00000130: bc69 15be 3a6c e93c 9c16 f53d 6d33 ecbd
00000140: 2318 083e 5659 963d 07da bebc 2549 d03d
00000150: 1466 e63d 401e d53d a26c 193d 90bc 8c3d
00000160: 0c62 fe3d 252f 7f3d 06ce 87bd 7c22 a8bd
00000170: 4268 293e f551 09be 6150 d6bd c5a5 0cbe
00000180: a2e3 293d 943d 413e 0876 1fbd 889d 4f3d
00000190: 21b2 c23b e47b 9bbb f063 493e 4f19 da3d
000001a0: 6a0b 68bd aad5 b83d 5cc9 aebd c7df 22bd
000001b0: f018 ec3c a0db 513d b575 4fbd 9ef7 103e
000001c0: 7cb5 ba3d d308 133d 23e0 9e3d 903d 723d
000001d0: 413a f63d 5539 debd d7e7 15bd 71f7 243e
000001e0: 884e 303e de80 10bc 356a 1ebe 94ff 323e
000001f0: aba2 a43d 27ff 9e3b 78ca 093e f45e d63c
00000200: 7c5a d4bc 3948 713d 799c fbbd 70e6 30bd
00000210: 413d bb3c dc1c ea3d ddb8 98bd 7b27 883d
00000220: 7a0e e0bd 7594 55bd cd35 44bd f289 43bd
00000230: d4a6 4b3d 4ad7 23bd a87a bbbd 8e23 8ebd
00000240: ef91 143e fdf2 aa39 619d cf3c 8c3e e1bc
00000250: 616b 99bd 1a0d 9b3c e343 283c c143 f6bd
00000260: 4157 df3d 09a4 0e3e 32f9 b0bc ccce debc
00000270: d769 09bd a8be c2bd 4e18 f63d d6bd 5fbd
00000280: 53bf a83d 6198 f43d b83a 02be 3b33 7b3d
00000290: d014 e43d 529e a5bc 8152 ba3d dfc4 f83d
000002a0: 979b 593d 7d09 953c a453 e13d dec1 f23c
000002b0: 0dbc 30bd b899 a7bd 4a02 1f3e b2ef acbd
000002c0: fc2a 0abe 70b7 d83d 241d 0b3e 9cc3 8fbc
000002d0: 0976 f93d f97e cebd 0554 963d d186 c9bc
000002e0: 11a5 8e3d dc5e 133d 0a56 0d3e cea0 043e
000002f0: f92c 6bbd 18da 36bc 6305 8b38 075e a2bd
00000300: 68ec 533d a341 893d 0b46 12be 3d31 813d
00000310: fc96 353b 4332 3cbc bcef 113e 9c08 da3d
00000320: a903 913d c251 713d 8b94 c13d 05a1 0f3e
00000330: 7ee7 ebbd 5f11 303e e50f 033e 1b5c bf3c
00000340: e484 1b3e e8b9 0fbc 5c2f 6abd e51a 6abd
00000350: cc76 cfbd 5175 bc3c 9e4f f23d 7521 d9bd
00000360: 7608 d63d d3ae d43d 7179 ee3c 6b6c 023c
00000370: 66cc 673e 78a2 9b3d 8e57 d03c d417 71bd
00000380: 84f6 34bc 8231 c53d ac93 f43d 77eb 2aba
00000390: 9b60 7d3c 6470 07be 69fc 1f3d 341e cc3d
000003a0: c91c 053e f2ef b93c e3e1 9ebd a0b5 55bd
000003b0: b00e 66bd d100 0ebb 9b17 62bc aa80 9b3d
000003c0: 2820 573b 2e26 ea3d 60e1 f03d e5e3 753c
000003d0: ff2b 4a3c b406 acbd 509e b53d deaf f63d
000003e0: 3b16 5c3e 8896 933d eec8 ae3d 48d9 f23b
000003f0: 092e 90bc 74d4 c8bd 9c29 983d 8793 adbc
0.11629407 0.10204338 -0.09751363 0.014902626 0.052430037 0.00977337 0.054046802 0.061102897
0.0102531295 -0.05811892 -0.08068887 0.080220155 0.07964211 0.12982412 -0.040422887 0.102339394
0.011090535 -0.10584062 -0.01491609 0.042156186 0.009713471 0.07045728 0.081990056 -0.090512864
0.115731925 -0.05726769 -0.09112892 0.08576648 -0.09089423 -0.042935338 -0.04224821 0.084892265
0.03777856 0.034533083 0.060748342 0.074182495 0.12009905 -0.07530534 -0.040319525 0.033193994
-0.053753324 0.028323883 0.09524379 -0.02387294 0.00981333 0.07633118 0.10399956 -0.11796239
-0.020360377 0.06341107 -0.005581929 -0.07785306 0.10473835 -0.033985466 -0.05364248 0.07890538
0.1059973 0.18165968 0.041391693 0.007296678 -0.0816371 -0.04032263 -0.03279359 0.057460103
-0.113264434 0.08911821 -0.0048083398 0.06898311 0.09489351 0.061958738 -0.047040343 -0.0022866097
-0.051995266 0.007319587 0.03203831 0.0073632468 -0.14591116 0.02849399 0.11967203 -0.11533246
0.13290457 0.07341258 -0.023297323 0.10170201 0.112499386 0.1040616 0.037457116 0.06871903
0.12421045 0.06230082 -0.06631093 -0.082097024 0.16543677 -0.1341017 -0.1046455 -0.13735111
0.041476853 0.18871146 -0.038930923 0.050687343 0.005941645 -0.0047449935 0.1966703 0.106493585
-0.05665151 0.09025128 -0.085345 -0.039764192 0.028820485 0.05123484 -0.050649364 0.14156958
0.09116647 0.035897087 0.077575944 0.05914074 0.1202283 -0.10850779 -0.036598053 0.16110016
0.17217457 -0.008819787 -0.15470202 0.17480308 0.08038839 0.004852194 0.13456142 0.026168324
-0.025922053 0.058906768 -0.12285704 -0.043188512 0.022856357 0.11431286 -0.07457135 0.06648155
-0.10940261 -0.052143533 -0.04790287 -0.047738977 0.049719647 -0.040000238 -0.09154254 -0.06940375
0.14508794 0.00032605967 0.025343599 -0.027495645 -0.07491184 0.018927146 0.010270092 -0.12024642
0.10905314 0.13929762 -0.0216032 -0.027198218 -0.033548202 -0.09509021 0.120163545 -0.0546244
0.08239617 0.119431265 -0.12717712 0.061328154 0.11136782 -0.020217095 0.090977676 0.12146925
0.053126898 0.018193 0.11002281 0.029633459 -0.04314809 -0.081836164 0.15528217 -0.08444156
-0.1349296 0.10581863 0.13585335 -0.017549329 0.121807165 -0.10082812 0.07340244 -0.024600418
0.06965078 0.035979137 0.13802353 0.12951967 -0.057415936 -0.011160396 6.62904e-05 -0.079280905
0.051739126 0.06701972 -0.14284532 0.063082196 0.0027708402 -0.011486593 0.14251608 0.10646173
0.07080776 0.05891586 0.094521604 0.14026268 -0.11518763 0.17194127 0.12799032 0.023359349
0.15187413 -0.008772351 -0.05717407 -0.057154555 -0.101300806 0.02300516 0.11831592 -0.106020845
0.104508325 0.103849076 0.029110642 0.007960419 0.22636566 0.07599348 0.025432374 -0.058860615
-0.011045102 0.096285835 0.11942229 -0.00065200723 0.015464927 -0.13226467 0.039059076 0.09966698
0.12999262 0.022697423 -0.07757928 -0.052175164 -0.05616635 -0.0021667967 -0.013799573 0.075929
0.0032825563 0.114330634 0.11761737 0.015007948 0.012339591 -0.08399716 0.08868086 0.12045263
0.21492855 0.07206446 0.08534418 0.007411156 -0.017600076 -0.09806147 0.07429811 -0.02118851

lstm.weight_hh_l0 f4 [256, 64]
00000000: 08ca bb3d c69d cabd 17c4 ad3d 8e3f 45bd
00000010: 254a 1f3c f1c4 453c 30fd 403d 887e eebc
00000020: 8480 51bd 0287 7abd da78 d83d ba98 3a3d
00000030: 4fc3 67bc 3c43 d1bd 119d b5bd f77d 9fbd
00000040: d7d7 30bc 3466 debc 0825 92bd d2bf 103d
00000050: 3049 ca3d 481e a5bd 10b9 703d cf55 5b3d
00000060: 1812 bc3c 20ca 63bd b5f6 e3bd bc60 aabd
00000070: 33da d53d bc30 83bd 2821 90bd c1ae f33d
00000080: 81ac 93bd 066b 3cbd 8d9d 00be 65a0 53bd
00000090: 6336 1b3d 7325 6dbd e980 edbd 05f1 923d
000000a0: 0cca 803d 6596 b0bd 5cdc 9ebd 1ddf a13d
000000b0: b81d 19bd ce4b f0bd 8fc5 5b3d 79ca d2bd
000000c0: cca1 b23d 9168 e43d 3dda eabd d8a2 b2bd
000000d0: 6c65 a53d f7dc c33d 039e da3c 614c ce3d
000000e0: b2d4 dbbd 5650 1bbe a079 debd 726d cfbd
000000f0: 830f 5bbc c585 b9bd 7344 33bd e771 ec3d
00000100: 0e37 ba3d 662f 903d 0220 d63d 5430 133d
00000110: 3231 d83d cb55 9fbd c299 a9bd fc43 ee3d
00000120: 54c5 33bd 7a23 fd3c 228a 91bd 60d6 2e3e
00000130: 2135 393d 212b c0bd e028 383c 9197 dd3c
00000140: e44b c2bd 83e6 83bd f1a1 8cbb 3f7f bd3d
00000150: b402 033e b170 03be 7bff b03b f5e6 b9bd
00000160: da34 a63d 1bab 1ebe 9cfa bdbd a45d 06bd
00000170: 17bc 93b9 6e08 a6bd a809 fa3d 3173 6c3d
00000180: 23bc 20bd 65eb 113d 0c22 963d 945d c43d
00000190: d869 a4bd c176 2ebd 3ac9 e6bd 576e 88bd
000001a0: 3830 343d 552f 433c 6332 68bd a596 563b
000001b0: 6d6f d3bd 590c e5bc cf03 b13d f4f3 75bd
000001c0: 3ef5 27be e919 3dbd bba6 e83d 6e97 903d
000001d0: 4207 813d f424 c9bd 5b3b 1bbe cbf6 123d
000001e0: ceaa 063a 83d1 903b 163f 04be 14e7 6d3d
000001f0: 6380 8f3c 90d8 263c acfc c8bd 31e8 a53d
00000200: c777 b93d c607 973d ead9 7d3d 427a d83d
00000210: 3c19 dabc ee09 12be 4f47 20bd 7753 ac3c
00000220: 2fc3 f03d ba17 55bc 6ee5 ce3c 08cb d63d
00000230: 3304 8c3d 3872 833d eba8 c03d 308b c2bd
00000240: 878b 9e3d c550 ffbd 13c5 4e3b e624 08bd
00000250: c09e 1fbd 356e 863d 88b2 e33d 2e26 2a3c
00000260: dd34 a9bd d600 cabd bffd b6bd 7984 74bc
00000270: e24d d6bd b5ef 73bd 9aac c1bd aee3 76bc
00000280: dc33 b9bd d870 c93d e75b acbd 2f13 b0bd
00000290: acd3 cc3d 2a0c 673d b7eb e33b fd9f c73d
000002a0: e932 af3c 4433 043d 0a41 c2bd fb5a 0ebd
000002b0: 4cb8 b13d fd56 d8bd 10ce e73d 0b67 f2bd
000002c0: 9bc1 c6bd 7b79 5dbb b299 abbc aa0e 12bc
000002d0: a0fa 98bc 8af3 6a3d e4d3 d8bd 5ec1 c4bc
000002e0: c2af d3bd 2a41 acbc c702 743d 0ec6 dd3c
000002f0: 6034 013e 903d fdbc 2b86 983d e902 c93d
00000300: ea53 f3bd 0663 90bd 1bfe 4c3d bae2 a63d
00000310: 1bd6 37bb e72e 5bbe a4e5 b13d 98be 19bd
00000320: 0edb 123e e298 8c3d 7278 b53c 1f85 ae3d
00000330: 4706 2f3e 215a 1e3e b99b 67bd 73e0 17be
00000340: 194d b5bd c0db a2bc f9d3 04bd f607 073e
00000350: 440e 123e 144a cfbd 1205 00be 788e 043e
00000360: 9dd1 9fbc abc5 34be a578 cebb 21a3 c8bd
00000370: eac9 e4bc 4c21 493d 8870 97bb 17a5 b7bc
00000380: 72d9 81bc b589 11be 917d dd3b 58b1 4abd
00000390: f689 613d 47cf f1b9 791d 1bbe 8319 c5bd
000003a0: 4545 67bd 15d3 8bbd 74d9 35be eeef a9bd
000003b0: 8d60 893d 206b 413d 4990 b4bd 2ae1 94bc
000003c0: 2727 393d b507 a13b ea78 f4bc a636 cfbc
000003d0: 0e9d d63d 7075 23be 1311 86bd 75e9 94bd
000003e0: f6b2 d33d bc80 283e a28e 783d 53bd 10bc
000003f0: 5485 a33d 2ed9 8a3d 9bda 873d 5bea f53d
0.09169394 -0.09893374 0.08484667 -0.048156314 0.009722267 0.01207088 0.04711646 -0.02911307
-0.051147953 -0.06116391 0.105699256 0.045555808 -0.014145686 -0.10217902 -0.08867849 -0.07787698
-0.010793648 -0.027148344 -0.071359694 0.035339184 0.09877241 -0.08062416 0.05877024 0.05354863
0.022957847 -0.055612683 -0.1113104 -0.08319232 0.10442009 -0.0640578 -0.07037574 0.11898566
-0.07210637 -0.046000503 -0.12560101 -0.051666636 0.037893664 -0.057897042 -0.11596853 0.07174877
0.062885374 -0.086224355 -0.07756874 0.079038836 -0.037381858 -0.117332086 0.053655203 -0.10292525
0.087222666 0.11152757 -0.11467407 -0.08722466 0.08075985 0.0956363 0.026686674 0.10073162
-0.10733928 -0.15167364 -0.10863042 -0.10128297 -0.0133703975 -0.09058718 -0.04376645 0.11545163
0.09092532 0.070402905 0.10455324 0.03593476 0.10556258 -0.077800356 -0.0828128 0.11634061
-0.04388936 0.030900706 -0.07106425 0.17073965 0.045216683 -0.09383226 0.011240214 0.027049812
-0.09487131 -0.06440451 -0.004291766 0.09252786 0.12794 -0.12835957 0.0054015494 -0.09077255
0.081155494 -0.15494959 -0.092763156 -0.032804146 -0.00028178163 -0.081070766 0.12208873 0.057727043
-0.03924192 0.03562488 0.07330713 0.09588161 -0.080280006 -0.04259372 -0.1126885 -0.06661671
0.043991297 0.01191314 -0.056688678 0.00327436 -0.10323987 -0.02795999 0.086433046 -0.060047105
-0.16402146 -0.046167288 0.11359926 0.07060133 0.063002124 -0.098215014 -0.15159361 0.03587989
0.0005137146 0.004419507 -0.1291469 0.0580817 0.017517274 0.010183468 -0.09813818 0.081009276
0.09056049 0.073745295 0.061975397 0.10570194 -0.02662336 -0.142616 -0.039130505 0.021035893
0.11755978 -0.013006145 0.025255885 0.10487944 0.068367384 0.0641827 0.094072185 -0.09499204
0.077414565 -0.124665774 0.003155057 -0.033238314 -0.038969755 0.06563989 0.111180365 0.010385079
-0.08262036 -0.09863441 -0.08935117 -0.014924162 -0.10464074 -0.059554774 -0.09456749 -0.0150689315
-0.090430945 0.09835976 -0.084159665 -0.08597409 0.10001311 0.056408085 0.0069555896 0.09747312
0.02138658 0.032275453 -0.094850615 -0.034754734 0.0867773 -0.10563467 0.113186 -0.1183606
-0.09704896 -0.0033794332 -0.020947311 -0.008914629 -0.018674195 0.057361163 -0.1058729 -0.024017986
-0.103362575 -0.021027166 0.05957296 0.027071979 0.12617636 -0.030913144 0.074474655 0.09815008
-0.1188124 -0.07050137 0.05004702 0.081487134 -0.00280512 -0.2140461 0.086863786 -0.03753528
0.14341375 0.068650976 0.02215216 0.085214846 0.17092238 0.15464069 -0.056544993 -0.14831714
-0.08852596 -0.019880176 -0.032428715 0.1318663 0.14263254 -0.10121551 -0.12501934 0.12944973
-0.019509131 -0.1765353 -0.006301003 -0.09796739 -0.027928311 0.04910402 -0.004621569 -0.022417588
-0.015850756 -0.14212687 0.0067593534 -0.049485534 0.05506321 -0.00046121536 -0.15147962 -0.096240066
-0.056462545 -0.0682737 -0.17758733 -0.08297716 0.06707869 0.047221303 -0.08816583 -0.018173773
0.045203354 0.004914249 -0.029842813 -0.025294613 0.104791746 -0.15962768 -0.065462254 -0.07271091
0.103368685 0.16455358 0.0606829 -0.008834201 0.07984415 0.06779705 0.066334926 0.120075904

lstm.bias_ih_l0 f4 [256]
00000000: 4ae3 dcbd f26c c5bc 82f0 ca3d d3d9 ad3d
00000010: 8abc bebd 1118 03bc f329 303d 2dff 083e
00000020: 1b69 d03d 7776 053e 89ab aabc 4b6c bdbc
00000030: 7c8a 1dbd 960d 0a3d 6e92 9c3d 4646 09bd
00000040: a7dd c9bb 76b2 7f3d 4a12 933d d523 ee3d
00000050: 9a1d 52bc 8a06 cebc 9ebf e03d a8d7 e73d
00000060: e110 bebd 223f 27bd cc19 3e3d 1e98 98bc
00000070: 885a 723d a19d d03b 080b 93bd 07b1 12bd
00000080: cc1a 9ebd c5f1 a03c 2506 95bd 3197 da3d
00000090: 7a50 c43d 7f74 353c 21a8 cebd 66cd af3d
000000a0: cea3 663d 9b49 023d 17cb 5dbc 32eb c23d
000000b0: 4365 4e3c ed0e 77bd ebfd e13d 0e18 abbc
000000c0: e693 d338 5a90 e1bd 0bf2 8bbd 8c60 22bd
000000d0: eca3 073d 97f2 67bd 6484 e7bc fee7 233d
000000e0: de59 f83d 43a8 e4bd 27a3 ed3d 63a7 b1bd
000000f0: d2e0 f2bd 7811 adbd af02 e13d b848 b13d
00000100: c003 ccbd a7d1 063e 456c ecbd 60a2 9f3c
00000110: 9c70 ec3d 1003 383c e093 db3d e0b9 3d3d
00000120: 9075 8f3c 8c46 a2bd cbf6 dc3d 286b ad3d
00000130: cd33 dcbd 3750 8d3d 7827 313c 7ec9 0f3e
00000140: d1e7 93bd 29e5 1ebd aa06 aabd a583 1fbd
00000150: e0b9 98bd 6dbd 503d f7ae cd3d 949e bb3d
00000160: c224 dc3d e497 d13b fa65 4d3d d711 36bd
00000170: a77d bb3d 6747 b0bd 505a dfbd e14b c23d
00000180: 89a5 053e 0bd6 79bd 980e 39bd 3e4f ba3d
00000190: 34e4 803d 0212 cabb 0da3 8a3d 1f64 013e
000001a0: d434 ea3c b53e 4a3d 1a5d 29bd 5be3 a4bd
000001b0: cfd6 ae3d a2aa 933d 24fc 3f3b 9f4d 7ebc
000001c0: 6ce1 7d3d c7bf ecbd 280b 213c e66d 403d
000001d0: 3693 56bd af5b d03d 3f68 2b3c 5cef abbd
000001e0: 1874 443c cea5 ccbd 9f01 83bd 90d6 ff3c
000001f0: 2bcd ab3c 2cee ebbd 1147 d73c 4bd1 7dbd
00000200: 1948 60bd f832 dfbd b390 453d b7de 7dbd
00000210: 479c ce3c f8ab 5a3d bd52 df3d 61fc 05be
00000220: 9d81 56bb 9358 d83a 7660 8e3d 6cb8 4dbd
00000230: bd10 7e3d 0337 bebd 30a8 d3bd d46a e1bd
00000240: ffbc c4bc febe 623c 9120 83bd 6944 a2bd
00000250: f08b d6bc 66ad 00be 997e 7abd 88e8 a9bd
00000260: f8ea eebd dbce 8cbd 85db 403c 7ec6 843d
00000270: 410e e83d df87 a0bd 6d12 953d 8d27 d73c
00000280: 39f7 df3d 9282 d8bd c03e b23d a57d 1f3d
00000290: 6191 a3bd c785 b0bb e73d 903d acd0 753d
000002a0: c866 9dbd 86ce da3c 9100 5fbb e157 b4bd
000002b0: 73f3 013e ccbb 933d cb69 ad3d 88e3 123e
000002c0: ca3d 413d 7385 1dbd d562 a4bc 5f1d 94bd
000002d0: c2bd 383c 3751 963d 3eca a33d 5aa3 cb3d
000002e0: e7d6 d53d 5835 0fbe a722 0ebd 6f55 d6bd
000002f0: 066a a83d f8f0 1bbd cd98 87ba 5660 c8bd
00000300: a02c e0bd 09a0 9bbc 1bee 83bd 22f4 5b3d
00000310: 21df d8bd a763 f2bc 2e56 85bd c6ab 1c3e
00000320: e159 a43d 33a3 e9bd fca8 37bd 290d 523d
00000330: 972a 91bd 065f 4d3d 8705 92bd dab1 b93d
00000340: 34a6 e83d 3089 b1bc 474f 7e3d 083e dc3d
00000350: db41 993d 30f5 a03d 0236 6bbd 6b62 793d
00000360: 127c 173d 695c 2b3d 6826 73bd 9fae 53bd
00000370: 5d57 983d e190 853c 6392 853d de9f 1b3d
00000380: 8091 d73d 32f8 b1bc ee4a e53d e6a0 09be
00000390: 1239 f43c b0b2 8e3d 4d20 40bd b498 a53d
000003a0: 7e7d 19bd 287a a4bd cae6 5fbd 16d4 163d
000003b0: 9a2f 8c3d 62a0 aabd 0887 673d 54ce b2ba
000003c0: 35c9 013e c20a 5f3c 524c a2bd 7078 e0bd
000003d0: 7f18 e1bc fcc1 ae3d 725b d23d 28d2 36bd
000003e0: 381e 383d fe3e 25bd a5bc e73d e270 e1bc
000003f0: fe00 743c d801 80bd f01a d7bc b6c0 d2bd
-0.107855394 -0.0240998 0.099091545 0.08488812 -0.09313305 -0.008001343 0.043008756 0.13378592
0.10176297 0.13033472 -0.020833747 -0.023122927 -0.038462147 0.033704363 0.07645117 -0.033514284
-0.006160456 0.062426053 0.07181223 0.11627928 -0.01282444 -0.025149602 0.10974048 0.1132043
-0.09280563 -0.040831693 0.04641132 -0.018627223 0.05916837 0.006366447 -0.071798384 -0.035813358
-0.07719955 0.019646535 -0.072765626 0.10673369 0.09585662 0.011075138 -0.10090662 0.085840985
0.05630856 0.031808477 -0.01353719 0.09517516 0.012597385 -0.06031697 0.11034759 -0.020885494
0.00010088812 -0.11013861 -0.068332754 -0.039642856 0.033115312 -0.056627836 -0.028261371 0.040016167
0.12126516 -0.11164906 0.116033845 -0.086745046 -0.11859287 -0.084505975 0.1098684 0.08656448
-0.09961653 0.13165914 -0.11544088 0.019486606 0.11544916 0.011231199 0.10721564 0.046319842
0.017512113 -0.07923612 0.107892595 0.08467704 -0.10752068 0.069000654 0.010812633 0.14041707
-0.0722195 -0.038792763 -0.08302052 -0.038943905 -0.07457328 0.0509619 0.100431375 0.09161106
0.107491985 0.0063962806 0.05014608 -0.044450607 0.09154826 -0.08607369 -0.109058976 0.09487129
0.13051428 -0.060995143 -0.045179933 0.090971455 0.06293526 -0.0061666975 0.06769381 0.1263585
0.028589644 0.04937621 -0.041348554 -0.08051177 0.08537065 0.0721028 0.0029294575 -0.015521436
0.061982557 -0.11560016 0.00982932 0.046979807 -0.052386485 0.10173737 0.010461866 -0.083952636
0.0119905695 -0.09992562 -0.063967936 0.031230241 0.020971855 -0.11520037 0.026279004 -0.061967175
-0.054756258 -0.108983934 0.0482337 -0.061979976 0.025221003 0.05338666 0.10904453 -0.13084556
-0.0032731064 0.0016505889 0.06951992 -0.050224707 0.06202768 -0.092878364 -0.103348136 -0.11006704
-0.024015902 0.013839481 -0.06402696 -0.079232045 -0.026189774 -0.12566146 -0.06115589 -0.08296305
-0.116659105 -0.06875392 0.011771088 0.06483172 0.11330844 -0.07838415 0.07278905 0.026263976
0.10935826 -0.10571779 0.08703375 0.038938183 -0.07986713 -0.0053870413 0.07043057 0.060013458
-0.076856196 0.026709806 -0.0034027437 -0.08805824 0.12690525 0.07213554 0.08467444 0.14344609
0.047178067 -0.038457345 -0.020066658 -0.072321646 0.011275711 0.07339709 0.07997559 0.09943266
0.1044138 -0.13985193 -0.034701016 -0.10465514 0.08223347 -0.038071603 -0.0010345221 -0.097839996
-0.109460115 -0.01899721 -0.064418994 0.05369962 -0.105894335 -0.029588534 -0.06510578 0.15299901
0.080249555 -0.11408081 -0.04483889 0.05128208 -0.070882015 0.05013945 -0.071299605 0.090671256
0.11359826 -0.021671861 0.062087324 0.10754019 0.07483264 0.07859266 -0.057424553 0.060884874
0.036983557 0.041836176 -0.0593628 -0.051680204 0.07438538 0.016304435 0.06522062 0.037994258
0.10525799 -0.021724794 0.11195932 -0.13440284 0.02981237 0.06967676 -0.046905804 0.080857664
-0.037473194 -0.08031112 -0.054663457 0.036823355 0.06845017 -0.08331372 0.05652526 -0.0013641813
0.1267441 0.013613405 -0.07924713 -0.10960472 -0.027477501 0.08533093 0.10271348 -0.044634014
0.044950694 -0.040343277 0.11315278 -0.027519647 0.014892815 -0.06250352 -0.026257962 -0.10290663

lstm.bias_hh_l0 f4 [256]
00000000: 3e1f 1c3d 621f 1fbd f527 59bd e4ad f23d
00000010: 88cf c03c 96b1 033e 9c06 22bc 1c4d 53bd
00000020: 6b1d 9a3d 003d d03c 1bc1 0cbd 76ff b9bd
00000030: ccdd a7bd dffa 923c a618 8e3d 298c 9abd
00000040: 3e5f dcbc d3ac c9bd 1900 e23b a93a e33d
00000050: 9a19 a1bd 84a0 583d 9642 233d ec44 d93d
00000060: 0a17 4cbc 8eef d4bd 3a95 91bd 4229 db3d
00000070: f10c 1a3e 04a9 04be 7788 ac3d ce6b e73c
00000080: bf11 093c 1e65 5a3d c5bd f93d 8666 31bc
00000090: 5984 d43b c525 093d 5b71 dd3d 8bf2 fe3d
000000a0: 91e7 07bd bb18 e43d 2ccf df3d 843a 4d3d
000000b0: f1a2 4cbb c109 90bd 1bab 703d 0a65 92bd
000000c0: b86d 873d 14c2 d4bd ba43 afbd 8ec7 c63d
000000d0: 8c12 c83d 13d1 9fbd 6f9f b6bd 84b1 d93c
000000e0: 2868 c9bd d894 ac3c d07e 59bd 0aa0 813d
000000f0: ae6a 983d 1f0b b8bc 1d7e da3d 171b 7c3d
00000100: 4a3e 8fbd 2405 cfbd e66f 32bc 6d4b 23bd
00000110: 3be1 24bd 0f69 9cbd 411d 833d 008c c93d
00000120: fdf9 743d 72ed 523a f7e5 c13c 7041 f33d
00000130: 234a 463b 2b2d be3c 839e eb3d f6db febb
00000140: 3b8a 6f3d 9914 d7bd d298 76bd 6d42 0f3d
00000150: f0c0 cd3d de02 12bd fdab 03bd 8bdf a33d
00000160: 0fd1 01bd 817d e13d cb55 033e 5c24 81bd
00000170: f823 d13d d1a8 cc3d 6225 d0bd 7dc9 acbd
00000180: b157 9abd bb82 013d b95c 80bd 49cf 853d
00000190: 1723 13bb 4996 b9bd cfcb d9bd 2622 b6bc
000001a0: 0ac1 a83d ae4e 4e3c 698f f93d 8199 053d
000001b0: 4db6 073d fba3 c63c 13da 02bd 9481 b8bd
000001c0: a5e2 6bbc 6bff 563d 1197 933d a4c5 923d
000001d0: 13bb b83d 13ff 0fbd 40ca c7bc 5b55 e03b
000001e0: 7acb ddbd 84be 113e e084 253d a907 0e3c
000001f0: b3b1 bfbd 706e b1bd b785 da3d 9cbe 713d
00000200: 37a2 423c 9834 aebd c09c 593c e335 483d
00000210: ead8 c1bd ced2 213d 531d c9bd d69b f9bd
00000220: 72c7 d43d 2830 e33d 6e6e 013c 3cca 7c3d
00000230: d729 983a be23 5b3d 5ab6 59bc ff3e 823d
00000240: 881c cabb 9b6e d4bc 1f89 153b 0900 6abd
00000250: 04ba 07bd bf8f aa3d 727d 4b3d e871 b93d
00000260: 5f85 ebbd 258c 173d e5f1 613a b036 c03c
00000270: d15d 9cbd 3447 433d 4ac6 b33c 46d3 0e3d
00000280: 3a36 93bc 76ec ef3c 59d0 cd3b f8f5 503d
00000290: 9795 5b3d 0b83 413d 6aa2 fa3c 5af7 b23b
000002a0: 1a06 a9bc 8239 853b 0f7f ba3c c552 42bd
000002b0: b15c bdbc ac78 cabd e6ec 41bd 7105 b3bd
000002c0: 7d0e 80bc 8cd6 4d3d 73df 85bc aef7 293d
000002d0: ffa0 cebd a30d c3bd 8eb1 febc 2b93 d93b
000002e0: 6d89 ed3d 3b6f 1f3d ebc4 10bd e775 e2bd
000002f0: 27e1 ce3c 5408 b23d 2b6b b53d 525b a23d
00000300: bcb8 cf3d 95c9 603d 6b8b 2cbd da3e 313d
00000310: 5311 d43d 157e 38bd 6784 003c 6f97 72bd
00000320: abf2 eabc d5e5 8a3c 89c6 91bd 8fd0 083e
00000330: d07b 87bd c05d a7bd db1b e2bd 025c 4f3d
00000340: 2d2e c9bd 87ce a03d 7e9f 10bd 3942 3d3d
00000350: a34b cf3d 5f38 a83c fa3e cbbd 743a 833c
00000360: 1666 383c a7ff 9b3d 73d8 f63d fcad f73d
00000370: be08 40bd a252 e2bd 1359 eebd cc13 f93d
00000380: 7373 413d d6fa ae3d 82ec 203e 0422 e23d
00000390: cc93 48bd 7626 ccbd 83d5 513d 1b13 3dbd
000003a0: 03c7 a33d bef3 8d3d 0cc2 9cbc bad0 bd3b
000003b0: 7c2a a83d 280c 923a c670 6c3c 1100 8d3d
000003c0: 6d21 af3c 7c38 993d d8d5 b93d 2a46 95bd
000003d0: 7c2a 893d 3c7d aabd a663 0a3d 8c65 433d
000003e0: 542c b5bd ef68 043e 695d 8e3d 9e77 75bd
000003f0: ec00 e3bd 158e be3d ad21 633d aebd f9bc
0.038115732 -0.03884829 -0.05301662 0.11849573 0.023536459 0.12860712 -0.009889271 -0.05158721
0.07525142 0.025419712 -0.034363847 -0.090819284 -0.08196601 0.01794189 0.06938295 -0.07546265
-0.026900884 -0.09847417 0.0068969843 0.11095173 -0.07866211 0.052887455 0.039858423 0.10608849
-0.012456665 -0.10397254 -0.07108541 0.10701229 0.15043999 -0.129551 0.08424466 0.028249647
0.008366047 0.05331909 0.12194399 -0.010827666 0.0064855036 0.033483285 0.108126365 0.12448605
-0.033179823 0.111375295 0.10928187 0.050104633 -0.003122505 -0.070331104 0.05875693 -0.07148178
0.06612724 -0.1038858 -0.0855784 0.09706031 0.097691625 -0.078035496 -0.08917128 0.026573904
-0.09834319 0.021067068 -0.053099453 0.06329353 0.074422225 -0.02246624 0.106685854 0.061549272
-0.069943026 -0.10108402 -0.0108909365 -0.039866854 -0.04025386 -0.07637226 0.06402064 0.09841156
0.05980872 0.00080462464 0.023669226 0.118777156 0.0030256591 0.023214897 0.11504843 -0.007777686
0.058481436 -0.105019756 -0.060204335 0.034975458 0.100465655 -0.035647266 -0.032146443 0.08001622
-0.031693514 0.11010266 0.12825696 -0.06305763 0.102119386 0.09993137 -0.1016338 -0.08436868
-0.07536257 0.031618815 -0.062676854 0.06533677 -0.0022451335 -0.09061868 -0.106345765 -0.02223308
0.08239944 0.012592001 0.121855564 0.032617096 0.03313284 0.024248114 -0.031946253 -0.0900909
-0.014397298 0.05248968 0.07206548 0.07166603 0.090200566 -0.035155367 -0.024388433 0.0068461127
-0.10829826 0.14232832 0.040409923 0.0086688185 -0.09360065 -0.086636424 0.10670035 0.05901967
0.011879495 -0.08506125 0.013282001 0.048879515 -0.09465201 0.03950768 -0.09820046 -0.121879265
0.10389604 0.110931695 0.007899864 0.061716303 0.0011609149 0.053500883 -0.013288105 0.06359672
-0.006167952 -0.025931647 0.0022817326 -0.05712894 -0.033136383 0.08328199 0.04968018 0.09054929
-0.11500048 0.036998887 0.0008619114 0.023463577 -0.076350816 0.047675326 0.021945138 0.034869455
-0.017970193 0.029287558 0.0062809405 0.051015824 0.053609457 0.047244113 0.030595023 0.0054616155
-0.020632792 0.0040656934 0.022765664 -0.047442216 -0.023115488 -0.098862976 -0.047345065 -0.08741272
-0.015631909 0.050253436 -0.0163419 0.04149597 -0.10089301 -0.095240854 -0.031090524 0.0066398582
0.115984775 0.038924437 -0.035344046 -0.11057644 0.025253845 0.08692995 0.08858331 0.07927574
0.10142657 0.054879744 -0.042125147 0.04327283 0.10354867 -0.045042116 0.007844067 -0.05922645
-0.028680166 0.016955296 -0.07117946 0.13360809 -0.06615412 -0.08172178 -0.11040469 0.050624855
-0.098232605 0.07851892 -0.035308354 0.046205733 0.101218484 0.020534692 -0.09924121 0.016019084
0.011254808 0.07617121 0.12053003 0.12093732 -0.046883337 -0.11050917 -0.11638083 0.12161979
0.04722924 0.08543937 0.1571522 0.11041644 -0.048969075 -0.09968273 0.05122901 -0.0461608
0.07996943 0.06931256 -0.019135498 0.0057927044 0.08211228 0.0011142539 0.014431184 0.06884778
0.021378243 0.07481477 0.090739906 -0.07288773 0.066975564 -0.08324668 0.03378644 0.047704265
-0.088463455 0.12930654 0.0695141 -0.05992853 -0.1108416 0.09304444 0.055452038 -0.030485954

emb.linear1.weight f4 [32, 1]
00000000: c1e2 76be daca c6be 1011 eebe d29b 663f
00000010: 9709 0a3f 0975 00bf 4872 0b3f 88fb 1fbf
00000020: 2c89 3abf 4047 e7bd 2c69 bd3e 4d31 65be
00000030: e4f7 8f3e 40ca bcbe 009a ed3e 3014 7cbf
00000040: cf2d 24bf 0e4a 24bf 0c41 b63e a695 903e
00000050: 0a5d 3b3e e82c 783f ba3b 073f 4596 0ebf
00000060: 6cac c43e f3f9 5cbf ec18 603f ca99 303f
00000070: 2888 683e 9fe7 343e 26bd 413f c763 b1be
-0.24109937 -0.38826638 -0.46497393 0.9008151 0.5392088 -0.5017858 0.54471254 -0.6249318
-0.7286556 -0.11292887 0.36994302 -0.22382088 0.28118813 -0.36873055 0.46406555 -0.98468304
-0.641324 -0.641755 0.35596502 0.28239173 0.1829721 0.9694352 0.5282551 -0.55698043
0.38412797 -0.8631889 0.8753803 0.68984663 0.2270819 0.17666481 0.7567924 -0.34646437

emb.linear1.bias f4 [32]
00000000: 00e0 ee3e 6e09 7b3e 900b 59be e584 b1bc
00000010: ac77 373f 4ab2 b73e 9070 7fbf 4037 90be
00000020: f01f 5d3f d406 a2be 8aa4 23bf 9d32 3b3e
00000030: 80dd 4e3f 7048 d6be 3edc 803e da90 123f
00000040: 612c 723f 16cf 8b3e 848d 2dbf ccec 3e3f
00000050: 049a bd3e 0eb9 263f e81c 20bf bbdc 913e
00000060: f6b9 26bf 7f68 533f 7e99 64bf 4910 a7bd
00000070: 62fc 433f a7ce ad3e 70b1 993e 174c 893e
0.46655273 0.24515316 -0.21195817 -0.021669814 0.7166698 0.3587821 -0.9978113 -0.28167152
0.8637686 -0.31645834 -0.6392294 0.18281026 0.8080673 -0.4185214 0.2516803 0.57252276
0.94598967 0.27306432 -0.6779406 0.74580073 0.37031567 0.6512612 -0.6254411 0.28488716
-0.65127504 0.82581323 -0.8929671 -0.08157403 0.7655698 0.33946726 0.30018187 0.26815864

emb.linear2.weight f4 [64, 32]
00000000: 7650 913d a6ba ef3d 23ea 2f3e f00c 14bd
00000010: 81bc 963d 08e8 c63d fbb5 80bd 6dd5 b7bd
00000020: cb72 0dbc 6ad1 bdbd 28c6 24be 3fbe fa38
00000030: 7951 efbc dcda 3cbd 0454 22be 48b4 44be
00000040: 16d2 143e 0d8e a53d bb13 e8bd 103d 06be
00000050: 5a7b 073e db69 fd3b cf93 16be 35fa 86bc
00000060: 6061 a4bb ab1a d5bd 0a7a bb3d 13e4 233d
00000070: be99 f03d 4ad8 223d b54a 25be 1439 dcbd
00000080: 931f 2c3d 7f81 5dbd 14c5 15be 7e35 243d
00000090: e4d8 dcbd 3d7b 16bc 7e4e c83d c04b 5bbd
000000a0: c10c 253c ae19 f63d e851 553d 3ba0 34be
000000b0: f9f3 57bd d91b 33be cd7d 25be 0982 d9bd
000000c0: ccf0 0abe 37e5 69be 40da 6b3c 5bc4 ae3d
000000d0: 281a 71bd b68e 06be 6c64 8c3d 8e72 86be
000000e0: 1ce2 34bd d634 393c 6bea acbd c966 273e
000000f0: bd3a ce3d 0f1a 263e 5515 913d 5aca ac3d
00000100: 6b25 323e 9a49 523e 76b5 1abe f995 123d
00000110: cbe6 92bc 1d8f 143d 00b3 593a 5ce7 1c3d
00000120: 77bb 1dbc e0b8 103c 1ac9 f23d 92bc 343e
00000130: a764 4dbd 3856 24bd 0137 f2bc cb93 063e
00000140: bbe1 3a3e 38c5 0f3e 4cd6 5c3d 138f d9bd
00000150: b5ea 06be 3ff3 4f3c 6bf5 343e a45c 133e
00000160: 29ce 12be ad14 313d 4bd0 1c3e 15ff 053e
00000170: 2170 b03d 924b 03bd 308b f53d c789 313e
00000180: 81ed 8abb e996 b5bd 5867 b3bc 4a99 0ebd
00000190: 5456 89bd 5ce6 16be c071 1f3b aa63 8a3d
000001a0: c904 7a3d e0dc 903d b608 fe3d 13a6 1cbe
000001b0: 66df f63c 71e7 033e 97be 363e 5068 c2bd
000001c0: c3c4 cabd c45d 91be d31e 08be 9d3a efbc
000001d0: d77a 2f3e 2dc9 9b3c b53f 27be 99fc 78be
000001e0: e0a9 193c a650 91bd 7319 2fbe 7f88 0a3e
000001f0: 4e18 02be 209e 3e3e 6dad af3d e73c b7bd
00000200: 5ef7 08be cc82 87be 98ea 1bbd 32d3 113e
00000210: 50eb b83c 8698 89bd e2ff ccbd e613 72bd
00000220: 2c25 693d 56d5 a93d 08c5 a9bc 0649 033d
00000230: bc1d 183e 22cd 1fbe f92c babc a518 393d
00000240: 31bd 08bd 0f62 85be 2dfb 0e3e 5c15 803c
00000250: 65b0 d6bd bb10 303e 80c3 863b e8d0 19bd
00000260: 0e94 c83d 7a3a 07bd 7566 97bd 6f3e 433e
00000270: 5730 373e ce54 11bd 107a cd3d 9997 9b3d
00000280: 6189 c0bd dfaf 3e3e f7d1 093e c1e3 11be
00000290: ca45 303d 0937 c4bd 9f80 023e 0c0f 12bd
000002a0: 57fd 1fbd 6ca5 0a3d 1e12 bd3d 9dec cbbc
000002b0: 4a96 47bd f344 25be f1e4 693b ad2a 923d
000002c0: 88ba 053e b26a 91bd 16d2 1fbe 7063 f3bd
000002d0: fa82 853d 97e3 cd3d 0058 2d3b efa6 be3d
000002e0: 74ca 56bd 93fb b63d 4c68 b3bd 5b2c 263e
000002f0: 2b75 243d db36 073e f626 063e ed3e d7bd
00000300: 7d79 0d3e 22ef 3bbe 7696 bdbd 9520 293e
00000310: e20d 243d 5a33 d0bd 2c24 27bd d07a 0bbe
00000320: 6b7e b8bd 6b88 313e 7ec3 e03d 53ba 51be
00000330: adbf 2e3d 2b07 c4bd 3016 4c3d 8c4a 8c3d
00000340: ee07 163e 223b 0d3b 8f33 8abd 3cbb dd3d
00000350: 8b54 19be 8860 9abd 2c93 2fbe f6c2 143d
00000360: 4f6e 313e 4854 303d 9abb d33d bd99 dc3c
00000370: 2a10 603d b0ec 32be 8ba6 123e 1225 f5bc
00000380: 7f96 18bd 54d7 23bd ce47 fc3d 70a0 2e3e
00000390: 4fc9 33bd aa9a 31bd 1b97 2b3e 6ba4 33be
000003a0: 4305 4a3d 84e7 6a3d f668 b9bd d915 b53d
000003b0: b72b cf3d c026 1ebc 3ee3 323e 87e0 41be
000003c0: 195d e73d 8243 0abe e0e4 7e3d d31f ac3d
000003d0: 5cf5 30bd deb8 c83c 2132 173e 59e2 cebd
000003e0: d35b 2c3e 25c7 2abc d4a0 2abd 7403 d93d
000003f0: 0ad6 aabd 55d4 233d 434b 4fbd fd25 a23c
0.07095425 0.11705522 0.1717916 -0.03614515 0.07360173 0.09712225 -0.0628471 -0.089762546
-0.008633326 -0.09268458 -0.16091216 0.00011956365 -0.029213654 -0.046107158 -0.15852362 -0.19209397
0.14533266 0.08083735 -0.11331888 -0.13109231 0.13230649 0.007733566 -0.14704822 -0.01647673
-0.005016491 -0.10405477 0.091541365 0.04001243 0.11748074 0.03975705 -0.1614178 -0.10753074
0.0420223 -0.054078575 -0.1462596 0.040090077 -0.10783556 -0.009184656 0.09780596 -0.053539038
0.010073842 0.12016617 0.052080065 -0.17639248 -0.052722905 -0.17491092 -0.1616127 -0.10620505
-0.13568419 -0.22841345 0.014395297 0.085335456 -0.058862835 -0.13140377 0.068550915 -0.26259273
-0.044160947 0.011304101 -0.08443149 0.16347803 0.10069797 0.16220878 0.07084147 0.08437033
0.17397086 0.2053589 -0.15108284 0.035787556 -0.017932316 0.036269296 0.0008304566 0.03830658
-0.009627215 0.00883314 0.11854763 0.17650059 -0.050144818 -0.040121287 -0.029567244 0.13142316
0.18250172 0.14040077 0.053915307 -0.10622992 -0.13175471 0.012692272 0.17671745 0.14390808
-0.14336456 0.04323261 0.15313832 0.13085587 0.08615137 -0.03205449 0.119894385 0.17337714
-0.0042397385 -0.088666745 -0.021899864 -0.034814157 -0.06705919 -0.14736313 0.0024329275 0.06757291
0.06103972 0.070733786 0.12404005 -0.15297727 0.030135822 0.12881257 0.17846142 -0.09492552
-0.099008106 -0.2839185 -0.13293009 -0.029202754 0.17136703 0.019016827 -0.16332896 -0.24315108
0.00937888 -0.070954606 -0.17099552 0.13528632 -0.12704584 0.18615007 0.08578 -0.08947163
-0.13375613 -0.26466978 -0.038065523 0.14240721 0.022573143 -0.06718545 -0.10009743 -0.059101008
0.056920215 0.08292644 -0.020723835 0.032052062 0.14855093 -0.15605596 -0.022726523 0.04518952
-0.033383552 -0.26051375 0.13963003 0.015635185 -0.10482863 0.17193882 0.004112661 -0.037552744
0.09793864 -0.033014752 -0.07392589 0.19066785 0.17889534 -0.035481267 0.10033047 0.07597274
-0.09401203 0.18621777 0.13459001 -0.14247037 0.043035306 -0.095808096 0.12744378 -0.03565888
-0.039059963 0.033849165 0.09231971 -0.0248931 -0.04872731 -0.16139583 0.0035689438 0.07137046
0.13059437 -0.07100429 -0.15607485 -0.118842006 0.065191224 0.10053175 0.0026450157 0.09309184
-0.052439168 0.08934703 -0.087601274 0.16227858 0.040150803 0.1320452 0.131008 -0.10510049
0.13815875 -0.1835294 -0.09257214 0.16516335 0.040052302 -0.101660445 -0.04080598 -0.13621068
-0.09008487 0.17337196 0.10974787 -0.20481233 0.042663265 -0.0957168 0.049825847 0.06850156
0.14651462 0.0021550138 -0.06748115 0.10826728 -0.14973657 -0.07537943 -0.17145985 0.03631874
0.17327236 0.043049127 0.103385165 0.026928777 0.054702915 -0.17473102 0.14321344 -0.029924903
-0.0372529 -0.040000275 0.12318383 0.1705339 -0.043893155 -0.04336039 0.16756861 -0.17543189
0.049321424 0.057349697 -0.09053223 0.08842058 0.1011576 -0.009652793 0.17469499 -0.18933307
0.11297054 -0.13502315 0.06222999 0.084045075 -0.043202743 0.024502214 0.14765216 -0.10101766
0.16831903 -0.010423456 -0.041657284 0.10596362 -0.08341606 0.039997417 -0.050608885 0.019793505

emb.linear2.bias f4 [64]
00000000: cfb8 05bd 554b 5e3d 7a37 a5bc 37de af3c
00000010: 36a8 9cbd 62d3 1e3e 0380 07bc 99db 04be
00000020: 13c6 1bbe 7e9d f4bd 8b81 483e 52d3 28be
00000030: 460c d93d 0c36 81bd d0a1 1a3e 8c74 87bd
00000040: 1f1e a63d 8376 73bd ff03 23be 5054 8dbd
00000050: 5930 10be 13e7 923d 5b14 143e 4914 60bd
00000060: cb36 8d3d f480 87bc 524e ae3d 8e50 1abd
00000070: b8b6 d2bc 3ad5 dc3d bd9f 2abe 7490 fb3c
00000080: 6926 52bd fdb3 2fbc 9670 dc3d 1faf 243d
00000090: e0a2 a4bd 1660 183e f105 aabd 08f7 013e
000000a0: 875c 113d ba55 c8b8 d457 fbbd f745 25be
000000b0: 0fbf 89bd ca08 ec3d 6d0d 17be 43ed 8abd
000000c0: 94ac 1cbe e98e 133c 1748 923d 470f e4bc
000000d0: 7cdf de3d 24e2 25be 469c 2cbe 49ef a2bd
000000e0: 6646 3e3e a0f3 c03d f886 c5bd 532e 8abd
000000f0: cfa8 813d 9270 ba3d a070 07be c402 e8bd
-0.03264695 0.05427106 -0.020168055 0.021468265 -0.07649271 0.15510324 -0.0082702665 -0.12974395
-0.15212278 -0.11944102 0.19580667 -0.16486862 0.10598044 -0.06309137 0.15100789 -0.066140264
0.08111214 -0.059439193 -0.15919493 -0.06900847 -0.14080943 0.0717298 0.1446089 -0.054706845
0.068952166 -0.016540982 0.08511032 -0.03767448 -0.025721893 0.10782857 -0.16662498 0.030708529
-0.051306162 -0.010724065 0.107636616 0.04020607 -0.080388784 0.14880404 -0.083019145 0.12691891
0.03548863 -9.552711e-05 -0.12272611 -0.1613997 -0.06725895 0.11525114 -0.14751215 -0.06783535
-0.15300208 0.00900624 0.07142656 -0.027839316 0.1088247 -0.16199547 -0.16856489 -0.07955796
0.18581542 0.09421468 -0.09644884 -0.06747117 0.06331026 0.09103502 -0.13226557 -0.113286525

linear1.weight f4 [32, 64]
00000000: 936e 65bd d259 f93d 5bbe dc3a 8430 b63d
00000010: 1ac3 83bd 3f39 c53d a7fb debd 3057 2ebd
00000020: 57d6 0a3e a735 873d babb d83c 9a95 fd3c
00000030: f548 27bd 5b13 c93d 126c 99bd 7ddb 7b3b
00000040: c903 b43a 2fb8 f93c 05b0 b8bd bd0b 063e
00000050: 4a59 ce3d 07f8 cdbd b18d b6bd 9ba0 883d
00000060: ae1f ecbd a1a5 9bbd fca6 0e3d a86c d6bd
00000070: bf28 9f3c 3b04 84bb ccb1 6c3d 8062 9b3c
00000080: 18a1 67bd 38a3 2abd b61b 4f3d 24ef 8bbd
00000090: 3605 e1bc eb28 0f3d d36c cd3a 27ca d43d
000000a0: c462 5fbd 28b9 b73d a455 b73d 3c47 d53c
000000b0: 30e9 94bd 55b1 01bd 0da8 05be 4b62 cabd
000000c0: 0f35 cd3b 30d0 673d 56c2 503d 4523 243c
000000d0: 4b28 cf3c 4be1 06be dded 02bd 1b84 dcbd
000000e0: 1851 bb3d 40fb 1fbd f942 53bd 5733 70bd
000000f0: 05b7 793c 953a a4bd fc85 ce3d 73c8 0c3e
00000100: 821d fabd f799 5dbc d8ce 773d 5c19 7abd
00000110: 7a06 073d 7076 5bbd 0f64 9dbd e8a0 b1bd
00000120: b6a4 023e 7817 463d a225 413d c001 a4bd
00000130: 60e6 483d 1e87 02bd bf70 af3d 156f e5bd
00000140: 34f4 d63d 607d bfbd b69f d9bd e38d c6bd
00000150: ea50 613c 9f57 f6bd c312 75bd 8c89 003e
00000160: 4fff 8bbd 5127 92bd 571e d83d 506e b93d
00000170: b4a0 0cbe 3f7a d13d 31b5 dd3d db5f a63d
00000180: 347d 903c 2f72 61bb 65a2 ffba 385b ec3d
00000190: ca77 063c aaff d73c 9989 9fbc 71cd e93d
000001a0: 001e 0d3d 002d 93bc e409 133d d661 fe3d
000001b0: 96f7 de3d 90bb 2a3c d807 923a 8078 09bd
000001c0: 4233 abbd 4591 c6bd 6d38 b3bd 5ac5 7c3d
000001d0: 1b0a f63d b727 363d 7882 8dbc 5b84 2fbd
000001e0: ec45 ac3c e20a c13d 0bfd 21bd 01fc bb3c
000001f0: 6851 873d 5adc 6b3b 0b8a 63bd a3ff 11bd
00000200: aa60 80bc 25f7 a83d efc9 433d 9f4a 143e
00000210: 8ddd 083e 782f 88bd 5800 a5bc d7bc bfbd
00000220: 09b7 cb3c 85ab 913d 7a48 363d 8ae9 263c
00000230: 9b45 743c d306 26bc 7ff5 b4bc 6cf1 d4bd
00000240: 3baf 383d bace 7bbd 1d15 e6bd 22e2 0a3d
00000250: 44f0 07bd 3508 99bd 67af bc3a 6f00 ac3d
00000260: 1d23 eabd e70d 0bbe b32f 073c 80fd 11be
00000270: 408a 71bd e312 34bd d62b b73c 90ac 893c
00000280: 4edb 88bd 6350 afbd 3a29 f53c 63ff a93d
00000290: c6d2 dabd 06a9 d8bd 5584 e83c eb08 9a3d
000002a0: b3ff 3ebd b66b 263e c899 67bd e5a1 05be
000002b0: 3aa9 2b3d 0a45 0abe e4d5 7dbd f076 b5b8
000002c0: a274 e6bd 959a a4bd 064e afbb eab1 1abd
000002d0: e25c f03c 758e 54bd 7186 22be f469 153e
000002e0: 0aa8 0a3e 0645 35bd 967d 47bd 7f01 f7bd
000002f0: 78a7 003e 308f 093e 7050 13bd 2fd0 063e
00000300: 77b5 ba3d c354 82bb 58b3 b5bb 9f1b dbbc
00000310: 72cd 10bd 6ab5 083e 68a8 65b9 9a56 f23d
00000320: 3aca aa3d 683b 4abd 8ce5 d5bd 45cd 4fbc
00000330: 9a16 0fbd 8dce 49bd 3619 3d3d ada3 083e
00000340: c956 8b3c 0be7 ff3c c0c6 efbb 454a 34bd
00000350: 5ecc 783d 8558 803d 8483 d4ba 6fdd 0bbe
00000360: a0cc 073e 4773 773d 396d 9c3d e5d2 7cbd
00000370: 2624 c93d aa5a 73bd 7695 8a3d e0e4 b73d
00000380: e72d 033e ec98 82bc 382a a53c 66ae 53bd
00000390: cd64 debc 7805 eabd 243d cebc b106 af3c
000003a0: adf1 93bc 32e5 753d fe42 c03d 5435 b8bd
000003b0: 17b7 b6bd a8f1 1f3e 497d 853d d61d 9e3c
000003c0: 82db 963d e56d 073e 4ec7 40bd 89ba c93d
000003d0: 7d2b 84bd f452 8cbd 0fd2 aebd f1b3 393d
000003e0: 692c 593d c584 8b3d cbaa a63d 2f65 babd
000003f0: bfd4 ff3b 662f b2bd 7491 81bd 29b4 c1bd
-0.056013655 0.12175335 0.0016841398 0.08895972 -0.06433697 0.096300595 -0.108878426 -0.042563617
0.13558327 0.0660203 0.026456703 0.030955125 -0.04084106 0.09818145 -0.07491316 0.0038430386
0.0013734038 0.030483333 -0.09017948 0.13090415 0.10075624 -0.10057073 -0.08913744 0.06671258
-0.1152948 -0.075999506 0.034827217 -0.10469943 0.019428609 -0.0040288246 0.057786748 0.018967867
-0.056550115 -0.041659564 0.050563537 -0.06832722 -0.027468305 0.03495113 0.0015672691 0.1039012
-0.05453755 0.089708626 0.089518815 0.026034944 -0.072710395 -0.031663258 -0.13052388 -0.09882029
0.0062624286 0.056595027 0.050966583 0.010018175 0.025287768 -0.1317188 -0.031965125 -0.107673846
0.09146327 -0.03905797 -0.051577542 -0.05864271 0.015241389 -0.08018986 0.10084149 0.1374834
-0.122126594 -0.013525478 0.060499996 -0.06105934 0.03296516 -0.053579748 -0.076851 -0.086732686
0.12758145 0.048362225 0.04715503 -0.08008146 0.049047828 -0.03186714 0.085664265 -0.11202828
0.10495797 -0.09350085 -0.106261656 -0.096950315 0.013752202 -0.12028431 -0.059832346 0.1255247
-0.068358056 -0.07136405 0.10552662 0.090542436 -0.13733178 0.10228395 0.10825575 0.08123752
0.017637827 -0.0034400334 -0.0019503353 0.11540836 0.008207271 0.026367027 -0.019474791 0.11416138
0.03445244 -0.017965794 0.035898104 0.124210045 0.10887067 0.010420695 0.0011141254 -0.033562183
-0.08359386 -0.09695677 -0.08750997 0.061711647 0.12013646 0.04447147 -0.017274126 -0.042850833
0.021029435 0.09425904 -0.03954796 0.022947313 0.06607324 0.0035989494 -0.05555157 -0.035644185
-0.015671093 0.08250264 0.0478 0.1448159 0.13365765 -0.06649679 -0.020141765 -0.0936219
0.024867551 0.07112793 0.044502713 0.010187516 0.014909173 -0.010133463 -0.022089718 -0.1039761
0.045088988 -0.061476447 -0.11234496 0.033907063 -0.03318812 -0.074722685 0.0014395536 0.0839852
-0.114324786 -0.13579522 0.0082511185 -0.14256859 -0.058969736 -0.043963324 0.02235977 0.016805917
-0.06682454 -0.085602544 0.029926885 0.08300664 -0.10684733 -0.10579114 0.028383413 0.07521232
-0.046630573 0.16252026 -0.05654314 -0.13050039 0.041909434 -0.13502899 -0.06197156 -8.6529064e-05
-0.11252715 -0.08037297 -0.0053498773 -0.03776733 0.029341165 -0.05189367 -0.15871598 0.14591199
0.13540664 -0.04425528 -0.048703752 -0.12060832 0.12563884 0.13433528 -0.035965383 0.13165353
0.09116643 -0.0039773895 -0.005545061 -0.02674657 -0.035352178 0.13350454 -0.00021901878 0.11832924
0.08339353 -0.04937306 -0.10444173 -0.012683217 -0.034933664 -0.049269248 0.04616662 0.13343687
0.017009156 0.0312381 -0.007317394 -0.04401614 0.060741775 0.06266884 -0.0016213511 -0.13658689
0.13261652 0.06041267 0.0763802 -0.061724562 0.09821348 -0.059412636 0.06766789 0.08979201
0.12810479 -0.01594206 0.020161733 -0.05167999 -0.027147675 -0.11426824 -0.025175638 0.021365495
-0.018059576 0.06003303 0.09387778 -0.089945465 -0.0892164 0.15619528 0.06518037 0.019301336
0.073660865 0.13225515 -0.04706507 0.09850032 -0.06453607 -0.068517596 -0.08536159 0.04533762
0.05302087 0.06812433 0.08138045 -0.091013305 0.0078073437 -0.08700447 -0.06326571 -0.09458191

linear1.bias f4 [32]
00000000: c979 7cbd 46ba 8fbd 6dff 1dbd 99ca b03c
00000010: 5912 333d 46d2 c83d dfeb 99bc de92 a5bd
00000020: 752e d1bd ea76 2a3d 4a51 073d effb 943c
00000030: c837 2ebd 13ce 8e3c 58be 0b3d 7b1f 983d
00000040: f802 7cbc 7d2e bcbd 1a8a e2bd 2827 fdbd
00000050: 86a8 993d d193 c13d 2e50 dd3d 0874 8d3d
00000060: 6d3e 2dbd c678 05bc abb2 d13d 3bb3 b7ba
00000070: d435 553c d19d 45bd 1ab9 d4bd 6f47 2e3d
-0.06163958 -0.07017951 -0.03857367 0.021580981 0.04371867 0.098057315 -0.01878923 -0.08084653
-0.10213939 0.04161731 0.033036508 0.018186538 -0.042533666 0.017432248 0.034117073 0.074278794
-0.015381567 -0.091885544 -0.11061497 -0.12360984 0.075028464 0.09452022 0.10806309 0.06906897
-0.042295862 -0.00814647 0.10239156 -0.0014015207 0.013013322 -0.04824621 -0.10386868 0.042548593

linear2.weight f4 [1, 32]
00000000: c128 ab3d c2e2 303e df39 5b3d 632b 5abe
00000010: 7410 a4bd a52f 6dbd 9778 8fbd f03c 373c
00000020: f580 80bc 9cf7 173e 5fde 243e fed5 bbbd
00000030: 641f f43d 655b 613d 9189 cc3d 712a e73d
00000040: 615e 9c3d 6f64 343e 363c e93d e8cb ecbc
00000050: 937d e1bd 949e 3d3d 2aac f5bd 5910 eebd
00000060: f793 19be c15a 2c3d b584 483d 0626 00be
00000070: 8215 99bd 8f25 3cbe dc27 b03d cd3f 013e
0.083573826 0.17274001 0.053521987 -0.21305613 -0.08010951 -0.057906765 -0.070054226 0.011183962
-0.015686492 0.14840549 0.16100453 -0.09171675 0.1192005 0.0550188 0.09987176 0.11287392
0.07635189 0.17616437 0.113884374 -0.028905824 -0.110102795 0.04629381 -0.11995728 -0.11624212
-0.1499785 0.042078737 0.048954684 -0.12514505 -0.074748054 -0.18373702 0.086013526 0.12621994
