lstm_kospi_only_window_inputsize64_hiddensize128_seqlen128_layaers2.pt (torch, 972910 bytes, 15 tensors)

lstm.weight_ih_l0 f4 [512, 64]
-0.03502097 0.021545075 -0.012196929 0.07778741 -0.001069567 -0.043403104 0.037507918 0.046451163
-0.013154663 0.029977234 0.097231865 0.030360654 -0.06931528 0.13670225 -0.07083703 0.07511721
-0.065815516 0.026147071 -0.013953489 0.046265595 -0.016262913 -0.08445868 0.10395885 0.001609822
0.099000685 -0.033482984 0.13793656 0.09454438 0.068693906 0.013760286 -0.046182264 -0.06999657
-0.014696895 0.01820121 -0.0044827587 0.107821144 0.0037319274 0.0038811774 0.116404615 0.07547987
0.18110137 0.05745671 0.05687122 -0.047942664 -0.04544884 0.16045935 -0.022715064 0.034107972
0.024155604 -0.044426683 0.12598623 0.029649483 0.051938534 0.06142329 0.027298234 -0.036889367
0.029941699 -0.048752923 0.101594925 0.091465354 -0.019667102 0.005393223 0.010342984 -0.035698432
0.06320481 0.08554431 -0.01831553 -0.014139695 -0.02288923 0.044070937 -0.057147875 0.035436396
-0.0035329366 0.015442046 0.092616044 0.015211643 -0.028016174 0.053746413 0.046463527 0.031610575
-0.031484973 0.043655813 0.07062939 0.06578382 0.042914364 -0.06480759 0.023024753 -0.009902997
0.08761947 0.064032696 0.07273613 0.08068183 -0.019395411 0.09434335 0.02659944 0.07203274
0.11723521 0.10369967 0.09656125 0.043483596 0.0074591907 0.060722303 0.018103912 0.018236727
0.03514018 0.0017520749 0.0038945419 -0.013148622 0.09196541 -0.008394226 -0.0028120887 0.05870946
0.098028295 0.059923906 0.01817912 0.055718377 0.06567012 -0.0044144248 0.089242354 -0.03860924
-0.010388568 0.042292178 -0.054102845 0.017536407 -0.036275614 0.048891198 -0.070892856 0.06263704
-0.027142856 0.07839378 -0.0068339896 -0.0033844016 0.025189783 -0.0031419063 0.01844969 0.075799935
-0.0864371 0.08211534 0.06545484 -0.06549446 -0.07285286 0.13872981 0.08238293 -0.07722266
-0.019944463 0.060528748 -0.04682565 -0.070723824 0.027398847 0.043101553 0.056855496 0.05515277
0.03508668 0.028900897 0.091743015 -0.046531767 0.07591961 -0.004127127 -0.0060981456 -0.0476021
0.06668326 -0.023046674 -0.08102185 0.024323154 -0.0014039358 -0.04921047 0.013470301 -0.035190735
0.028488005 -0.07750175 0.005588391 -0.09480075 -0.018144356 0.009300564 0.076508574 -0.07501921
-0.030885655 -0.0030759596 -0.026068736 -0.022909325 -0.06587556 -0.0031194338 -0.03708504 0.076595776
-0.0059500122 -0.028409371 -0.054762185 -0.091845624 -0.071754046 -0.015246353 0.009517091 0.07164474
0.017127614 0.039316576 0.055447638 -0.04341985 0.0031244147 -0.00025088305 0.016146798 0.106637634
-0.050426606 -0.029702302 0.12597542 0.0077758334 0.0062977867 -0.025438953 0.017679365 -0.06441196
-0.03408283 -0.06984866 0.13722417 0.046883 0.09472452 0.013532418 -0.04162379 0.10477683
-0.016263692 0.094186366 -0.002640127 0.05861344 -0.03629037 0.044981383 0.07251253 -0.058250308
-0.003557221 -0.03432369 -0.031166801 -0.0650852 0.12810822 0.055934496 0.10019502 0.019958317
-0.023590371 -0.03598699 0.012919917 0.0400851 -0.041385904 -0.07140162 0.04126605 0.080708966
-0.006310999 0.017620834 0.03758301 -0.018695595 0.114471905 0.074855626 0.0799701 0.02136725
0.08077117 -0.024752244 0.065732315 -0.013971031 0.060812924 -0.084986225 -0.019598309 0.010573604
00000000: 2672 0fbd 4c7f b03c a1d5 47bc 014f 9f3d
00000010: b730 8cba 74c7 31bd e7a1 193d 9343 3e3d
00000020: a886 57bc d192 f53c 8021 c73d e8b6 f83c
00000030: 2bf5 8dbd adfb 0b3e 0113 91bd 0dd7 993d
00000040: 49ca 86bd 6232 d63c 2d9d 64bc fe80 3d3d
00000050: cd39 85bc acf8 acbd 61e8 d43d aa00 d33a
00000060: dfc0 ca3d 7425 09bd 3e3f 0d3e 7ca0 c13d
00000070: 64af 8c3d d372 613c 9d29 3dbd 5d5a 8fbd
00000080: 3fcb 70bc b41a 953c 1be4 92bb 55d1 dc3d
00000090: 5a93 743b 5a5b 7e3b 8b65 ee3d 3195 9a3d
000000a0: a372 393e ba57 6b3d ccf1 683d 875f 44bd
000000b0: 9028 3abd 754f 243e f114 babc cdb4 0b3d
000000c0: f9e1 c53c c1f8 35bd 8902 013e 79e3 f23c
000000d0: 80bd 543d fd96 7b3d 8ca0 df3c 4e19 17bd
000000e0: 4b48 f53c 25b1 47bd 0011 d03d 3052 bb3d
000000f0: e71c a1bc a2b9 b03b 9f75 293c 8538 12bd
00000100: 8671 813d db31 af3d 730a 96bc 2eaa 67bc
00000110: 3282 bbbc ba83 343d e413 6abd c125 113d
00000120: d788 67bb a300 7d3c 7bad bd3d 413a 793c
00000130: 2d82 e5bc 3325 5c3d 8a50 3e3d 177a 013d
00000140: 63f6 00bd 70d0 323d 24a6 903d abb9 863d
00000150: f9c6 2f3d d7b9 84bd 689e bc3c 2e40 22bc
00000160: d671 b33d 9323 833d aef6 943d 843c a53d
00000170: 20e3 9ebc 1637 c13d 12e7 d93c e785 933d
00000180: 0419 f03d 7e60 d43d e8c1 c53d db1b 323d
00000190: 3a6c f43b f3b7 783d a84e 943c 3065 953c
000001a0: 26ef 0f3d e1a5 e53a 923b 7f3b 516d 57bc
000001b0: 5c58 bc3d f087 09bc 054b 38bb 5579 703d
000001c0: 0fc3 c83d c572 753d 61ec 943c f438 643d
000001d0: 0e7e 863d e1a6 90bb b2c4 b63d b924 1ebd
000001e0: d034 2abc 903a 2d3d f29a 5dbd 83a8 8f3c
000001f0: bd95 14bd 2342 483d 4630 91bd d947 803d
00000200: b25a debc eb8c a03d a9ef dfbb d6cc 5dbb
00000210: ce5a ce3c 71e8 4dbb ce23 973c ff3c 9b3d
00000220: ef05 b1bd 162c a83d 300d 863d f621 86bd
00000230: e133 95bd 300f 0e3e 62b8 a83d ea26 9ebd
00000240: 9262 a3bc feec 773d 41cc 3fbd a7d7 90bd
00000250: 8c73 e03c 418b 303d 4fe1 683d dfe7 613d
00000260: 0db7 0f3d 93c1 ec3c c3e3 bb3d 1898 3ebd
00000270: be7b 9b3d da3c 87bb f4d2 c7bb 6bfa 42bd
00000280: 3c91 883d 61cc bcbc c9ee a5bd 5a41 c73c
00000290: 4504 b8ba eb90 49bd 8ab2 5c3c 2924 10bd
000002a0: ad5f e93c 3db9 9ebd d21e b73b e526 c2bd
000002b0: 79a3 94bc 6561 183c 87b0 9c3d aca3 99bd
000002c0: ea03 fdbc 0a96 49bb 1a8e d5bc 56ac bbbc
000002d0: c4e9 86bd 6a6f 4cbb 7ce6 17bd 3fde 9c3d
000002e0: 52f8 c2bb c5ba e8bc 504e 60bd 8f19 bcbd
000002f0: c9f3 92bd d7cb 79bc 93ed 1b3c 7aba 923d
00000300: 364f 8c3c 6b0a 213d 101d 633d 03d9 31bd
00000310: fbc2 4c3b f488 83b9 4a46 843c d564 da3d
00000320: 218c 4ebd 3e52 f3bc b3ff 003e 6bcc fe3b
00000330: aa5d ce3b 5a65 d0bc 51d4 903c 6bea 83bd
00000340: 709a 0bbd d00c 8fbd 7e84 0c3e 6308 403d
00000350: eefe c13d 13b7 5d3c b57d 2abd 3c95 d63d
00000360: 6f3b 85bc c8e4 c03d fb05 2dbb a514 703d
00000370: 36a5 14bd 663e 383d 7381 943d e097 6ebd
00000380: 4420 69bb ff96 0cbd 8551 ffbc 644b 85bd
00000390: cd2e 033e 921b 653d 0c33 cd3d a07f a33c
000003a0: 9840 c1bc 1867 13bd 0fae 533c 4630 243d
000003b0: 4484 29bd 033b 92bd 9706 293d be4a a53d
000003c0: 7fcc cebb 9159 903c a4f0 193d 8127 99bc
000003d0: 3f70 ea3d e84d 993d 5dc7 a33d 5f0a af3c
000003e0: 5b6b a53d 38c5 cabc aa9e 863d c0e6 64bc
000003f0: f916 793d 420d aebd a28c a0bc e93c 2d3c

lstm.weight_hh_l0 f4 [512, 128]
0.047610965 0.051095434 0.08654051 0.009739485 0.08367143 -0.02163472 0.09243036 -0.022875149
0.054986548 0.024476137 0.06519434 0.05763121 -0.019252617 -0.020230958 -0.01302756 -0.0297858
0.0329926 0.033133272 0.07485955 -0.06659734 0.018926492 -0.022464292 -0.0045823925 -0.026517302
0.05606358 0.06724482 -0.0014782925 0.043446466 0.037935376 -0.0003490487 -0.04162805 -0.037159637
-0.024420332 0.03271562 -0.00971703 -0.04142696 0.07508801 -0.009011704 0.058361992 -0.014407229
0.002941373 0.063084826 -0.05968977 -0.010273745 -0.08882521 0.02278262 0.068417914 0.061231554
0.03317159 -0.042882066 -0.031785794 -0.0028678495 -0.011387994 0.05091936 -0.046928063 0.04544056
-0.06425057 0.008733205 0.012603197 0.06004169 0.02994605 -0.06243578 -0.04931672 0.019933542
-0.07007178 0.035919257 0.03748077 -0.043146398 -0.031868424 0.06676028 0.07812794 0.061358843
0.016220162 0.061228998 0.001103759 0.033380225 -0.024819748 0.086373374 0.050000418 0.04193881
-0.029428698 0.07997981 0.07625052 -0.049731664 0.054575074 0.021405872 -0.06159667 -0.014565587
0.07952281 0.051234882 -0.06672718 0.0030688653 -0.00027037718 0.05923672 0.01087308 0.051042035
-0.005434107 -0.004891107 0.058160342 -0.054314166 -0.027798345 -0.07308345 -0.06102757 -0.09117169
0.0002793876 0.037470847 -0.03797603 -0.0499226 -0.06271814 -0.061522704 0.075781465 -0.0036717698
0.03048493 -0.018458989 -0.04499351 0.08130692 -0.072391935 -0.030485231 -0.0023710544 -0.045217488
-0.062283043 0.07782287 -0.030964306 -0.015534002 0.020884635 -0.0014137237 0.009105768 0.0043643755
0.032420438 0.0992991 0.09760507 0.039389227 -0.021517009 -0.011519355 -0.04113097 -0.09959376
0.063027516 -0.0707053 0.08814349 0.08506074 0.09290989 0.019400878 0.10251413 0.10080495
-0.049139135 0.032798205 -0.010886382 -0.062208813 -0.05497972 0.016693803 -0.049213376 -0.055400293
-0.050192375 0.041672964 -0.005404786 -0.014022714 0.046039898 0.059765283 0.062058732 -0.007139633
0.007646789 0.0344012 0.035079703 -0.043090336 0.043949578 0.03086115 0.066723056 -0.08863563
-0.04076119 0.011577627 0.024843488 0.016985506 -0.022860438 0.009501114 -0.04096684 -0.09004712
-0.011770885 -0.03651335 0.035182964 -0.011332732 -0.017285926 0.056789707 -0.08357944 0.089815326
-0.02163421 -0.089430735 0.06700931 -0.059353217 -0.007852357 0.062098626 0.056531597 0.06250554
-0.048193254 0.038007624 0.04015832 -0.061000198 -0.089776725 -0.09876287 -0.034802508 -0.011509286
0.016513722 -0.09159443 -0.063618496 -0.038281716 -0.00265984 0.005052327 0.057092503 -0.010378622
-0.038124688 -0.016865294 0.03607168 0.010430089 0.019155018 -0.019698247 -0.069571204 -0.06672828
0.04642828 -0.039274767 0.06649481 0.07500354 0.023597296 0.06742912 0.027739279 -0.067716636
0.08935134 0.027922466 0.024505703 -0.082452215 -0.040035438 0.0013423631 0.06328658 0.0607137
-0.103173904 -0.04991466 -0.10320905 0.009230543 0.040454753 0.07423451 -0.06276285 0.031192314
-0.015147504 0.008093916 -0.09916652 0.03807987 0.04310958 -0.07881298 0.04598329 -0.024669563
0.03581679 0.067193225 -0.03456538 -0.043883145 0.09032006 -0.034375396 0.10016903 -0.033996213
00000000: b703 433d 7249 513d 273c b13d 5c92 1f3c
00000010: ed5b ab3d 4c3b b1bc 214c bd3d aa64 bbbc
00000020: 9339 613d 2e82 c83c 9c84 853d b40e 6c3d
00000030: aab7 9dbc 65bb a5bc 8c71 55bc 5a01 f4bc
00000040: 4023 073d c1b6 073d f74f 993d 3064 88bd
00000050: bb0b 9b3c 0907 b8bc e527 96bb d03a d9bc
00000060: eda2 653d a7b7 893d 44c3 c1ba ecf4 313d
00000070: 2062 1b3d 8600 b7b9 2d82 2abd b434 18bd
00000080: 260d c8bc d000 063d 2e34 1fbc 51af 29bd
00000090: bec7 993d d3a5 13bc fc0c 6f3d 4c0c 6cbc
000000a0: 0dc4 403b 9e32 813d 437d 74bd 3653 28bc
000000b0: fee9 b5bd 9ea2 ba3c b11e 8c3d f0cd 7a3d
000000c0: efde 073d 1ba5 2fbd d231 02bd 88f2 3bbb
000000d0: b594 3abc d290 503d a437 40bd e11f 3a3d
000000e0: ce95 83bd b715 0f3c a47d 4e3c 46ee 753d
000000f0: 6b51 f53c a9bc 7fbd 5400 4abd ab4b a33c
00000100: cb81 8fbd 1220 133d 7085 193d 47ba 30bd
00000110: 7788 02bd 9db9 883d 8b01 a03d 6953 7b3d
00000120: 25e0 843c 42cb 7a3d 02ac 903a b4b9 083d
00000130: c952 cbbc 86e4 b03d 3dcd 4c3d 08c8 2b3d
00000140: 7414 f1bc 74cc a33d 3c29 9c3d 6eb3 4bbd
00000150: 1d8a 5f3d 5e5b af3c ca4c 7cbd 80a4 6ebc
00000160: dbdc a23d abdb 513d 42a8 88bd 041f 493b
00000170: 69c1 8db9 34a2 723d 0125 323c 7411 513d
00000180: 9810 b2bb 9445 a0bb 8a39 6e3d 8878 5ebd
00000190: 5bb9 e3bc c7ac 95bd 0cf8 79bd 39b8 babd
000001a0: c57a 9239 087b 193d c18c 1bbd a47b 4cbd
000001b0: 5e72 80bd 3bff 7bbd 5033 9b3d 13a2 70bb
000001c0: 88bb f93c 4e37 97bc 1d4b 38bd 3e84 a63d
000001d0: 3942 94bd 2abc f9bc b163 1bbb f935 39bd
000001e0: 811c 7fbd 9961 9f3d dba8 fdbc 5482 7ebc
000001f0: 4116 ab3c b24c b9ba 5c30 153c 0903 8f3b
00000200: 4bcb 043d 545d cb3d 2be5 c73d 9956 213d
00000210: 7044 b0bc adbb 3cbc f378 28bd d0f7 cbbd
00000220: 9214 813d f1cd 90bd 9384 b43d 5334 ae3d
00000230: 8a47 be3d 97ee 9e3c eef2 d13d d372 ce3d
00000240: 1e46 49bd 6957 063d cc5c 32bc abce 7ebd
00000250: 6a32 61bd 71c1 883c f793 49bd 6beb 62bd
00000260: 8596 4dbd 45b1 2a3d a21a b1bb 87bf 65bc
00000270: 5594 3c3d 71cc 743d 4c31 7e3d 95f3 e9bb
00000280: ea91 fa3b 46e8 0c3d bcaf 0f3d 7e7f 30bd
00000290: 7904 343d 86d0 fc3c 19a6 883d 9986 b5bd
000002a0: 35f5 26bd 16b0 3d3c 9284 cb3c 3025 8b3c
000002b0: d045 bbbc 8faa 1b3c d8cc 27bd a06a b8bd
000002c0: acda 40bc 068f 15bd 031c 103d ecac 39bc
000002d0: 379b 8dbc 539c 683d b32b abbd 19f1 b73d
000002e0: 3a3a b1bc 7627 b7bd 2d3c 893d 5c1c 73bd
000002f0: 2ca7 00bc 215b 7e3d ad8d 673d e802 803d
00000300: 4a66 45bd e2ad 1b3d 0d7d 243d 58db 79bd
00000310: dcdc b7bd 3044 cabd 138d 0ebd 7291 3cbc
00000320: c947 873c dc95 bbbd 6a4a 82bd 4acd 1cbd
00000330: b650 2ebb fe8d a53b d4d9 693d 190b 2abc
00000340: a228 1cbd 1629 8abc e6bf 133d f7e2 2a3c
00000350: fcea 9c3c 385e a1bc 597b 8ebd d6a8 88bd
00000360: 952b 3e3d 94de 20bd 6e2e 883d 759b 993d
00000370: 1e4f c13c 4718 8a3d 7c3d e33c 05af 8abd
00000380: d6fd b63d a8bd e43c 2fc0 c83c b5dc a8bd
00000390: 33fc 23bd 3bf2 af3a 659c 813d eeae 783d
000003a0: d74c d3bd 5173 4cbd 445f d3bd b43b 173c
000003b0: e2b3 253d 4308 983d cf89 80bd 0687 ff3c
000003c0: 3d2d 78bc 589c 043c d117 cbbd a3f9 1b3d
000003d0: ac93 303d b368 a1bd f958 3c3d d317 cabc
000003e0: a0b4 123d 9a9c 893d 6e94 0dbd d0be 33bd
000003f0: b9f9 b83d 37cd 0cbd 6c25 cd3d 9d3f 0bbd

lstm.bias_ih_l0 f4 [512]
-0.0028327983 -0.0003824899 -0.06575986 0.07568133 -0.01591493 -0.034834623 0.061592583 0.027030656
-0.0759852 -0.05603144 0.010321072 -0.070139885 0.062212095 -0.040485594 0.08598921 -0.0827826
0.05298457 -0.079791 0.0059880996 0.05599858 -0.010822779 0.00060619635 -0.0030561655 0.037192535
-0.058976874 0.029207507 -0.03695833 0.0059916335 -0.046562184 0.067146495 0.05678027 0.045760345
-0.011892378 -0.06490588 -0.042041503 0.011510632 -0.041676648 0.017257264 0.016078306 0.1219366
-0.044202104 0.08599758 0.0015883519 -0.030744785 -0.0039745355 -0.079332896 -0.06155357 0.004229029
-0.023865698 0.019277696 0.059986573 0.00069722504 -0.08390526 0.001627631 -0.046964888 0.08690113
0.033820298 0.055937044 -0.059958324 -0.004405486 0.041394703 -0.037752528 -0.025721122 0.086362615
0.011874409 -0.027252207 -0.005781562 -0.058414064 0.07586466 0.06764028 -0.053622443 0.0069507407
0.056735564 -0.055865478 -0.0887658 -0.032700628 0.09366111 -0.061616212 0.02875877 0.08538406
-0.0109537 0.019185603 0.039281245 -0.011132458 0.05756347 0.033374637 -0.05291347 0.086367086
0.023003828 0.05580681 -0.067368306 0.039903294 -0.0147281885 -0.033220265 0.06871111 -0.07334453
0.044364862 0.05043622 0.0050026854 0.023175146 0.07078128 -0.0036284865 0.08775809 -0.014883958
0.049385753 0.04010472 -0.0442616 0.0044420436 0.020206833 -0.034007497 0.01764334 -0.005011465
0.009148597 0.055116124 0.05753544 0.08454391 0.014150286 0.08128605 -0.03367437 0.0048686466
-0.076007485 0.0385197 0.02578192 0.0012556257 0.104434006 -0.07999296 0.0105628185 -0.06116115
0.0070785633 -0.059515752 0.018443633 0.0442198 0.005012656 0.04578835 0.02716425 0.020682005
0.07778706 -0.05248987 0.060999468 0.00692719 0.03849679 0.010057842 -0.042687435 -0.056325626
0.0701662 0.0051376596 -0.04818195 0.083080515 -0.044380184 0.04745147 -0.035037793 0.054820746
0.004402854 0.0030244542 -0.04224446 -0.007028781 -0.03726754 0.033962633 0.050833225 -0.044077825
0.085000664 0.0869066 0.054230765 0.03373424 0.0837531 0.064644426 0.06094609 -0.082084164
0.03178675 -0.076547444 0.043280948 -0.0038723804 0.06076667 0.046946246 -0.044068363 0.008636476
0.07157942 -0.047030434 0.043751966 0.022892613 0.043480255 0.03637766 -0.010904871 -0.064021215
0.03705325 0.0127668595 0.02337699 -0.05468983 -0.06807463 -0.06445495 0.05522897 0.10643899
-0.02783584 -0.053009156 -0.004603924 -0.034938194 -0.036221866 0.07521007 -0.082566276 -0.003298125
-0.010740253 0.009883959 -0.08129531 -0.0029607918 0.052292306 -0.047643676 0.03325504 0.028291175
-0.000733559 0.0763827 -0.06967899 -0.00010318687 -0.075096 0.014672826 0.07126829 -0.046026908
0.049945425 0.05116512 -0.08840485 -0.028357951 0.0668479 -0.06425811 0.0055862186 -0.059381086
-0.00256614 0.0070827766 -0.026088288 0.07031499 -0.058998767 -0.04597131 0.060844507 -0.043087456
0.08543642 -0.022333112 -0.017139679 -0.08852286 0.027565949 -0.06300235 -0.020498443 -0.008164234
-0.08556449 0.07807742 -0.004723227 -0.031813826 0.011286363 -0.00977543 -0.036595758 -0.037374493
0.0139064975 0.06648294 0.045732 0.0008251182 0.092393704 -0.0031282017 0.028959265 0.09024924
00000000: 78a6 39bb ed88 c8b9 1bad 86bd d0fe 9a3d
00000010: 0760 82bc c0ae 0ebd 8148 7c3d 656f dd3c
00000020: 219e 9bbd 3981 65bd b719 293c 80a5 8fbd
00000030: 1cd2 7e3d 39d4 25bd 1c1b b03d ec89 a9bd
00000040: 5906 593d 7769 a3bd d237 c43b c45e 653d
00000050: 0652 31bc 26e9 1e3a f349 48bb 3357 183d
00000060: bc91 71bd 9544 ef3c 9e61 17bd 7755 c43b
00000070: fdb7 3ebd 1a84 893d 6e92 683d 336f 3b3d
00000080: 40d8 42bc 60ed 84bd b633 2cbd 1797 3c3c
00000090: 22b5 2abd 1b5f 8d3c a7b6 833c e5b9 f93d
000000a0: 440d 35bd 801f b03d 3f30 d03a 7ddc fbbc
000000b0: d23c 82bb 4979 a2bd 991f 7cbd ab93 8a3b
000000c0: ff81 c3bc 42ec 9d3c 7bb4 753d fbc5 363a
000000d0: 85d6 abbd 3c56 d53a 415e 40bd 38f9 b13d
000000e0: 2787 0a3d 3e1e 653d dc96 75bd e55b 90bb
000000f0: 7e8d 293d 65a2 1abd 1ab5 d2bc e2de b03d
00000100: e28c 423c 0540 dfbc 4273 bdbb 9643 6fbd
00000110: ee5e 9b3d fd86 8a3d 35a3 5bbd 0ac3 e33b
00000120: 8d63 683d 33d3 64bd d8ca b5bd 18f1 05bd
00000130: 65d1 bf3d 4861 7cbd 8397 eb3c d7dd ae3d
00000140: 2677 33bc 202b 9d3c 5fe5 203d ea64 36bc
00000150: acc7 6b3d d8b3 083d cbbb 58bd 3ae1 b03d
00000160: 8672 bc3c ae95 643d 65f8 89bd a371 233d
00000170: 804e 71bc f911 08bd 69b8 8c3d a835 96bd
00000180: eeb7 353d 3696 4e3d 91ed a33b ced9 bd3c
00000190: c7f5 903d e7cb 6dbb 83ba b33d d8db 73bc
000001a0: b748 4a3d d944 243d a74b 35bd 908e 913b
000001b0: cd88 a53c 724b 0bbd c488 903c 3737 a4bb
000001c0: ffe3 153c 72c1 613d 48aa 6b3d 5c25 ad3d
000001d0: 9ad6 673c 4d79 a63d 23ee 09bd 2b89 9f3b
000001e0: d0a9 9bbd d5c6 1d3d 9b34 d33c cf93 a43a
000001f0: 7fe1 d53d 59d3 a3bd ac0f 2d3c 1d84 7abd
00000200: 4bf3 e73b cac6 73bd 1a17 973c d21f 353d
00000210: 3541 a43b 918c 3b3d 9087 de3c 4f6d a93c
00000220: d24e 9f3d 9eff 56bd 94da 793d 7bfd e23b
00000230: cfae 1d3d a6c9 243c 05d9 2ebd b3b5 66bd
00000240: 4cb3 8f3d d059 a83b 705a 45bd 1e26 aa3d
00000250: ffc7 35bd 795c 423d ca83 0fbd b88b 603d
00000260: d145 903b ec35 463b 8708 2dbd b051 e6bb
00000270: d9a5 18bd 671c 0b3d 8036 503d f38a 34bd
00000280: d414 ae3d 16fc b13d 1421 5e3d ea2c 0a3d
00000290: bf86 ab3d 4c64 843d 9ba2 793d be1b a8bd
000002a0: d332 023d e8c4 9cbd 5d47 313d c3c7 7dbb
000002b0: 79e6 783d b54a 403d 0781 34bd 0180 0d3c
000002c0: 3b98 923d fca2 40bd 4335 333d 4a89 bb3c
000002d0: 5a18 323d be00 153d 58aa 32bc 8e1d 83bd
000002e0: 26c5 173d 172c 513c 1a81 bf3c 7102 60bd
000002f0: b66a 8bbd f500 84bd c637 623d affc d93d
00000300: fd07 e4bc 2120 59bd 84dc 96bb 5a1b 0fbd
00000310: 615d 14bd bd07 9a3d 8218 a9bd 5b25 58bb
00000320: e3f7 2fbc 54f0 213c 287e a6bd d809 42bb
00000330: 7530 563d 0426 43bd 7036 083d e5c2 e73c
00000340: 504c 40ba 886e 9c3d dcb3 8ebd 0766 d8b8
00000350: efcb 99bd 4b66 703c 1cf5 913d b686 3cbd
00000360: 9393 4c3d 8492 513d 9a0d b5bd ef4e e8bc
00000370: 8de7 883d c299 83bd 990c b73b 9539 73bd
00000380: af2c 28bb a316 e83b 1bb7 d5bc 4e01 903d
00000390: b1a8 71bd 6a4c 3cbd 1738 793d 797c 30bd
000003a0: 4af9 ae3d eef3 b6bc 8368 8cbc 794b b5bd
000003b0: fcd1 e13c 6007 81bd 5aec a7bc 48c3 05bc
000003c0: 6f3c afbd 0ee7 9f3d 4dc5 9abb 374f 02bd
000003d0: 70ea 383c 2029 20bc 6fe5 15bd ff15 19bd
000003e0: 14d8 633c 3528 883d 7a51 3b3d bf4c 583a
000003f0: e938 bd3d 8402 4dbb fb3b ed3c 98d4 b83d

lstm.bias_hh_l0 f4 [512]
-0.06363911 0.023424156 -0.009559233 -0.057041384 0.0062847896 0.079496115 -0.053826302 0.04615176
-0.0070589916 -0.0003794367 -0.07273589 0.006804534 -0.08382693 0.037555076 0.09649004 0.07516211
0.051969264 0.06156041 -0.0657027 0.050002143 0.013807831 -0.0006754389 -0.032614883 -0.08753631
0.06658529 0.027113663 0.04692019 -0.009966447 -0.05504848 0.020051531 -0.0022011332 0.008975013
0.05301234 0.012010801 0.07537627 0.05459316 -0.07779022 -0.07599614 -0.06500546 0.11503533
0.04395281 0.096198544 0.01144616 0.05314534 -0.03261203 0.0032808506 0.06143527 0.0579887
-0.06731049 -0.07412473 0.072329275 0.06715797 -0.03688722 -0.022204481 0.064567335 -0.04422719
0.023849608 0.003800404 0.034525678 -0.037771553 0.022162158 -0.021047436 0.04169931 0.086190894
0.010522677 -0.062341057 -0.07567753 0.05056468 0.0061806883 -0.046193637 0.029134639 -0.037876364
0.048629202 -0.05079043 0.08004495 0.07821472 0.09712268 -0.055288393 0.057887673 0.11410986
-0.04559882 0.05912161 -0.06762324 -0.027794678 0.044200882 0.048026014 -0.0070024845 -0.0071842433
0.06403224 -0.080248296 0.080243215 0.0714746 0.026532782 0.09098337 -0.00083680626 -0.055500858
0.07529641 0.088072315 -0.04150516 -0.021043655 -0.08467874 -0.07887792 0.087773465 -0.03557837
-0.0514943 0.011980153 -0.013249844 0.07355678 -0.00048936217 0.031940963 0.0016327623 0.049938936
-0.09039886 -0.08344654 0.06364415 -0.04202453 -0.03906251 -0.04119642 0.04282804 0.009396089
-0.020901863 0.0076029706 0.05408294 0.030772049 -0.019442996 -0.058733527 -0.053236574 0.046356414
-0.049263958 0.036194786 0.030205894 0.069403455 -0.008491757 -0.06407029 -0.060438987 -0.07046705
-0.048984606 0.094196334 -0.050283846 -0.079265475 -0.022579925 -0.011512826 0.025009701 0.03706427
0.05210877 -0.08151189 -0.06916771 -0.04534247 -0.015406131 -0.05443387 -0.056834146 -0.045627113
-0.03693595 -0.027144775 0.0011829471 0.07696537 0.043333113 -0.030348472 -0.007752881 -0.033291657
0.08307992 0.08009182 0.08222698 -0.05443364 -0.020993177 -0.06607718 0.040863324 0.0212999
-0.042020336 0.009143091 0.08959247 -0.039546676 0.08420823 0.08303613 -0.029169036 0.02809436
0.08110038 0.04229104 -0.06745953 -0.07389899 -0.036226846 0.062367227 0.074027754 -0.016547613
-0.07586478 -0.031275265 -0.03188728 -0.03468175 -0.05076187 0.059158586 0.05510377 -0.055427287
-0.016115535 0.05422876 -0.033018596 0.074427456 -0.06610091 -0.043163992 -0.038586657 -0.012914973
-0.03607814 0.023712441 -0.052171297 0.08009496 -0.07210895 0.022566231 -0.06675042 -0.07090608
-0.08542912 0.07144584 -0.02081028 0.07148709 -0.0652403 -0.030212421 0.062448308 -0.07752229
0.08492531 -0.052895308 -0.07648704 0.057030283 -0.001586812 -0.026531428 -0.008902555 -0.078214444
0.017350331 -0.07732019 0.059437007 0.05660346 0.07053452 -0.023401238 -0.0405142 0.013535164
0.00047075798 -0.06913904 -0.0157091 -0.027603943 0.05986207 0.003697698 0.03979757 -0.0003762581
0.04400368 -0.05516973 -0.041709937 0.070431866 0.06587095 -0.0060276417 -0.038212698 -0.024646379
-0.057954572 -0.079511754 0.034580655 -0.028712273 -0.06441118 -0.025371017 -0.022152787 -0.07662037
00000000: 3955 82bd 04e4 bf3c 549e 1cbc 3aa4 69bd
00000010: a3f0 cd3b dcce a23d f878 5cbd a109 3d3d
00000020: 1d4f e7bb 22ef c6b9 8ef6 94bd 91f8 de3b
00000030: 74ad abbd 5ad3 193d 929c c53d 98ee 993d
00000040: b9dd 543d c526 7c3d 238f 86bd 0ccf 4c3d
00000050: 3e3a 623c f00f 31ba 2f97 05bd 3d46 b3bd
00000060: de5d 883d 791d de3c 632f 403d 4f4a 23bc
00000070: 847a 61bd 1c43 a43c e340 10bb ef0b 133c
00000080: 7823 593d f3c8 443c e05e 9a3d 149d 5f3d
00000090: 7b50 9fbd dda3 9bbd 9521 85bd a597 eb3d
000000a0: dd07 343d be03 c53d ad88 3b3c eeae 593d
000000b0: 3194 05bd 8a03 573b 8da3 7b3d 8f85 6d3d
000000c0: 15da 89bd b5ce 97bd 5f21 943d 1e8a 893d
000000d0: 0e17 17bd 2ce6 b5bc e13b 843d 9227 35bd
000000e0: 4160 c33c 3310 793b cc6a 0d3d 58b6 1abd
000000f0: 6a8d b53c ac6b acbc e5cc 2a3d da84 b03d
00000100: 4e67 2c3c 5659 7fbd d2fc 9abd e91c 4f3d
00000110: 5f87 ca3b 8a35 3dbd c4ab ee3c 3f24 1bbd
00000120: 6a2f 473d a009 50bd 9bee a33d 0a2f a03d
00000130: 41e8 c63d 1576 62bd a01b 6d3d 6eb2 e93d
00000140: d4c5 3abd 8029 723d 0e7e 8abd aab1 e3bc
00000150: fc0b 353d edb6 443d 1975 e5bb cd69 ebbb
00000160: 5623 833d 3859 a4bd 8e56 a43d 4661 923d
00000170: 475b d93c 7d55 ba3d 1e5d 5bba de54 63bd
00000180: 0135 9a3d 425f b43d 5101 2abd be63 acbc
00000190: 0c6c adbd bf8a a1bd 93c2 b33d a0ba 11bd
000001a0: b0eb 52bd 6748 443c e015 59bc f0a4 963d
000001b0: 8a48 00ba 87d4 023d 6902 d63a c58c 4c3d
000001c0: 0a23 b9bd 05e6 aabd dd57 823d ea21 2cbd
000001d0: 0300 20bd 94bd 28bd 746c 2f3d 0ef2 193c
000001e0: 623a abbc 5722 f93b 1386 5d3d aa15 fc3c
000001f0: eb46 9fbc 9192 70bd 980e 5abd 39e0 3d3d
00000200: 01c9 49bd fc40 143d 5a72 f73c 6623 8e3d
00000210: 0321 0bbc 4937 83bd df8e 77bd 0751 90bd
00000220: 15a4 48bd 02ea c03d 6ff6 4dbd f055 a2bd
00000230: 89f9 b8bc 4ba0 3cbc 25e1 cc3c b4d0 173d
00000240: 0170 553d b5ef a6bd cda7 8dbd 07b9 39bd
00000250: ff69 7cbc 0df6 5ebd ecca 68bd 7fe3 3abd
00000260: 274a 17bd b85e debc 1e0d 9b3a 05a0 9d3d
00000270: 107e 313d 5c9d f8bc e10b febb d55c 08bd
00000280: ce25 aa3d 2e07 a43d 9e66 a83d cff5 5ebd
00000290: e2f9 abbc 7953 87bd 4d60 273d 217d ae3c
000002a0: 841d 2cbd e7cc 153c 427c b73d b2fb 21bd
000002b0: 5d75 ac3d d90e aa3d e7f3 eebc 2526 e63c
000002c0: f517 a63d 5f39 2d3d 3928 8abd 5b58 97bd
000002d0: 9a62 14bd c774 7f3d dd9b 973d dc8e 87bc
000002e0: fe5e 9bbd 7e1a 00bd 3d9c 02bd 730e 0ebd
000002f0: aeeb 4fbd 4650 723d 7eb4 613d b907 63bd
00000300: ba04 84bc fa1e 5e3d 823e 07bd 6c6d 983d
00000310: ea5f 87bd bacc 30bd 0b0d 1ebd 5399 53bc
00000320: acc6 13bd 9840 c23c 92b1 55bd d408 a43d
00000330: dbad 93bd d1dc b83c 72b4 88bd 3537 91bd
00000340: 76f5 aebd 3252 923d 527a aabc d367 923d
00000350: b59c 85bd 0a80 f7bc ccc9 7f3d 02c4 9ebd
00000360: 52ed ad3d c0a8 58bd 3da5 9cbd 9698 693d
00000370: 93fc cfba 7058 d9bc 06dc 11bc e52e a0bd
00000380: 4822 8e3c 0c5a 9ebd 3874 733d 08d9 673d
00000390: 6774 903d f4b3 bfbc 38f2 25bd 98c2 5d3c
000003a0: 11d0 f639 c598 8dbd 5fb0 80bc aa21 e2bc
000003b0: ee31 753d 1455 723b c702 233d 8244 c5b9
000003c0: 343d 343d a8f9 61bd 0ad8 2abd 953e 903d
000003d0: 59e7 863d 8683 c5bb eb84 1cbd 34e7 c9bc
000003e0: c661 6dbd 0fd7 a2bd 72a4 0d3d 0036 ebbc
000003f0: 02ea 83bd e1d6 cfbc c379 b5bc 24eb 9cbd

lstm.weight_ih_l1 f4 [512, 128]
0.07989068 -0.07308221 0.066604815 0.004277581 0.01779009 -0.05944445 0.016884988 -0.086787485
0.06397445 0.01141364 0.05003454 -0.035551675 -0.017776923 0.009433785 0.07154698 0.01746736
0.054884154 -0.030625282 -0.061927527 -0.092565484 -0.045724533 0.04467685 -0.0074944547 -0.061773006
-0.06411941 0.055769097 0.060553674 -0.029858336 0.07712762 -0.072905645 -0.028354196 -0.112144776
0.015818184 0.020094033 -0.03312168 -0.044651978 -0.044594135 -0.019193387 -0.05578245 0.027126508
-0.023449723 -0.05581146 0.05639734 0.04728909 0.043120608 -0.02162479 0.042119436 -0.012189724
-0.07011251 0.015322263 0.012649899 0.057857737 0.016592957 -0.055627644 -0.060071964 0.0923717
0.050705183 -0.08151668 0.06048545 0.0891546 -0.05751777 -0.01889372 -0.0066571645 0.026197165
0.0138444295 0.034237854 0.06933557 0.020289605 0.023312505 0.050614666 0.087041594 0.0028839738
-0.051295843 -0.034727216 0.08888262 -0.081622824 0.08142311 -0.029021984 0.003888602 -0.10732962
0.016050896 -0.048731055 0.07691445 -0.002848881 -0.0007312819 0.0050420044 -0.06859874 -0.09039723
-0.02101886 0.06352367 -0.043020032 0.060589433 0.07545159 0.05539509 -0.008790974 -0.040460028
-0.045137264 -0.030845404 -0.03301318 -0.034018435 -0.06662281 0.080133766 -0.042205013 -0.02595536
0.056622896 0.05931084 0.03144482 -0.011837408 0.07487194 0.06107842 0.011886266 0.05841426
0.020963361 -0.024266323 0.04846017 0.063398115 0.068659395 -0.07240634 -0.029977143 0.013205687
0.022854492 -0.025333403 -0.07010604 0.07219272 0.057511017 0.07637658 -0.043367457 -0.06487783
-0.008760323 0.05171421 0.07536869 0.014662236 0.030681554 -0.034047186 -0.00032055585 -0.06661233
-0.08086101 -0.039445594 -0.060698617 -0.00980432 -0.050075963 -0.0481982 -0.074642785 -0.04172938
0.08132844 0.050549112 -0.050343778 0.060062654 -0.066013366 -0.045387022 -0.036335837 -0.014666428
0.029372498 -0.04966674 -0.06562634 -0.07043839 0.055997353 -0.05126675 0.043987367 -0.056178544
-0.050997406 0.0897825 0.07013953 0.057973288 0.056414872 0.0014707785 -0.020929938 0.004609422
-0.0028269815 -0.0027534221 -0.011705038 0.051636837 0.025804086 -0.05615849 0.0074364543 0.019143911
-0.06141025 -0.028705725 0.048643712 -0.0050919103 0.07570954 -0.0150878765 -0.020001315 0.057961784
0.0097451145 -0.025501855 0.038164154 0.047080785 -0.04649944 -0.041573364 0.0113214925 0.00021145862
0.03857803 -0.040368877 0.07891785 0.008657717 -0.07558794 -0.056509234 0.025455732 -0.08782382
-0.021108981 -0.08270472 0.084715985 0.059931695 -0.080187865 0.048319235 -0.06331855 -0.03302683
0.041372497 0.091133654 -0.010532316 -0.07461428 -0.08509604 0.017549885 0.0263573 0.011023768
0.043148573 0.030239994 0.018563898 0.03779587 -0.046821263 -0.050009314 0.080438815 0.004724604
0.04293582 0.0729992 0.039511267 -0.095489256 -0.016757704 0.015026781 -0.08703861 -0.051319618
-0.064072 0.047432363 -0.008416489 0.050096348 -0.023887943 -0.078890294 -0.019571438 -0.040292278
-0.028595822 0.005967072 -0.011543303 -0.040152904 0.05853075 -0.07827157 0.0793102 -0.036128897
0.07905881 0.007723625 -0.024504405 0.027631996 0.082526766 -0.028524358 -0.07243601 -0.027928349
00000000: ba9d a33d 20ac 95bd 1b68 883d f32a 8c3b
00000010: 86bc 913c 067c 73bd 6352 8a3c a3bd b1bd
00000020: 0905 833d 4700 3b3c 05f1 4c3d a29e 11bd
00000030: e9a0 91bc 2a90 1a3c 3987 923d b517 8f3c
00000040: 35ce 603d dfe1 fabc b8a7 7dbd f992 bdbd
00000050: a649 3bbd 13ff 363d 0b94 f5bb b105 7dbd
00000060: 0a51 83bd 236e 643d 2107 783d 7899 f4bc
00000070: 16f5 9d3d 8e4f 95bd 0f47 e8bc 29ac e5bd
00000080: 2395 813c 3e9c a43c 99aa 07bd fee4 36bd
00000090: 57a8 36bd 733b 9dbc 237c 64bd 6938 de3c
000000a0: a219 c0bc 8f9a 64bd e600 673d 34b2 413d
000000b0: 3c9f 303d 7926 b1bc 6e85 2c3d 68b7 47bc
000000c0: 2697 8fbd 3b0a 7b3c 8641 4f3c 3cfc 6c3d
000000d0: f4ed 873c d0d9 63bd 050e 76bd 602d bd3d
000000e0: 3db0 4f3d 38f2 a6bd 97bf 773d b096 b63d
000000f0: c197 6bbd 01c7 9abc 5824 dabb 709b d63c
00000100: bfd3 623c fe3c 0c3d cfff 8d3d 6336 a63c
00000110: def9 be3c 5351 4f3d dd42 b23d 0d01 3d3b
00000120: 971b 52bd 203e 0ebd 1708 b63d de29 a7bd
00000130: 29c1 a63d 83bf edbc ead7 7e3b a2cf dbbd
00000140: 2b7d 833c 379a 47bd 5385 9d3d 4bb4 3abb
00000150: 7fb3 3fba 6637 a53b 7f7d 8cbd 2f22 b9bd
00000160: bf2f acbc b318 823d c635 30bd a02c 783d
00000170: 5d86 9a3d f6e5 623d 0408 10bc 6ab9 25bd
00000180: dae1 38bd 80af fcbc d438 07bd ea56 0bbd
00000190: 8a71 88bd 2c1d a43d 2adf 2cbd 56a0 d4bc
000001a0: 69ed 673d ecef 723d 49cc 003d b0f1 41bc
000001b0: 7656 993d 5e2d 7a3d 9dbe 423c cb43 6f3d
000001c0: 5bbb ab3c 2bca c6bc 2c7e 463d dfd6 813d
000001d0: 4c9d 8c3d c649 94bd a092 f5bc aa5c 583c
000001e0: 5839 bb3c ff87 cfbc c193 8fbd c7d9 933d
000001f0: ac90 6b3d 536b 9c3d 13a2 31bd abde 84bd
00000200: 7587 0fbc 48d2 533d e65a 9a3d e039 703c
00000210: e257 fb3c 1075 0bbd 4710 a8b9 0c6c 88bd
00000220: 759a a5bd b491 21bd 1d9f 78bd 4ca2 20bc
00000230: 741c 4dbd 7a6b 45bd 51de 98bd 6dec 2abd
00000240: 868f a63d 960c 4f3d 4735 4ebd 4204 763d
00000250: 0432 87bd bee7 39bd e3d4 14bd 754b 70bc
00000260: 989e f03c 5a6f 4bbd 1a67 86bd 0142 90bd
00000270: 7b5d 653d 15fd 51bd 192c 343d 791b 66bd
00000280: a8e2 50bd e3df b73d 50a5 8f3d 6675 6d3d
00000290: 4813 673d 23c7 c03a 4375 abbc a20a 973b
000002a0: e144 39bb c272 34bb 7dc6 3fbc 2681 533d
000002b0: 1763 d33c 7206 66bd 80ad f33b b1d3 9c3c
000002c0: 5089 7bbd 4528 ebbc a13e 473d 0ada a6bb
000002d0: 9a0d 9b3d 2433 77bc ccd9 a3bc 5669 6d3d
000002e0: f9a9 1f3c 44e9 d0bc 0452 1c3d c8d7 403d
000002f0: 3276 3ebd d548 2abd c87d 393c feba 5d39
00000300: ff03 1e3d d659 25bd af9f a13d 19d9 0d3c
00000310: dacd 9abd 3a76 67bd 8a88 d03c fadc b3bd
00000320: beec acbc 1861 a9bd 937f ad3d f07a 753d
00000330: 8939 a4bd 64ea 453d 28ad 81bd 2447 07bd
00000340: 3576 293d 48a4 ba3d bc8f 2cbc 5fcf 98bd
00000350: d546 aebd c7c4 8f3c 44eb d73c 099d 343c
00000360: 8fbc 303d ddb9 f73c 5113 983c d8cf 1a3d
00000370: a7c7 3fbd 91d6 4cbd 1bbd a43d dad0 9a3b
00000380: 78dd 2f3d 9b80 953d 91d6 213d df8f c3bd
00000390: 7447 89bc e332 763c 4c41 b2bd 8534 52bd
000003a0: 2e38 83bd 7048 423d 50e5 09bc d431 4d3d
000003b0: a6b0 c3bc 3c91 a1bd 4854 a0bc 8409 25bd
000003c0: c941 eabc 6e87 c33b 1f20 3dbc 5f77 24bd
000003d0: f1bd 6f3d d84c a0bd 636d a23d e5fb 13bd
000003e0: 96e9 a13d 7616 fd3b 76bd c8bc 7f5c e23c
000003f0: cb03 a93d eaab e9bc 5559 94bd fec9 e4bc

lstm.weight_hh_l1 f4 [512, 128]
0.06387475 0.03787747 -0.11694912 -0.024881983 3.286575e-05 -0.06782419 0.02224705 -0.086107194
-0.09593398 0.07082327 -0.04251178 0.09454604 0.07083514 0.08574265 -0.018360171 -0.08219533
-0.009676939 -0.071300365 0.08193311 0.01841357 0.04692181 -0.05126352 -0.058067493 -0.047302563
-0.04373052 -0.0137089025 0.06029478 -0.040356092 0.011920688 -0.037475526 0.065883555 -0.0014265707
0.01198094 0.03626539 -0.05647378 0.039439213 0.07254989 -0.07397981 -0.019984802 0.016819637
0.018211074 0.045025807 0.093285844 0.084529504 0.04927071 0.026375467 0.06416185 0.070224494
-0.060450636 -0.063168064 -0.06009273 -0.054572064 0.053275365 0.06566609 0.03795035 -0.033498373
0.031505283 0.008833072 0.02117934 -0.068096064 0.026304467 -0.07270593 -0.0716018 0.034261286
0.07508231 0.007785107 -0.003514877 0.0019035935 -0.023504885 -0.0055256644 0.0037084117 0.004643033
-0.03782601 -0.03291017 0.03312625 0.09430408 -0.039545737 -0.039295845 0.017626645 0.057708412
-0.08396288 0.06927063 0.04720417 -0.10081751 0.07989096 -0.09060697 0.039998773 0.012232664
-0.0033952964 0.044586398 -0.022393918 0.034614295 -0.0750138 0.037200186 -0.029528089 -0.027041733
-0.069162644 -0.048394922 0.08584068 -0.056545343 0.034658585 -0.08834083 0.013225768 0.080242135
0.06688301 -0.06343015 0.03031173 0.0020977575 -0.024043338 0.0045304466 -0.08269113 0.04072878
0.0119370725 -0.007159616 0.06926819 0.06652549 0.06095983 0.037688166 -0.04826075 0.06752792
-0.097328335 -0.0022682766 -0.019379575 0.08125873 -0.047312886 -0.027105622 0.08102522 -0.08975543
-0.07035727 0.030256683 0.014871025 -0.016833669 -0.0745115 -0.034232214 -0.05194165 -0.049747564
0.026545694 0.02336631 -0.045585882 0.010082274 -0.050589163 -0.03874318 -0.08547593 -0.07715157
0.04668945 0.034467954 0.050680947 -0.061516847 -0.0623672 0.064219676 -0.035667326 -0.0024183707
-0.031430487 -0.06669889 0.094463445 -0.04026521 -0.023702528 0.042898916 0.025080409 0.086635515
0.042070135 -0.0756632 0.0017723937 0.059264943 0.008073131 0.026142657 -0.02046758 0.0058814646
0.038416903 0.08801053 -0.071297616 -0.0050942996 -0.026170578 0.020811977 0.053924873 0.0033116955
0.08136829 -0.07214462 -0.04026254 -0.06006191 -0.07118556 0.03289061 0.0385805 -0.08129148
-0.045109417 -0.06564194 0.031614866 -0.06830106 -0.07481754 0.044544842 -0.06291597 0.06397374
0.018848993 -0.066384524 0.043540884 -0.019002795 -0.067545496 -0.0053951317 0.016317746 0.08193512
-0.011277319 -0.060992252 -0.064933866 -0.011592745 0.06121613 0.05181256 -0.006894353 0.071521305
0.081830256 -0.06623093 0.002754479 0.08352533 0.006681649 0.07573065 -0.0640858 -0.026591124
-0.040105693 -0.031421546 0.027995126 -0.02578809 -0.019119188 -0.07192005 0.031603467 -0.030281
-0.08588624 0.08426523 0.026878268 -0.08211361 -0.0033903443 0.0037881178 -0.048714634 0.054208793
0.015849188 -0.02974137 0.06365604 0.05892213 0.026307728 -0.023876222 -0.04580981 -0.06448534
-0.0030151089 0.029497178 -0.030478228 0.057970475 -0.024164217 -0.05421806 -0.07018231 0.014981562
0.03624273 0.055390127 0.02929939 -0.017370459 0.0045345807 0.013139743 -0.03737492 -0.05486098
00000000: c4d0 823d 6825 1b3d 0583 efbd 4dd5 cbbc
00000010: 55d9 0938 69e7 8abd 723f b63c f858 b0bd
00000020: 0979 c4bd ca0b 913d d520 2ebd 5ba1 c13d
00000030: 0412 913d d899 af3d 1268 96bc 0656 a8bd
00000040: 068c 1ebc ed05 92bd 8ccc a73d 0ed8 963c
00000050: 1531 403d b2f9 51bd 2ed8 6dbd 55c0 41bd
00000060: c61e 33bd 4e9b 60bc a9f7 763d 6e4c 25bd
00000070: fd4e 433c f07f 19bd f5ed 863d c5fb baba
00000080: b44b 443c 058b 143d 0d51 67bd 038b 213d
00000090: 0995 943d ba82 97bd 2bb7 a3bc 56c9 893c
000000a0: 642f 953c fb6c 383d a60c bf3d ce1d ad3d
000000b0: 16d0 493d 5d11 d83c 4a67 833d dcd1 8f3d
000000c0: 169b 77bd 425e 81bd cb23 76bd f586 5fbd
000000d0: 4537 5a3d f17b 863d d471 1b3d 9735 09bd
000000e0: af0b 013d 97b8 103c 4c80 ad3c f375 8bbd
000000f0: 777c d73c d9e6 94bd f7a3 92bd 9055 0c3d
00000100: c1c4 993d 361a ff3b da59 66bb 0082 f93a
00000110: 518d c0bc a210 b5bb d308 733b 9524 983b
00000120: 72ef 1abd d0cc 06bd 64af 073d 7f22 c13d
00000130: b6fa 21bd aef4 20bd c165 903c a85f 6c3d
00000140: bbf4 abbd c3dd 8d3d 2959 413d 6979 cebd
00000150: df9d a33d 2690 b9bd c1d5 233d 836b 483c
00000160: 9f83 5ebb 3aa0 363d 7373 b7bc b8c7 0d3d
00000170: d6a0 99bd 395f 183d e4e4 f1bc a086 ddbc
00000180: 25a5 8dbd c139 46bd 3dcd af3d 179c 67bd
00000190: 29f6 0d3d 09ec b4bd e4b0 583c fd55 a43d
000001a0: f6f9 883d abe7 81bd 4e50 f83c 887a 093b
000001b0: 89f6 c4bc 2474 943b f859 a9bd 39d3 263d
000001c0: b693 433c 369b eabb 7bdc 8d3d 843e 883d
000001d0: 04b1 793d e85e 1a3d 10ad 45bd 144c 8a3d
000001e0: 1454 c7bd 5ea7 14bb eac1 9ebc fa6a a63d
000001f0: 28cb 41bd 9c0c debc 8df0 a53d b2d1 b7bd
00000200: 7917 90bd dddc f73c 9aa5 733c c3e6 89bc
00000210: 7c99 98bd 1437 0cbd c5c0 54bd 1ac4 4bbd
00000220: 5b76 d93c b46a bf3c 43b8 3abd 1f30 253c
00000230: 9536 4fbd 2bb1 1ebd 010e afbd a401 9ebd
00000240: 703d 3f3d 452e 0d3d d396 4f3d 17f9 7bbd
00000250: c074 7fbd 9b85 833d e717 12bd 877d 1ebb
00000260: 41bd 00bd 6d99 88bd 0d76 c13d 22ed 24bd
00000270: ce2b c2bc c6b6 2f3d 6e75 cd3c f66d b13d
00000280: bc51 2c3d 4ff5 9abd aa4f e83a ccbf 723d
00000290: 2a45 043c 2029 d63c a0ab a7bc 4db9 c03b
000002a0: 0b5b 1d3d dd3e b43d 7c04 92bd 15ee a6bb
000002b0: ae63 d6bc e17d aa3c 54e0 5c3d 0809 593b
000002c0: 6ba4 a63d 8fc0 93bd 55ea 24bd 7a03 76bd
000002d0: bcc9 91bd 4eb8 063d 9606 1e3d 267c a6bd
000002e0: a7c4 38bd 486f 86bd 977e 013d 6de1 8bbd
000002f0: f039 99bd a774 363d 17da 80bd aa04 833d
00000300: 3469 9a3c 9cf4 87bd ed57 323d c0ab 9bbc
00000310: 4b55 8abd a5c9 b0bb cbac 853c 9acd a73d
00000320: 81c4 38bc 03d3 79bd 0cfc 84bd 7fef 3dbc
00000330: c4bd 7a3d 6839 543d 06ea e1bb c379 923d
00000340: 9f96 a73d 15a4 87bd 7d84 343b 540f ab3d
00000350: bcf1 da3b ac18 9b3d 6a3f 83bd a1d5 d9bc
00000360: de45 24bd e1b3 00bd 0956 e53c 8b41 d3bc
00000370: d89f 9cbc d24a 93bd a372 013d dc0f f8bc
00000380: 20e5 afbd 4093 ac3d d02f dc3c 2e2b a8bd
00000390: 8a30 5ebb 1242 783b ff88 47bd 0a0a 5e3d
000003a0: 28d6 813c 2ca4 f3bc 195e 823d 5558 713d
000003b0: 4e83 d73c 1198 c3bc 11a3 3bbd e410 84bd
000003c0: 2299 45bb 11a4 f13c 7aad f9bc 7372 6d3d
000003d0: 09f4 c5bc c213 5ebd bebb 8fbd 3a75 753c
000003e0: 4273 143d c2e0 623d 4605 f03c 7e4c 8ebc
000003f0: d296 943b 1448 573c 7216 19bd e8b5 60bd

lstm.bias_ih_l1 f4 [512]
-0.029969223 0.060123995 0.057210755 -0.06001773 0.068927824 0.02404644 0.07097736 0.03181107
-0.058066703 0.029605674 0.0035905032 0.0045171287 0.008990994 0.08648981 0.069264136 -0.019423824
-0.063005246 -0.078075774 -0.041630365 -0.00027719664 -0.06767657 0.0764076 -0.029234292 0.096367285
0.09148738 -0.029510383 -0.055949785 0.0909638 0.030808277 0.024781203 -0.03518851 0.085967876
0.023834458 0.012260511 0.029291863 -0.01622269 0.06883741 0.004069506 -0.08363386 0.062290028
0.004302477 -0.052322794 0.018020438 0.07624732 0.013507708 0.068281345 0.092570424 -0.055278238
-0.038197014 -0.04847086 -0.06042017 -0.028188104 -0.0073940502 -0.05181043 -0.04557327 0.02956084
-0.06702849 -0.0647504 -0.009054904 0.05197407 0.025530437 0.027240794 0.060877148 -0.028021062
-0.03423767 0.080805846 -0.052445896 -0.03695776 -0.02173273 -0.058615215 0.05473709 -0.08327878
-0.00022720883 -0.047596235 0.08663298 -0.02856271 -0.048331913 0.0139857065 0.029392071 0.029777462
-0.07828026 -0.060447685 0.10592009 0.07169402 -0.021862606 0.054696623 0.058815256 0.06698036
0.04081095 0.054091986 0.07166878 -0.0007072113 0.01061891 -0.06352881 0.07653501 -0.05002617
0.049187005 0.021984357 -0.0058555137 -0.0067359847 0.08538025 -0.019028766 0.03631474 -0.0737238
0.0376523 0.02197626 -0.06968995 -0.05854378 0.07254483 -0.07649113 0.035309553 0.0773047
-0.048509456 0.07703052 0.0034434183 0.078520395 -0.05053093 0.06805815 0.05857463 0.049391348
0.045968156 -0.019781819 0.022927385 -0.030003037 0.042906363 0.07709355 0.07447051 0.025655298
0.00087213767 -0.019526312 0.09199281 -0.08408728 -0.0067582885 -0.0008296999 -0.06467916 -0.082476355
0.032726876 0.005371519 0.013114037 -0.030621175 0.055972457 0.022052106 0.1066586 0.056019165
0.026808236 0.02409558 0.023285829 -0.05811207 -0.04543446 -0.016666856 0.07981189 -0.049236193
-0.044025727 0.027733305 0.1003855 0.074518114 0.06646573 -0.065539144 -0.0784919 -0.023070024
0.051871084 0.06620366 0.052515857 -0.047863126 -0.04665097 0.012272395 0.039972533 0.00056422537
0.0137794325 0.007436848 -0.0160606 0.0277294 -0.021383563 0.021191187 0.007836168 0.08084222
-0.0013931249 -0.005111881 -0.047327742 -0.00055510196 0.04550645 0.07195534 -0.05877706 0.060922
-0.07441982 -0.006366863 -0.030709947 -0.08349469 0.027160933 -0.052421544 -0.07055626 0.096047014
0.0052431067 -0.027604727 0.052952554 -0.03088931 0.069404155 -0.063908674 -0.088688575 0.01824775
-0.009695313 -0.038286235 0.08246757 -0.027321102 0.08227263 0.09202672 0.051264115 -0.029182449
-0.029964335 0.056828987 0.02359828 0.014808168 -0.09575975 0.020786585 0.02414872 0.014169162
0.07094796 -0.078328066 -0.09214825 -0.012574735 -0.050313756 -0.0738323 -0.0606804 0.028470702
0.033856373 0.012697712 -0.048064023 0.09054117 0.025255764 -0.041577112 -0.0063752676 -0.06407816
-0.036439218 0.068966374 0.06242679 -0.07657236 -0.0037610962 -0.007997545 -0.05311309 -0.061266422
0.020925622 -0.008491229 0.060392845 0.0014476863 -0.023421723 -0.07707047 -0.06423058 -5.6273984e-05
0.08151933 0.0797754 -0.06770863 -0.073808216 0.005265567 -0.012412776 -0.007028223 0.027070075
00000000: 0482 f5bc 9444 763d d355 6a3d 27d5 75bd
00000010: 082a 8d3d 0afd c43c 945c 913d 534c 023d
00000020: 5ad7 6dbd 9987 f23c a64e 6b3b 6c04 943b
00000030: f64e 133c 9221 b13d 5bda 8d3d b61e 9fbc
00000040: e508 81bd 31e6 9fbd 9a84 2abd b454 91b9
00000050: 039a 8abd 967b 9c3d c17c efbc 365c c53d
00000060: bc5d bb3d c2bf f1bc 9a2b 65bd 3b4b ba3d
00000070: a461 fc3c f301 cb3c d421 10bd ed0f b03d
00000080: 7b40 c33c 4fe0 483c 7df5 ef3c 72e5 84bc
00000090: a1fa 8c3d 7e59 853b 3b48 abbd d423 7f3d
000000a0: cbfb 8c3b 6d50 56bd 999f 933c 8e27 9c3d
000000b0: 6f4f 5d3c 17d7 8b3d 9095 bd3d 6f6b 62bd
000000c0: 7974 1cbd 6189 46bd 247b 77bd bdea e6bc
000000d0: ca49 f2bb 2c37 54bd 0aab 3abd 9329 f23c
000000e0: 3c46 89bd dc9b 84bd 055b 14bc c3e2 543d
000000f0: 3525 d13c 1628 df3c 515a 793d 6d8c e5bc
00000100: cd3c 0cbd 897d a53d 82d1 56bd 0561 17bd
00000110: d708 b2bc 8216 70bd 0034 603d 118e aabd
00000120: e83e 6eb9 45f4 42bd a26c b13d 58fc e9bc
00000130: aff7 45bd 4e24 653c a4c7 f03c ddef f33c
00000140: 6751 a0bd fe97 77bd a2ec d83d 50d4 923d
00000150: 3519 b3bc 9109 603d 44e8 703d 002d 893d
00000160: 6229 273d 8f8f 5d3d 15c7 923d 2664 39ba
00000170: f0fa 2d3c 651b 82bd 63be 9c3d 3ee8 4cbd
00000180: 5078 493d 8a18 b43c 9cdf bfbb 89b9 dcbb
00000190: d7db ae3d 37e2 9bbc c4be 143d 81fc 96bd
000001a0: 4c39 1a3d 8f07 b43c 9bb9 8ebd 9acb 6fbd
000001b0: 6292 943d 62a7 9cbd c0a0 103d ed51 9e3d
000001c0: dab1 46bd 2dc2 9d3d f9aa 613b 4dcf a03d
000001d0: 85f9 4ebd 1262 8b3d f4eb 6f3d 954e 4a3d
000001e0: 1b49 3c3d 7b0d a2bc 36d2 bb3c eec8 f5bc
000001f0: 95be 2f3d 39e3 9d3d ff83 983d 0f2b d23c
00000200: 2ba0 643a a5f5 9fbc ba66 bc3d f435 acbd
00000210: a274 ddbb 3880 59ba 8276 84bd 5de9 a8bd
00000220: 9e0c 063d 9103 b03b 42dc 563c 42d9 fabc
00000230: 6043 653d 9ea6 b43c d36f da3d 5a74 653d
00000240: f29c db3c 1864 c53c ecc1 be3c ec06 6ebd
00000250: 7c19 3abd ee88 88bc 6b74 a33d e4ab 49bd
00000260: 5254 34bd f530 e33c ea96 cd3d f49c 983d
00000270: 2f1f 883d 6339 86bd 5cc0 a0bd 59fd bcbc
00000280: c676 543d c995 873d de1a 573d 200c 44bd
00000290: 1615 3fbd 2812 493c 3dba 233d 86e8 133a
000002a0: 21c3 613c cdb0 f33b 8591 83bc c428 e33c
000002b0: 952c afbc 2499 ad3c 4563 003c 9b90 a53d
000002c0: 8499 b6ba 9181 a7bb bcda 41bd 4384 11ba
000002d0: f964 3a3d 525d 933d 37c0 70bd 5989 793d
000002e0: 6b69 98bd 1ea1 d0bb 6d93 fbbc 44ff aabd
000002f0: 9b80 de3c f9b7 56bd cd7f 90bd 4cb4 c43d
00000300: 5ece ab3b 4f23 e2bc c7e4 583d 940b fdbc
00000310: c423 8e3d 8de2 82bd 5ba2 b5bd 4e7c 953c
00000320: 17d9 1ebc 07d2 1cbd c2e4 a83d 81d0 dfbc
00000330: 8d7e a83d 8178 bc3d 52fa 513d 0810 efbc
00000340: c477 f5bc 83c5 683d 2e51 c13c f59d 723c
00000350: b01d c4bd a148 aa3c 89d3 c53c c625 683c
00000360: 2a4d 913d 776a a0bd 39b8 bcbd 4306 4ebc
00000370: cc15 4ebd 6435 97bd 038c 78bd 643b e93c
00000380: fbac 0a3d 100a 503c c8de 44bd a66d b93d
00000390: 2de5 ce3c c34c 2abd 9fe7 d0bb 693b 83bd
000003a0: 4a41 15bd 3e3e 8d3d 3cb3 7f3d f8d1 9cbd
000003b0: b97c 76bb 2308 03bc 1d8d 59bd 80f2 7abd
000003c0: 366c ab3c cc1e 0bbc 7d5e 773d 4bc0 bd3a
000003d0: eade bfbc 1fd7 9dbd 538b 83bd bb07 6cb8
000003e0: 9bf3 a63d 4961 a33d d2aa 8abd c328 97bd
000003f0: c78a ac3b f55e 4bbc 024d e6bb 10c2 dd3c
