lstm_kospi_only_window_inputsize64_hiddensize128_seqlen128_layaers1.pt (torch, 444142 bytes, 11 tensors)

lstm.weight_ih_l0 f4 [512, 64]
00000000: bfad 06bd 4bd9 28bc 492b 953d fa17 07bd
00000010: fe3a 23bd 72cd 793d 702a 6f3d 18e5 47bb
00000020: 1ac5 e03d d4b6 ab3d 6850 1b3d 8385 8e3d
00000030: 049d 153d 7f28 ca3b b992 93bd cfaf 2a3d
00000040: 3040 00bd 0e43 493d 4278 003e 0b7b 793c
00000050: a3b7 3e3c f850 48bc cc5c 173e 835e 8fbd
00000060: 5d6f 053d f7e8 10bd 1bbb 163d c595 503d
00000070: d129 e63b 28f2 bfbd b1b7 0b3e 3c2d 2f3d
00000080: 35d2 e43a cac4 0f3d 8cac 573d 9e87 c03d
00000090: 2a9b 743d 23b7 913d 27ae 13bd b494 aa3d
000000a0: 249d 6dbd 0f16 4ebd 7adc fa3c f4ef 92bd
000000b0: b2a9 c03d 4c4c ca3d 337c d13d fe89 2dbd
000000c0: c9d7 553d a55e 783c adbf cb3c deb1 1c3d
000000d0: 42c8 0fb8 2622 273d ada6 713c 39da 1ebd
000000e0: 4cda b1bc 0a0f ad3d 7b91 33bd 020f a73d
000000f0: f862 703d cb8d 963d 582e 313d edd6 37bd
00000100: 32f4 523d 28eb 783d 6da9 cabd ea12 89bd
00000110: 256b dabd 0eb6 a4bd d192 97bd a9de 723d
00000120: 9a5d 31bd 5fed aabd a945 0abd c565 ffbc
00000130: ea64 0dbd 2f12 863d 5497 aa3d 7cbd c4bd
00000140: b907 55bd a125 073d 8421 eebc 78ba 94bd
00000150: 43af a43d d2d8 713d 83b0 c43d c4e6 d13c
00000160: d32f 993d 1d8c 8bbd 36a0 803d 5c6b 683d
00000170: 3da0 a43d 072f a6bd ed1c 843c 8111 86bc
00000180: c0ec 83bc 1e48 b3ba 6974 043c 747f 5d3d
00000190: d542 a5bd 28ce cbbd 64d8 a63c 0e4a 99bd
000001a0: c612 00bc b5be 95bd 6796 f2bb 5025 143d
000001b0: 2c11 4fb9 39a3 1fbd 561c c0bc 8e4c c33c
000001c0: 52ef bbbd b14b 91bd 619f 89bd 28f9 b0bd
000001d0: 5375 91bd de43 57bd 3917 9abd 2ba0 d2bd
000001e0: 7522 893d 68f0 81bc 0c79 1cbd e25d 433d
000001f0: eba1 2a3d 26a8 91bd 303e d13c 9b48 1ebd
00000200: f46d ec3d 52ea e13d 4cd6 1fbd a58a d53d
00000210: 278e 7bbd 294c 803d 7536 373c d372 8a3d
00000220: c7b6 bd3d e2d6 bfbc 40b5 62bd ee98 ad3d
00000230: 3c9d 1e3d 2dcd 5a3c 7be6 283b 2db7 2a3d
00000240: 98e7 ac3d db30 003e 5db3 a83d f569 bf3d
00000250: 7906 673d c05a 93bc 6425 653d 3e3f 64bd
00000260: 5332 853c 0576 ba3d e47e ccbc 6632 a83d
00000270: 11e5 c13b d7d2 e33c d3cd bd3b 03ec b73d
00000280: c529 29bb c7ba 5a3d 3d05 7dbc 25e3 913b
00000290: 41fb b03a 7341 3cbd 61bb bb3d 2e9d 933c
000002a0: a770 223d f9ee 42bd 8dd3 c53c 4366 a0bc
000002b0: 3887 023d 2afe bf3d bd48 853d 8719 073d
000002c0: 99bf e93c 6709 973d e1d7 fa3d 41d8 863c
000002d0: 34d6 9c3d f981 c83d 93ad 4b3d 781d d43d
000002e0: 28a8 c1bc fa69 1f3d c3a6 24bb d879 cf3d
000002f0: f499 85bd aeb4 323d 0d77 913d 7541 dfbb
00000300: f134 9c3c c282 a23d a2b7 043c dfe3 c23b
00000310: 10a8 ddbc 9099 3e3d bda3 98bd 834b 833d
00000320: 68a6 b0bc e5af 92bb 2285 4abc 5ca2 e83c
00000330: 2789 0a3c a8d7 153d b2d9 5c3d 5fd2 aebd
00000340: fbcd 973d 5139 d0bb 9050 1c3d 9b9e 6b3c
00000350: 2dda 003e 927d 203d 8cde 2bbd 33f2 1bbd
00000360: 73d1 223d 8ba2 323d 747b 2f3d cbbc 48bd
00000370: 48c9 be3c e946 803c a35d 7abd 3c12 b4bc
00000380: a657 30bb 3c28 a73b d1c7 44bd 52a2 9cbd
00000390: ce38 1e3d 8278 553d ca2b fd3c 8951 92bc
000003a0: e894 81bd ad83 c83c 3593 80bd a948 2f3b
000003b0: 118e a7bd acbf 8bbc 8f34 4e3d 2a66 84bc
000003c0: a6a3 19bb f447 d9bc f7a2 6bbd cb5e adbd
000003d0: 2376 39bd b3a7 ad3d b14a bdbd 29a2 7d3d
000003e0: 289f fb3c a0b1 88bd f3bc bd3c 9026 933d
000003f0: f3ae 72bd 8201 9c3c 2ea6 933d cd98 0b3d
-0.03288054 -0.010305713 0.072836466 -0.03298185 -0.03985118 0.060986944 0.05839008 -0.003050154
0.10975094 0.08384481 0.03791848 0.06959059 0.036526695 0.0061693783 -0.072057195 0.04167157
-0.031311214 0.049136214 0.12545875 0.01522709 0.011640462 -0.012226336 0.14781493 -0.070004486
0.032576907 -0.035378423 0.03679953 0.05092408 0.007024028 -0.093723595 0.13644291 0.04276775
0.0017457666 0.035099782 0.052654788 0.09400867 0.05971829 0.07115009 -0.036054756 0.08329144
-0.05801119 -0.050314005 0.03062271 -0.07174674 0.09407367 0.09877834 0.10228767 -0.042367928
0.052207742 0.015159284 0.024871672 0.038255565 -3.428036e-05 0.04080405 0.014749211 -0.038782332
-0.021710537 0.08450134 -0.043839913 0.081571594 0.058688134 0.073512636 0.043257087 -0.044882704
0.051502414 0.060771137 -0.09895597 -0.06693061 -0.106649674 -0.08042537 -0.0740105 0.059294377
-0.043302156 -0.08346056 -0.03375784 -0.031176457 -0.034520067 0.06546437 0.08329645 -0.09606454
-0.052009318 0.03299487 -0.029068716 -0.072621286 0.08041241 0.059044667 0.096039794 0.025622733
0.07479825 -0.06813834 0.06280558 0.05674301 0.080383755 -0.081144385 0.016127074 -0.016365768
-0.016104102 -0.0013678109 0.008084395 0.054076627 -0.08069388 -0.099514306 0.020366855 -0.07484828
-0.007816976 -0.07311765 -0.0074031833 0.036168396 -0.00019747455 -0.03897402 -0.023451012 0.023840215
-0.09176506 -0.07094515 -0.06719852 -0.08641273 -0.07102456 -0.052554958 -0.075239606 -0.10284456
0.06696025 -0.015861705 -0.038201377 0.047696956 0.041658323 -0.0711215 0.025542349 -0.03864346
0.115444094 0.11031021 -0.03902273 0.10426835 -0.061414864 0.062645264 0.011182417 0.06760182
0.09263378 -0.023417894 -0.055348635 0.08476435 0.03872417 0.013354582 0.0025772143 0.041678596
0.084426105 0.12518637 0.08237336 0.093463816 0.056402657 -0.017987609 0.05594386 -0.055724375
0.016259348 0.09104542 -0.02496285 0.08212738 0.0059171994 0.027810497 0.0057923584 0.089805625
-0.002581225 0.05340078 -0.015443143 0.0044521266 0.0013502614 -0.045960855 0.09166599 0.018019285
0.039658215 -0.047591183 0.024148727 -0.019580012 0.031867236 0.0937465 0.06508014 0.03298333
0.028533744 0.0737484 0.12248207 0.01646054 0.076580435 0.09790415 0.04972608 0.10357183
-0.023639753 0.038919427 -0.0025123812 0.10130662 -0.06523505 0.04362934 0.07102785 -0.006813223
0.019068213 0.07935096 0.008100422 0.0059475745 -0.027057678 0.046533167 -0.074531056 0.06410887
-0.021563724 -0.0044765347 -0.012360843 0.028397731 0.008455551 0.03658262 0.053918548 -0.08536219
0.074123345 -0.006354489 0.038162768 0.014381076 0.12583227 0.039182253 -0.041960284 -0.038072776
0.039750528 0.043612044 0.042842343 -0.049008172 0.023289338 0.015658813 -0.061124455 -0.021981351
-0.0026907711 0.005101232 -0.048042122 -0.07648148 0.038628392 0.05211688 0.03090467 -0.017861145
-0.0632723 0.02447685 -0.062780775 0.002674619 -0.08181394 -0.01705917 0.050343093 -0.016161997
-0.002344349 -0.026523568 -0.057528462 -0.08465346 -0.04527868 0.08479252 -0.09242762 0.061922226
0.03071554 -0.06674504 0.023161387 0.071850896 -0.059248876 0.019043688 0.07209431 0.03408127

lstm.weight_hh_l0 f4 [512, 128]
00000000: 56bf 3a3d edc0 19bd 65c4 8abd 1e57 6ebd
00000010: d2a6 113d 7cf0 afbc a941 a5bc 6a71 5b38
00000020: 5307 ad3b 2e7e a5bd 3be1 f6bc 7b10 74bd
00000030: 027b 8cbd 09e6 a2bc c8e0 02bd 4879 c03c
00000040: 8e94 493d 89c0 023d f623 d73b 34a6 803d
00000050: 4d89 09bd f8e0 b0bd a9de f23c e024 a3bd
00000060: 0889 3fbd 814c ac3b 8e81 19bd 1562 6bbc
00000070: ff30 2cbd 63e2 a93d 6295 f7ba b20d b2bc
00000080: 04e2 843b 9909 4f3d 2531 1abc d7de 473d
00000090: f1a8 9d3c 392b fdbc f864 633d e51b 5d3d
000000a0: e6ee 19bd 7561 3ebd 7cd6 62bd 5102 823c
000000b0: be6b 103a 6da7 1dbc 2f9b 373c 8c6d a7bd
000000c0: 990f 2d3d 4f0a 353d 29f1 283d f288 4fbd
000000d0: a25c 3abd 1a93 48bb e397 23bd 0fda 32bd
000000e0: 9426 5fbd 7001 0abe 910c b43d 0ae2 103d
000000f0: e554 21bc 99dc 973d 4079 0fbc 10c6 9fbd
00000100: cf5a 3a3d e77f 5a3d 5743 ac3d 278b b5bc
00000110: 32fb 903d 8436 44bd b184 98bd ca98 853b
00000120: ddcc cf3d 3dac 06bd 6b7f 6a3d 2f7b 8fbd
00000130: e652 42bd 0f3a a0bd c7b2 d23c 7471 89bc
00000140: 580f 93bd c587 20bd d09d 1d3c 0dc2 febb
00000150: 7299 8fbd a492 0d3d 97e8 9bbd a0b4 92bd
00000160: c562 84bd 9c03 6fbd 6a2a babd a77e 14bd
00000170: 299e c0bd 4f9d 3a3d 49e3 be3d 56fe ca3c
00000180: f0b5 1a3d aaf2 b23d f4fc d43d 5772 f43c
00000190: 07a2 8dbd a323 893d fbac e9bc eff6 253d
000001a0: 3cbd 16bc 9829 d0bb 5e36 5f3d a348 343b
000001b0: 28d9 9ebc 2ea3 163d 075a e4bb 18f1 943d
000001c0: e2cf 883c add9 8f3c 0b01 a03d 3187 863c
000001d0: 206e dfbb 3696 813d 175e 3d3d 7fa5 023d
000001e0: a97d 523d 55bb 673d 5623 243c 280a 9d3d
000001f0: bbaa 61bd de2f 823d 5c8c afbd 1828 603c
00000200: 92c8 073d 558d a3ba 8289 973d 046f 9cbd
00000210: 2288 d43d 1dbf e33d 6b8e 593d 362f 4dbb
00000220: d781 43bd 458a 55bd 47da 153d 5af5 cd3b
00000230: db6f 75bd 5ba4 87bc 8731 893b a8e6 96bd
00000240: d843 a83c 646c e4bc 1e32 cebd 3a7a 993d
00000250: 30ab 0cbc 3fb8 67bd 02e8 653c 02ee 47bd
00000260: 920a cd3b f83b b2bc 060b 633b 4631 863d
00000270: e7f0 acbd 51c0 7d3d 4242 e4bc 4246 4cbd
00000280: 55e8 0dbd f21e 9d3d f9f9 42bd fd07 4e3d
00000290: 24cd ae3c bd80 653d a32b a33d 3cd7 b83d
000002a0: 21bb d23b ac20 02bd a964 2c3d 368c 3ebc
000002b0: 9ae3 963d ad8c 10bd 15be 943d 65c2 853d
000002c0: 0bd0 87bc 21d9 9c3d 646f 223d 72b7 90bc
000002d0: 8f1f a3bc 72db 9d3d 8ac3 5c3d fa18 743d
000002e0: 0645 5bbd 8413 5abd 9741 81bc af61 12bd
000002f0: aca9 d4bb 8a0e 9fbd d29d bebd 4e9d ff3c
00000300: 7e33 60bc e715 303d 7250 0c3d 6197 233d
00000310: 159a 6fbd c850 92bd 29e9 abbd cb2f bbbc
00000320: da1a 443d ee2f 473d 15a8 873d 1048 43bd
00000330: fdc7 3dbd b71d 9b3c 6df8 30bd 3e63 83bc
00000340: cc33 ccbd 4d01 4bbd 0543 a2bd f55e 59bd
00000350: 6ce2 b9bd 890e 92bd ac3b 9d3d 7dce 173d
00000360: 1059 1a3d 49a9 1f3d 1ed1 98bc 7d36 bcbd
00000370: 2455 4e3d a306 b7bc 3c89 ef3a 714d 563d
00000380: 6291 d93d 081b ba3d eb63 703d c37c eb3c
00000390: 89b7 0ebb 39e3 fcbc 5d1e 2e3c 6258 4b3d
000003a0: e724 92bc 51cc 4d3b 6b28 ccbc 2c01 b73d
000003b0: b429 4f3d f0fb 92bc 79bf 99bc 6e21 18bd
000003c0: af72 9f3c a753 8a3d 9da4 173c 1d5c 2ebc
000003d0: 5df3 e2bc 114e 4f3c 1c12 253d 8d29 813d
000003e0: 4425 acbc 6353 e0bc 5167 33bd e0ec 37bd
000003f0: 07fd beba 27ae ba3d 6872 9cbd d2c3 c53d
0.04559263 -0.037537504 -0.067757405 -0.05818855 0.035559483 -0.021476977 -0.02017291 5.2319294e-05
0.005280414 -0.080807075 -0.030136695 -0.05958603 -0.068593994 -0.01988508 -0.03195265 0.023495331
0.04921394 0.031921897 0.006565566 0.06281701 -0.033578206 -0.086366594 0.029647188 -0.07966018
-0.046761543 0.0052581434 -0.03747707 -0.014366646 -0.042038914 0.08295133 -0.0018889124 -0.021735046
0.0040552635 0.050546262 -0.009411131 0.0487965 0.019245597 -0.0309044 0.055516213 0.05398168
-0.037581347 -0.04647966 -0.05538033 0.015870245 0.0005509219 -0.009622437 0.011206432 -0.08175191
0.042251203 0.044199284 0.041245613 -0.05066771 -0.045498498 -0.0030605257 -0.039939772 -0.043664988
-0.05448015 -0.13477111 0.08791459 0.035371818 -0.009846901 0.074151225 -0.008756936 -0.07801449
0.045496758 0.053344633 0.084112816 -0.02216108 0.07079162 -0.047903553 -0.07447184 0.0040770518
0.101464964 -0.032879103 0.05725042 -0.07005917 -0.04744234 -0.07823574 0.025720013 -0.016777731
-0.07180661 -0.03919198 0.009620145 -0.0077745975 -0.07011689 0.034563676 -0.07612722 -0.07163358
-0.06464151 -0.05835305 -0.09090121 -0.036253598 -0.09405167 0.045560177 0.09320695 0.02477948
0.037771165 0.08737691 0.103998095 0.029839678 -0.0691567 0.0669625 -0.028524866 0.040518697
-0.00920039 -0.0063526146 0.054495208 0.0027509115 -0.019390658 0.036776714 -0.00696874 0.072725475
0.016700689 0.01755985 0.07812699 0.016421886 -0.006818548 0.063274786 0.04623231 0.03189611
0.05138937 0.056575138 0.01001819 0.07667953 -0.055094462 0.06356786 -0.08571693 0.013681434
0.033150263 -0.0012478033 0.073992744 -0.07638362 0.10377528 0.11120436 0.053114336 -0.0031308657
-0.047731247 -0.052133817 0.03658512 0.0062853517 -0.059921127 -0.016557863 0.0041868123 -0.07368213
0.020540163 -0.027883716 -0.10068153 0.07494016 -0.008585736 -0.056572195 0.014032366 -0.048810966
0.0062573636 -0.021757111 0.0034644022 0.06552367 -0.08444386 0.061950985 -0.027863625 -0.04987169
-0.034645397 0.07671918 -0.047601674 0.050300587 0.021338053 0.056030978 0.079673074 0.09025428
0.006430999 -0.03176944 0.042088185 -0.011630109 0.0736763 -0.03529041 0.07262818 0.065312184
-0.016578695 0.076586016 0.03965701 -0.017665599 -0.01991251 0.077078715 0.053897418 0.059594132
-0.053532623 -0.053241268 -0.015778346 -0.03573769 -0.006489953 -0.07766445 -0.093074456 0.031202938
-0.013684152 0.042989638 0.034256406 0.039939288 -0.058496553 -0.07144314 -0.08394081 -0.022849938
0.04787717 0.048629694 0.06623856 -0.047676146 -0.0463333 0.018935068 -0.043205667 -0.016038533
-0.09970817 -0.049561787 -0.07922939 -0.053069074 -0.0907639 -0.071316786 0.07677397 0.037062157
0.037682593 0.038979802 -0.018654402 -0.0919008 0.050374165 -0.022342032 0.0018275152 0.052319948
0.10623433 0.09087187 0.05868904 0.028746014 -0.0021776876 -0.030870067 0.010627356 0.049644835
-0.017839862 0.00314023 -0.024921617 0.089357704 0.05057688 -0.017942399 -0.01876806 -0.037141256
0.019463865 0.06754237 0.009255555 -0.010642079 -0.027703935 0.01265289 0.040300474 0.06306753
-0.021013863 -0.027383512 -0.043799702 -0.044903636 -0.0014571258 0.09115248 -0.07639009 0.096564904

lstm.bias_ih_l0 f4 [512]
00000000: 07e7 8fba 25f4 56bc 7912 ecbc f96b a0bc
00000010: bcd3 ddbc ed7f 46bd c552 d6bc 3f1a bb3d
00000020: 1440 053d 6901 a13b 745e b4bb 7828 493d
00000030: 4cba e93b f4f3 4fbd 207a bdbd 75d4 84bd
00000040: 8def 163d 8c5c 92bd 8cbc d7bc 6db8 17b9
00000050: 7337 253d af13 8c3d 4205 073d 8366 3a3d
00000060: a930 d23c 9e52 b7bd 1800 893d 4e0d 11bd
00000070: 042c 6d3d b32a 14bc cdde a4bd 183e 9e3d
00000080: 247c 07bd 27bc 05bd 3ed0 3f3d 6389 aabd
00000090: e82b 9abd dd6d 1bbd 861f e2bc 54b9 68bc
000000a0: 73c6 94bc 6ef5 9c3d e80e ba3d 833d 893d
000000b0: 3bf7 2e3d 543a 22bc 8346 9c3d 1677 84bb
000000c0: 3aa7 993d d5d4 b8bb 1392 c53d 1c5e 203c
000000d0: a5d2 b43b 5aeb 173d d990 ecbc d2b7 15bc
000000e0: 8ed2 8e3d 0531 c33d 5b84 503d 9d79 2d3a
000000f0: f51b 8b3c ddf0 873d 7fec 273d a23e 813d
00000100: 9c26 10bd f754 81bd 823d 4d3d fc54 173b
00000110: b8b6 813d 8e16 18bc 5dc3 aabd 7891 023d
00000120: 8653 6d3c e0af 4f3d d3a3 393c ba50 ddb8
00000130: cd3f 533d bc56 5ebc 5993 a73d fe05 e1bc
00000140: 77ad 3b3d ebd9 2d3d 6f32 df3c 74a0 53bd
00000150: 0b57 603d da02 84bd 77eb 2a3d ad9c 8d3d
00000160: e297 a13d 008e 8d3d 92de 8dbd 2aa9 a9bc
00000170: def5 74bd 0d94 653c 8af6 823d 2728 1a3d
00000180: a6f1 f9bc 9ec5 bdbc 980b d9bc 7be6 b0bd
00000190: a7bb b6bc 2695 71bd b82c 18bd b27b be3d
000001a0: ed39 93bd e4bb 9abc 3cc6 163d 5dd7 313d
000001b0: e046 eb3c ea10 1b3c efe2 56bd ffce 3bbc
000001c0: 02bc 6bbb d54c 983c 9793 d13d 1098 4dbd
000001d0: 40e4 a13d 838b 13bd d5a0 803d adf5 ab3d
000001e0: af71 7fbd 1faf 9d3d 327f 38bd 66b9 133d
000001f0: 8610 41bd 1193 883d d7ff 883c 0025 5e3d
00000200: 4a66 683d 74ed 59bd 6f3d d53d 4f0e ccbd
00000210: e02a 033d 1dad d1bc 6217 4e3d 2be1 11bd
00000220: 1d69 81bd 470a 803d 5393 383d ce3a de3c
00000230: 0729 553d 2e41 ab3d c246 603d c98c 89bd
00000240: 4de1 993d 3e47 a43c df3e 93bd 0a92 3a3d
00000250: 6689 d7bc 3c97 313d 9718 84bd fb6f a53d
00000260: 996b 373c 62c5 11bd 7b47 f2bc 1584 c8bc
00000270: 190b 643d e9fd 393d 0d67 a43d 08ad 1e3c
00000280: b8cd 27bd 1632 79bd bce0 96bd 16c7 7ebc
00000290: 0f81 e03b 887f a13d 122f e13c a2c2 8bbd
000002a0: 4d07 3ebd dd91 5bbd 731d d13d 9660 6f3c
000002b0: f865 97bd 1262 a83d f233 b03d 80a2 cdbc
000002c0: 1993 8b3d 932d b13c 7f5d 8e3d 0086 b73b
000002d0: 9586 b23b 0eaa ccbc 1e39 a9bd da18 6d3b
000002e0: d800 8c3d 6c00 d63d 75f6 aebb 12cf a1bb
000002f0: ab71 1dbd 454a c6bb 24dc 26bc b9ca 24bd
00000300: 2e6d fe3c 88e6 8d3d a928 eabc cbc4 723d
00000310: ea30 8c3d 385b a73d 7f71 983d 437b d13c
00000320: 7cf5 763d 4416 01bd 6f84 133d 63b2 7ebd
00000330: c079 823d beb0 103c ef96 06bd 6848 8d3d
00000340: 4eab 8f3d 0c4e 803d 3ed6 43bd e9d6 aa3c
00000350: 8292 a93c 4f12 1d3c 5543 efbc a6b7 393c
00000360: cdea 9fbd 4935 c53c c769 883d 09be 693c
00000370: 57de 32bd 5c31 343d 6f27 c83d fbc2 e83b
00000380: a160 6c3d 959b 2abc 22ea e4bc ca2c 78bd
00000390: a10c 443c a154 0fbd 85f9 6fbd bf92 6ebd
000003a0: fb9b 70bd 9ad2 23bd e8d6 e73c 02a8 d03b
000003b0: 2364 18bd 74ae 3fbd 0495 6d3c de25 683d
000003c0: a88c b63d e5f7 32bd 594a 42bd 24cc a9bc
000003d0: 526e 7cbd 02da 3fbd ab8f 58bd 43bd bd3d
000003e0: ea0a 123d d67d a63d 63ec 39bc 41bb 9d3d
000003f0: b435 51bc 68ae 97bd fd80 67bd efb3 ce3c
-0.0010978886 -0.013119732 -0.028817402 -0.019582735 -0.027078502 -0.048461843 -0.026162514 0.091358654
0.032531813 0.004913498 -0.0055044238 0.04911086 0.007132804 -0.05076976 -0.09251809 -0.064858355
0.036849547 -0.07146558 -0.026335023 -0.00014469186 0.040336084 0.06839692 0.032964 0.04550792
0.025657969 -0.08951305 0.06689471 -0.03541308 0.057903305 -0.009043383 -0.080503084 0.07726687
-0.033077374 -0.03265014 0.046829455 -0.08326986 -0.07527906 -0.03794657 -0.027602922 -0.014204342
-0.018161034 0.076639995 0.090848744 0.067011856 0.042716246 -0.009901602 0.076306365 -0.0040425165
0.07502599 -0.005640606 0.09647002 0.009788062 0.005518275 0.037089683 -0.028877662 -0.009138064
0.06973754 0.09530834 0.050907474 0.0006617548 0.016981104 0.06637738 0.040997025 0.063107744
-0.03519307 -0.06315034 0.050107487 0.0023091426 0.06333679 -0.009282721 -0.08338044 0.03187701
0.014485246 0.050704837 0.011330563 -0.00010553138 0.051574517 -0.013570484 0.08182401 -0.027468678
0.045819726 0.04244415 0.027245728 -0.051666692 0.05477051 -0.064458564 0.041728463 0.06914649
0.078902975 0.0691185 -0.069272175 -0.020710547 -0.05980479 0.014012349 0.0639468 0.03763595
-0.030510735 -0.02316552 -0.026494786 -0.08637711 -0.022306276 -0.05898013 -0.037152022 0.09300937
-0.07188783 -0.018888421 0.036810145 0.043418277 0.02872032 0.009464482 -0.052462514 -0.011462926
-0.0035970216 0.018591324 0.10233229 -0.050193846 0.07904863 -0.03602172 0.06280676 0.08396468
-0.062364276 0.07699417 -0.045043178 0.03606548 -0.0471349 0.06668676 0.016723556 0.054234505
0.056738175 -0.05320497 0.10412108 -0.09963667 0.03202331 -0.025595242 0.05031527 -0.035615128
-0.06318877 0.0625196 0.045062374 0.02712765 0.05204108 0.083620414 0.05475498 -0.06716306
0.07513676 0.020053502 -0.07189726 0.04554943 -0.026310634 0.04335712 -0.06450003 0.08077999
0.011195087 -0.03558863 -0.0295751 -0.024477044 0.055674646 0.045408163 0.08027468 0.009684809
-0.040967673 -0.06083878 -0.073670834 -0.0155503955 0.0068513225 0.07885653 0.027488265 -0.06824233
-0.04639368 -0.053605903 0.10210695 0.01461043 -0.07392496 0.082218304 0.08603658 -0.0251019
0.06815166 0.021628177 0.06951427 0.005600691 0.0054481723 -0.024983432 -0.08262847 0.0036178143
0.068360984 0.10449299 -0.0053394386 -0.004938015 -0.03843848 -0.006051334 -0.010184322 -0.040232394
0.03105792 0.06928736 -0.028583841 0.059269708 0.06845267 0.081716955 0.07443523 0.025571471
0.060292706 -0.031515375 0.03601497 -0.06218184 0.06370878 0.008831201 -0.032858785 0.06898576
0.07015096 0.06264886 -0.04781174 0.02085443 0.020699743 0.009586885 -0.029206911 0.011335289
-0.078084566 0.02407326 0.066608004 0.014266499 -0.04366907 0.043992385 0.09773146 0.0071033216
0.05770934 -0.01041307 -0.027943674 -0.06058959 0.011965902 -0.034992818 -0.05858757 -0.058245417
-0.058742505 -0.039995767 0.028300717 0.0063676843 -0.037204873 -0.04679723 0.01450086 0.056676738
0.08913547 -0.043693442 -0.047434185 -0.020727225 -0.061628647 -0.046838768 -0.052871387 0.092646144
0.03565494 0.0812947 -0.011347863 0.077017315 -0.0127691515 -0.07406312 -0.056519497 0.025232283

lstm.bias_hh_l0 f4 [512]
00000000: ce60 b43d c0f4 babd 323a cd3d fbbe 9c3d
00000010: f20d 19bc cba3 aebd b37c 43bd c138 18bd
00000020: 8a2b 0b3d 5e10 9dbd 53d2 9a3d 941c 353d
00000030: 8c6a 2ebd bd8d 96bd c3cc d53c 7da5 62bd
00000040: d1e3 c63c 018c ca3c b408 bc3d a20b 743c
00000050: 74cc 033c 383f a53c f51e 64bd cd9d e63b
00000060: 9e9b b43c 4f34 f3bc 8220 c5bb 784c 3e3d
00000070: e0c6 92bd 7e88 72bd 4581 0cbc 2674 6b3d
00000080: b831 2f3d dbf8 803b 40f2 94bc 5812 a73c
00000090: dc31 0c3c 4e6c 743d edc7 b7bd d1ca 20bd
000000a0: 2c1e 71bd c24e 92bd 1c0e 313c 04b0 193c
000000b0: 0e48 6fbd 3151 a53d 0ed1 0b3d 0bd6 1d3d
000000c0: d2c2 fbbb 78a9 393c 510c 5c3d c8d9 bd3d
000000d0: 4a8f 8e3d 26f9 54bc 9b72 573c 1039 a93d
000000e0: fc06 773c 2df6 353d a2e0 3e3d 6c22 21bd
000000f0: a3ff a83d ce76 79bd da10 a6bd eea3 ea3d
00000100: fbe9 75bd 2bca cc3c 2c0b 9f3d 0d22 81bd
00000110: b676 eebc f8fb 88bd 922a 9e3d fc57 61bc
00000120: 29d5 9138 7862 58bb 9778 1c3d b46f 83bc
00000130: 52f8 8f3d a818 2a3d 1775 b9bc 47c2 2c3d
00000140: 6974 7fbd 8668 6a3d afa3 4dbd 3fd5 70bd
00000150: 5240 8dbc 7be9 a9bd 878f f5bc f1a7 43bd
00000160: 6920 bdbd 9fa5 2ebd 2ef0 e3b8 b17a 8e3d
00000170: 64e5 ddbc 7620 9dbd c3f3 af3d ad33 4a3d
00000180: ba0d 38bd 5c09 003d 6e0b c23d 0f86 6b3d
00000190: 38ff bebd 264d 933c 2bba 323d 3239 963d
000001a0: cbf0 b2bd a5d7 b83c 5434 8f3d 0215 6cbc
000001b0: 1ac0 213d da3d 983c efe6 ae3d cefa fd3c
000001c0: 09f9 db3c dafe ba3d 152e 7b3d 9af8 e4ba
000001d0: 6f60 573d 963b 21bd 2e61 473d 833f 303c
000001e0: 0da9 973d 4ba3 033d d98d 0abb ca13 933d
000001f0: 3a99 883c f9c7 9f3d a536 85bd 8db9 a2bd
00000200: 0493 b9bc 05b6 5d3d 5337 033d bf69 8dbc
00000210: 2cc7 913d ff00 fb3c 409e df3a 6fd8 3d3c
00000220: 6d76 943d f556 18bd a732 48bd 9eac 1e3d
00000230: 4333 ddbc b4b2 633c 8c84 f1bc 7d4e 873d
00000240: 4fed 493d b236 123c 1585 bb3c 27ca 843d
00000250: ac84 3cbc cbc0 353c 37ad 61bd 05be 203c
00000260: de2e ac3d 595e 15bd b7cb 403d 5a6d 86bd
00000270: 3893 2a3d c7b1 1b3c 5913 9b3b dd07 dfbc
00000280: cb00 8a3d 603f de3b 5154 ab3d 7366 773d
00000290: 2ab5 813d 8cf9 aabc ca9f 23bd f412 613d
000002a0: 68d3 293c 73cb 7b3d ab83 8e3d 80e1 673c
000002b0: 9abc 0dbd d2a6 c03d fa0d a93d 6c95 bd3c
000002c0: b7cb 74bd d960 363d 6c4d 2abc 139a a33d
000002d0: 1a92 293d 48cf f03c 2c16 98ba 513a 84bd
000002e0: 9225 80bd edeb 89bc eeb1 0fbd a43f d6bc
000002f0: b8f4 443c 531e 9a3d e43e 303d feb9 423d
00000300: c479 1cbd b28e 6f3d 3964 8b3c 4a1c c13d
00000310: d14f c83b caf5 48bc edd3 8abd be93 583b
00000320: 6135 013d 97f0 b93d 6c19 39bd 4232 3dbb
00000330: 553f adb9 5782 8f3c ff9f a73d 1dad d1bc
00000340: ced5 7ebd 9a64 263d 4bbd 92bb ffc8 a23d
00000350: f9d4 883d e9c3 313d a00b 113d 2186 713c
00000360: 9b9f 1a3c 6ece bdbc b64a cdbc 0825 743d
00000370: 5630 1bbd 8600 433d 73c2 4d3d 827a 8cbd
00000380: 130f 2bbd abed 72bd 474d 383b cdb1 2a3d
00000390: c526 563d 04e1 21bd 64a8 27bd 6652 d83b
000003a0: 602f b03d 8d19 9ebd 8043 cdbc dfa2 b53b
000003b0: 5dd2 9cbd 8ab0 783d ea2f 4abc 7e3f 673d
000003c0: 1f7f cfbc 8d75 8dbb 90ab 203d d78c 04ba
000003d0: 3177 8dbd 02d4 293d cd69 a3bd 342b 8dbd
000003e0: bc73 58bd cfcb 033d 6a3e 47bd 79f9 9c3d
000003f0: a03b cb3c 6346 1abc 9b72 583d 1555 6a3d
0.088075265 -0.091287136 0.100208655 0.07653614 -0.009341704 -0.08527335 -0.047726344 -0.0371635
0.03397707 -0.076691374 0.075596474 0.044216707 -0.04258208 -0.07351253 0.026098615 -0.055333603
0.024278553 0.024724962 0.091813475 0.014895352 0.008044351 0.020171747 -0.055693585 0.0070378543
0.02204686 -0.029688029 -0.006015838 0.046459645 -0.07166839 -0.0592122 -0.008575742 0.057483815
0.042772025 0.003935916 -0.01818192 0.02039449 0.008556809 0.0596736 -0.0897368 -0.03925592
-0.058866665 -0.07143928 0.010806587 0.009380344 -0.058418326 0.08072127 0.034134917 0.038534205
-0.0076831365 0.011331908 0.053722683 0.09270054 0.06960924 -0.012998855 0.013149883 0.08262837
0.015077349 0.044424225 0.046600945 -0.039339468 0.08251884 -0.060904317 -0.08108683 0.11457048
-0.060037594 0.024998745 0.07765803 -0.06305323 -0.02910934 -0.06688684 0.077229634 -0.013753887
6.953843e-05 -0.0033017676 0.03820094 -0.016044475 0.07029785 0.04152742 -0.02263884 0.042177465
-0.062366877 0.057228588 -0.05020493 -0.058797117 -0.017242584 -0.08296486 -0.029975666 -0.047767583
-0.09234697 -0.042638417 -0.000108689404 0.06956995 -0.027086921 -0.07672207 0.08591416 0.049365688
-0.044934966 0.031258926 0.09474836 0.057500895 -0.09326023 0.017981123 0.043634575 0.07335128
-0.08737334 0.022563765 0.06992403 -0.0144093055 0.039489843 0.01858418 0.08540141 0.031003382
0.026852148 0.0913064 0.061323244 -0.0017469109 0.0525822 -0.039363466 0.048676662 0.01075733
0.07405291 0.03213815 -0.0021141677 0.07181509 0.016674627 0.07801814 -0.06504563 -0.07945547
-0.02265311 0.054128665 0.032035183 -0.017262338 0.07118067 0.030640123 0.0017060712 0.011587246
0.072491504 -0.037192304 -0.04887643 0.03873884 -0.027001983 0.013897587 -0.029482149 0.06606767
0.04929858 0.008924173 0.022890607 0.0648387 -0.011506241 0.011093329 -0.05509683 0.009810929
0.08407377 -0.03646693 0.047069278 -0.06563826 0.041644305 0.009502835 0.004732531 -0.02722543
0.067384325 0.006782457 0.083656915 0.060400438 0.063333824 -0.020870946 -0.03994731 0.054949716
0.010365345 0.06147332 0.069587074 0.0141528845 -0.034603693 0.094068184 0.08254619 0.023142539
-0.05976459 0.044525955 -0.010394435 0.07988372 0.0413991 0.029395714 -0.0011603287 -0.064564355
-0.06257166 -0.016836131 -0.035081796 -0.026153393 0.012021236 0.07525315 0.043028727 0.047540657
-0.038202062 0.058485694 0.017015563 0.09429224 0.0061130305 -0.012265632 -0.06778703 0.0033047046
0.031545047 0.09079092 -0.04519026 -0.0028869067 -0.00033044317 0.017518206 0.08184814 -0.025595242
-0.06221562 0.040623285 -0.004478132 0.07948493 0.06681246 0.043399725 0.035411477 0.0147414515
0.009437467 -0.023169722 -0.025060039 0.05960563 -0.037887894 0.04760792 0.05023427 -0.06859304
-0.041762423 -0.05930869 0.0028122233 0.04167347 0.052283067 -0.039521232 -0.040932074 0.0066016195
0.08602786 -0.07719717 -0.0250566 0.0055430974 -0.07657311 0.060715236 -0.012340525 0.056457035
-0.02532917 -0.0043169917 0.039226115 -0.0005056387 -0.069074996 0.041461952 -0.07979164 -0.06893006
-0.052844748 0.03217679 -0.048643507 0.07664771 0.024808705 -0.009416196 0.05284367 0.057210047

emb.linear1.weight f4 [32, 1]
00000000: b441 4e3f 2014 f2be 78b1 6bbf 53d7 aabe
00000010: 1cf4 f13e 5465 1c3f b28b 10bf 997b 4abf
00000020: 1b5c ebbd 2215 3b3f 45ac a9be ec97 a73e
00000030: 14e0 e63e b078 4f3f 382f 013e c1b2 da3e
00000040: 5c2a a13e a86f 2a3f a812 9f3e 8b36 363f
00000050: dba3 dc3e 5c24 54be d4b5 91bd 60b5 493f
00000060: 3290 ec3e aa85 7cbf f84a 02bf 125f 3a3f
00000070: 626c 31bf c05d 94bc d0f0 4b3f a91a 633e
0.80569005 -0.4728098 -0.9206767 -0.33367404 0.47256553 0.61092114 -0.5646316 -0.79094845
-0.11492177 0.7307912 -0.33139244 0.32733095 0.45092833 0.8104353 0.12615669 0.42714503
0.3147763 0.66576624 0.3106892 0.71176976 0.43093762 -0.20716995 -0.07114759 0.7879238
0.46203762 -0.98641455 -0.50895643 0.72801316 -0.69306004 -0.01811111 0.79664326 0.22178139

emb.linear1.bias f4 [32]
00000000: 3401 f23e 4600 21bf 20f9 c1bd bec4 413e
00000010: f84a 48bf 5a12 27bf d821 073f 52c0 913e
00000020: 6104 8d3d 1eda 98be b12a 343f 627f 5dbf
00000030: fec2 23bf 03db ffbe f65d 3d3f e239 023e
00000040: ce7a 6fbf 91b1 b2be 441c 13bf 3e47 96be
00000050: f216 493f 201c e23d a68b 673f 043b db3e
00000060: b4af 6dbe 64e5 fd3e 0412 e9be 8cec b23d
00000070: 8233 3dbf 3abc 23bf 64b4 5cbf 49d4 913e
0.47266543 -0.6289104 -0.09471345 0.18922707 -0.78239393 -0.6526238 0.52786016 0.2846704
0.06885601 -0.2985391 0.7037764 -0.86522496 -0.6396941 -0.4997178 0.739715 0.12717393
-0.9354676 -0.34901097 -0.57465005 -0.29351228 0.78550637 0.11040521 0.9044746 0.42818463
-0.23211557 0.49589074 -0.45521557 0.08736524 -0.7390672 -0.63959086 -0.86212754 0.28482273

emb.linear2.weight f4 [64, 32]
00000000: ee25 f23d ff1c 2a3e 219a 0d3e f4cf 47be
00000010: 2116 013e 574b 023e ddea 1dbe e81d 0f3e
00000020: cde3 82bd fb7c b8bc b176 02bd 1c1e 16be
00000030: a07a 1dbd c3be 1ebb afe8 573d 6e1a 83bb
00000040: 3c53 90bd f4d2 67bb a09d f93c 1fe3 0abe
00000050: 35f0 06bd bf7a 55be cea6 ddbc 1061 123d
00000060: 8c8f d73d 12a9 f9bc 9569 03be 0f3d 38be
00000070: 1d00 e9bd 5bdc 263e b963 18be 49d8 1a3e
00000080: 67a7 c03d b8ed 6cbd fe55 a93d 0072 8ebe
00000090: d848 ae3c 0a94 e3bd 08f3 223d 70f3 fcbe
000000a0: eb76 bfbe a13a fabd 875e 00be 92ed f23d
000000b0: 4118 0f3e eaeb 813e b5c6 cabd daf3 073e
000000c0: 2651 943d 70e1 093d 11a1 1c3e 472d 14be
000000d0: e92a 153d 49e5 25be 5462 4cbc 073e 79bd
000000e0: c1ed 21bd 8133 86be 28f4 34bd 5794 263e
000000f0: 8025 d53c 7386 1d3e a46a 663d 00b8 a53d
00000100: f2cd 1bbe 9b57 033e 367a d93d 5f3a fe3d
00000110: d761 233e 5846 72bd 34fd bb3c 9eef 0bbe
00000120: 3def 54bd 3ffc d03d f901 803d e049 89bb
00000130: 2d56 04be a6bb 12be a5c1 6b3d 2955 37bd
00000140: 4adc 913d ff97 ae3d 00fd a13b 361e 77bd
00000150: db43 113e a493 513e 2211 953d d637 babd
00000160: cb37 243e 2338 ca3d a8cc 2bbd 781e 49be
00000170: f91b 28be 7d4d 313e f6f6 db3d c6bd 00be
00000180: 31ca 06be c207 e03d 88dd 273d bdea 78be
00000190: 4bb4 97bd aa89 eebd 6e85 12be fd11 25be
000001a0: f187 2bbe e89f 0f3e 752e 20be a086 c03b
000001b0: 3c6c acbd 19f2 97bd c3d2 f73d bfc7 303e
000001c0: 80f1 5e3d cb62 ac3d 80bc dfba 5325 533d
000001d0: 8218 273e e5da c8bd d911 f13d 7540 113e
000001e0: 6b75 8abd 82a9 bb3c 1078 713c 268f 0ebe
000001f0: 9090 e2bc 1886 85bd 303a a03c 5416 f2bc
00000200: e376 c83d d883 1d3d 3f2b 1c3e 2121 2bbd
00000210: b385 15be aa4e b83d d521 163e 3a16 843d
00000220: f988 93be 69d0 4abd ce5c d83d 1ebd d33d
00000230: aedd 74bd 90e5 54bd ce5b 09bd 1c2c d3bc
00000240: aa46 a83d 7af7 083e 901d e6bc 30d7 c43c
00000250: 6ba9 50bc ce7d 20be 856a 233e cbac 2d3e
00000260: 7064 3b3e 5356 273c 6c8e 0dbe 8fc6 e43d
00000270: 5086 5e3d 9066 7c3d 9b43 0b3e 5775 1c3e
00000280: 1e67 90bd c907 14be eadd c23d 3d76 d1bd
00000290: 9891 01be a0f5 ccbb 12d0 463d 9e65 8bbd
000002a0: 9227 2ebe dff9 273c 0bb7 ac3c 56b0 8fbd
000002b0: deae 973d e9c6 d13a a27a 31bd d5c8 223e
000002c0: 309c 0d3c 2f4b 723e bf4e bfbd d628 1d3e
000002d0: b62e 94bc d925 3abe 14a6 4f3e e66c 67be
000002e0: 14f1 763e a16e 3bbd 2a6e 09be c61e 00be
000002f0: f9b6 1f3e 0031 523c 0b2f 2b3e 7d91 12bd
00000300: f856 20be d819 85bc d8c0 883c e310 9cbc
00000310: 66d5 a13d c266 a73d d183 6abd 66c7 9fbe
00000320: 138f 7bbd 28cc 3dbe 4e37 f3bc dee2 14be
00000330: e21e aebd 34b2 de3d 45e5 79bc d7a3 46be
00000340: b348 0b3e 3fcc 143e 7c30 243d 34fe 45bb
00000350: 5227 243e f042 a5be f051 2d3e 56ce d1bc
00000360: 5de2 6c3e 5b21 05be 2a1a 74bd 21f1 603d
00000370: 8c64 23bd 8bdc 313e 508f ba3c 2c9a 0ebd
00000380: 8249 323e 38d3 b53c a3cd 0b3e 1775 77be
00000390: 7ed0 813d f690 863d 131c 02be 106b 15be
000003a0: 95ac 00be f604 c63d 7b21 e6bc f081 913c
000003b0: 51fb 2e3e f783 cb3c f738 2c3e 106d 3ebe
000003c0: 3ef0 e63d b4cf bf3c 05ab 2c3e b92f 09bd
000003d0: 0699 343e 97da 97be 1d1f 2bbe 6992 6cbd
000003e0: 4931 d03c 9e67 e4bc a015 06bc 7c05 053e
000003f0: e6eb 09be 961c ca3d 473b 1c3e cc1b 80bd
0.11823641 0.16612624 0.13828327 -0.19512922 0.12606098 0.12724052 -0.15421624 0.13976252
-0.06391106 -0.022520533 -0.031851474 -0.14659923 -0.038447022 -0.002422259 0.05271214 -0.0040009534
-0.07047126 -0.003537354 0.03047067 -0.13563202 -0.032943923 -0.20847605 -0.027057078 0.035737097
0.10525426 -0.030476127 -0.12833245 -0.17992042 -0.11376975 0.16294996 -0.14881791 0.15121569
0.094069295 -0.057843894 0.08268355 -0.2782135 0.021274969 -0.111122206 0.039782554 -0.49404478
-0.37395415 -0.12218214 -0.1253606 0.11861719 0.13974096 0.253753 -0.099011816 0.13276616
0.0724204 0.03366226 0.15295817 -0.14470397 0.036417875 -0.16200747 -0.012474615 -0.06085017
-0.03953338 -0.2621117 -0.044178158 0.16267525 0.026018858 0.1538332 0.056254044 0.08091736
-0.1521528 0.12826388 0.10619013 0.12413477 0.15955292 -0.059149116 0.022947885 -0.13665625
-0.051985968 0.10204362 0.06250376 -0.004189715 -0.12923498 -0.14329395 0.05755772 -0.04475895
0.07122095 0.08525085 0.00494349 -0.060331546 0.14186041 0.20466477 0.072786584 -0.09092681
0.16036908 0.098739885 -0.041943222 -0.19640529 -0.1641692 0.17314716 0.107404634 -0.12572393
-0.13163067 0.1093898 0.040982753 -0.24308296 -0.07407435 -0.11647351 -0.14308712 -0.16120143
-0.16751076 0.14025843 -0.15642722 0.0058754236 -0.084190816 -0.07419223 0.121007465 0.17263697
0.05442953 0.08417281 -0.0017069727 0.051549267 0.16317943 -0.09807376 0.11770982 0.14184745
-0.06760677 0.022907976 0.014738098 -0.13921794 -0.027656823 -0.06519717 0.019558996 -0.029551663
0.09788301 0.038455814 0.15250872 -0.04177964 -0.14601783 0.08999379 0.14661343 0.06449552
-0.2881544 -0.04951516 0.10564576 0.103388056 -0.059781723 -0.05197674 -0.033534817 -0.025777869
0.08216603 0.13375655 -0.028090268 0.02402839 -0.012735705 -0.1567299 0.15958603 0.16960447
0.18300033 0.010213452 -0.13823861 0.111706845 0.05432731 0.06162125 0.13600008 0.15279137
-0.07050918 -0.14456095 0.09514983 -0.1022763 -0.12653196 -0.0062548667 0.048538275 -0.06806491
-0.17007282 0.010252445 0.021083375 -0.07016055 0.074064 0.0016004714 -0.043329842 0.15896924
0.008643195 0.23661493 -0.093411915 0.15347609 -0.01808868 -0.181785 0.20278198 -0.22600135
0.24115402 -0.0457598 -0.1342093 -0.12511739 0.15597142 0.012829065 0.16717164 -0.03578328
-0.15658176 -0.016247675 0.016693518 -0.019051021 0.07902031 0.08173896 -0.057254616 -0.31206816
-0.061415743 -0.1853491 -0.029689457 -0.14539668 -0.08501984 0.10873833 -0.015252416 -0.19398437
0.13601951 0.14531039 0.0400853 -0.0030211331 0.16030625 -0.32277632 0.16925788 -0.025611084
0.23133226 -0.13001005 -0.059595264 0.05491746 -0.03989081 0.17369287 0.022773415 -0.034815
0.17410854 0.022195444 0.13652663 -0.2416576 0.06338595 0.06570618 -0.12706022 -0.14591622
-0.12565835 0.09668915 -0.028092137 0.017762154 0.17088057 0.0248432 0.16818605 -0.18596292
0.11276291 0.02341447 0.16862114 -0.033492777 0.17636499 -0.29658958 -0.16711088 -0.057756815
0.025414126 -0.02788144 -0.008183867 0.12990373 -0.13468894 0.098687336 0.15256988 -0.06255302

emb.linear2.bias f4 [64]
00000000: 430b 293e 7046 153d 4c9d 9bbd 0f33 2ebe
00000010: 8bbd d53d 3aaf f4bb 2522 ccbd ee77 7cbd
00000020: 0d13 04be f322 b63d c7bb 7dbd 07dd cf3d
00000030: 598d d6bc 8d38 2cbe 610d 82bb a7d9 8cbd
00000040: 2d71 ee3c 34c4 313e be0e 7fbd fa17 92bd
00000050: 36ad b1bd 3057 b4bd 9c3e cf3d 9c4f f23d
00000060: d51d 7cbc 1302 e93d d4f5 693b 734a 1b3e
00000070: 5341 0abe 88dd 2cbd 98f0 b23d 19bc 30bc
00000080: 2303 c6bd ae3d c93b ab86 893d ed75 323e
00000090: ed74 cb3d 9854 c13c 42a8 1b3e 4ef7 ba3d
000000a0: c6f8 7abd c63d d6bc 0640 1e3b fb6f f53c
000000b0: bfa2 af3d 545d ae3d ddd0 423d 2906 c9bb
000000c0: 4461 10be 64f7 6ebd 457a 383d 4797 5dbd
000000d0: 97e3 9fbd 1dea 26be abe5 89bd 4e9b 053d
000000e0: badc 54bd 5df6 d93d 6974 3b3e 3a81 933d
000000f0: abfd cd3d fc5f 533c 45bb 4f3d 7b88 60bd
0.16508202 0.036444128 -0.075983614 -0.17011665 0.10436543 -0.0074671777 -0.0996745 -0.06163781
-0.12897892 0.08893385 -0.061946657 0.101495795 -0.026190447 -0.16818447 -0.00396888 -0.068774514
0.0291067 0.17360002 -0.06226992 -0.071334794 -0.086756155 -0.08805692 0.10119364 0.118315905
-0.015387972 0.11377349 0.0035699503 0.15165119 -0.13501482 -0.042203456 0.08737296 -0.0107870335
-0.09668567 0.006141386 0.06715139 0.17427798 0.09934411 0.023599908 0.15200904 0.09129201
-0.061272405 -0.026152503 0.0024147048 0.029960623 0.08575963 0.08513895 0.04756247 -0.0061347676
-0.14099604 -0.0583414 0.04503848 -0.054099347 -0.07807081 -0.16300245 -0.06733259 0.032618813
-0.051968314 0.10642693 0.18306126 0.072023824 0.10058149 0.012901302 0.050715704 -0.054817658

linear1.weight f4 [64, 128]
00000000: b62d 7ebd 31ef bcbd ace8 d53c 9b6e 643c
00000010: 38b4 cebc 06ea b33c fe37 643c a985 b5bd
00000020: 13c4 84bd 8a26 73bd 1a02 f53c 97db 42bd
00000030: 9621 823d 4b54 a43d 88dd 873c a7a2 c63c
00000040: 3314 d6bc efae 52bc 2e8c b13c 81ff ca3c
00000050: 0e6f a9bd 88e3 783b 8099 a6bd ed36 0ebd
00000060: 92c0 11bc 4aa2 833d 6c33 683d d643 94ba
00000070: ec22 cd3d 3809 723d 3486 b23c c1d4 2ebc
00000080: 27e6 78bd 1e80 38bd 9c08 203c 4553 91bd
00000090: 2350 263b 72bd f7bc 5c35 7dbd 3e83 453d
000000a0: 7cb5 10bc af3d 793d 272c b63d d7e2 463d
000000b0: b655 45bd 8a97 423c 72d5 c6bd dd02 6c3d
000000c0: fc30 26bd 8377 b5bc bf69 8fbd 1291 48bd
000000d0: 8a65 fe3c feae 343d 3150 2e3d b39b aa3d
000000e0: dcac 6abc 9e01 94bd 8e5d 2fbd 70f7 b6bd
000000f0: e726 99bc 37c5 81bd cde2 7cbd 4220 6cbd
00000100: ff84 4cbd cfae c23d 0b9f 8cbc 3f79 bf3c
00000110: 17ee 94bd e815 97bd 337f 6bbd eeaf a0bc
00000120: 1a92 d7bc 73d2 993d f171 86bd 3032 66bd
00000130: b0a4 5abc a37d bbbd 3503 f1bc 33d1 c4bb
00000140: 7886 e13c 8f89 93bd 39d5 7abd 82d9 bbbd
00000150: b9aa a93d d99f 95bc 0dad 2d3d 9b80 62bb
00000160: 6744 963d 6b44 c4bd d0db 313d de54 89bd
00000170: 8add d2bc afab a7bc fcce e53b 16d6 5fbc
00000180: f4d8 96bc 64b9 b23b 6c4c d4bd 2151 4a3c
00000190: 98ef 863b 713b f23c ac1d cd3d c1cc 10bd
000001a0: f8f2 213d 45fe 513c 8fd0 c33c 551c 89bd
000001b0: c85e a03d a6cb b13d 4dea 6cbb f5e6 783a
000001c0: 9872 c9bd 9334 853d 1841 803d bd2c fe3c
000001d0: a5f7 883d a55b 1d3d 6da1 6f3d 74ea 9b3d
000001e0: 6862 3ebd b3b9 d7bb 13e8 88bc a626 85bc
000001f0: c703 87bd eae4 e3bd 760c a03d 6047 3abc
00000200: a974 82bd 2dfd 12bd 684c 91bd b3eb 0fbb
00000210: aa82 55bc b2ba 63bd 8dfe 813d d38d 02bb
00000220: e499 34bd 9d06 5c3d 5bad bd3c bcd1 73bd
00000230: f8d7 33bd b833 9d3d 35ed a7bd 4578 8d3d
00000240: 8af3 883c 55c1 743d f389 b3bd 7771 b0bd
00000250: 383c 9ebd 753f b93d d22a 16bd f06a aebd
00000260: e0a1 023d 8782 dd3c 1ea8 b0bc dc41 d4bc
00000270: 6214 123c 7fe6 613b 180a 5bbd 0aa4 033c
00000280: 947c 983d 08b7 f0bc b15d f3bc 0e3f 403d
00000290: ff45 15bc 1666 a03d ce3d 13bd 39df 16bd
000002a0: f4d1 95bd db09 2dbd 5086 85bd 87a4 023d
000002b0: 45be 603d 4d60 b63d 258d fd3c 8641 db3b
000002c0: 425b 163d 63c2 4abd c6c4 3c3d f556 563d
000002d0: 8f88 8fbd 87e3 8abc 31a3 d53c c107 ae3d
000002e0: b951 a23d c019 7abc 703f 7d3d d79a 9bbd
000002f0: 2146 ba3c 22bd a93d a1e3 80bc 337e b6bd
00000300: 4cb2 1abd 6dd0 e3bc 467f 763d cd27 aabd
00000310: cc8a 0e3d 36d8 85bd d0e7 3cbd 99ea cdbc
00000320: cfbb b73c f1d3 d7bc d2d8 2c3d df72 e13c
00000330: ee09 babb 4061 803a b505 f6bc 8f1c 583d
00000340: b01a 743d 6a15 95bd add8 a6bd acb9 4f3d
00000350: e5fc dc3c 3b9a 45bc 6da3 39bd 690c e0bc
00000360: 44c0 063c 4672 d9bc 5c50 3a3c 377f 853a
00000370: 0114 4bbc 7f1c 433d caa4 89bb baa8 893c
00000380: 17ec c7bd 4801 debb 4354 c83d c4b4 0e3b
00000390: bb1c a8bd 2199 da3c 8b16 80bd 339b 8cbd
000003a0: fa21 52bd b44c a03b eb09 20bc bcab a5bd
000003b0: 5eec a5bd ab68 39bd 6655 ec3d eaf7 4b3b
000003c0: 80d9 78bd e75e edbb a502 873d 7ec4 73bd
000003d0: 042a 72bc bdca c1bd 8d91 543d 8013 87bd
000003e0: 2ccc 013d 83b0 a7bd 273a 05bd a570 823d
000003f0: e5d2 8e3d a86e 483d 8b28 05bd c918 3abd
-0.062055312 -0.0922531 0.026111923 0.013942386 -0.02523242 0.021962177 0.013929365 -0.08863384
-0.06482711 -0.059362926 0.029908229 -0.0475727 0.06354062 0.0802389 0.016585127 0.02424748
-0.026132679 -0.01285909 0.021673288 0.024780037 -0.08273135 0.0037977416 -0.081347466 -0.03472035
-0.00889601 0.064274386 0.056689665 -0.0011311721 0.100164264 0.059090823 0.021792509 -0.010670842
-0.060766365 -0.045044057 0.009767678 -0.070959605 0.0025377355 -0.030241702 -0.061818466 0.048220865
-0.008832332 0.06084984 0.0889514 0.048556175 -0.048177443 0.01187695 -0.0970868 0.05761992
-0.04057406 -0.022151714 -0.07002591 -0.048966475 0.031054277 0.044112198 0.042556945 0.083304785
-0.014323439 -0.07226871 -0.04281383 -0.08933914 -0.018695308 -0.06336444 -0.06173973 -0.05764795
-0.049931522 0.09505998 -0.017165681 0.023373244 -0.072719745 -0.07377225 -0.057494354 -0.01961514
-0.026314784 0.07510843 -0.06564701 -0.056200206 -0.013344929 -0.09154823 -0.029420475 -0.006006384
0.02752994 -0.072039716 -0.0612385 -0.09172346 0.08284516 -0.018264698 0.042401362 -0.0034561518
0.073372655 -0.09583362 0.04342252 -0.0670564 -0.025740404 -0.020467607 0.0070132 -0.013661882
-0.018413998 0.005454229 -0.10366139 0.012348444 0.0041179173 0.02956936 0.10015425 -0.03535152
0.039538354 0.01281697 0.02390316 -0.06694857 0.07830578 0.08681421 -0.0036150396 0.00094948645
-0.0983631 0.06504168 0.06262416 0.031027192 0.066878594 0.038417477 0.058503557 0.07613078
-0.046480566 -0.0065834164 -0.016712224 -0.01625378 -0.06592517 -0.11127646 0.07814877 -0.011369556
-0.063699074 -0.03588598 -0.070946515 -0.0021960556 -0.013031641 -0.05559797 0.0634738 -0.001992096
-0.044092074 0.053717244 0.023153951 -0.05952619 -0.043907136 0.0767588 -0.081995405 0.06907705
0.016717691 0.05975469 -0.08766546 -0.08615392 -0.077263296 0.090453066 -0.03666193 -0.085164905
0.031892657 0.02703978 -0.02156454 -0.02591031 0.008915992 0.0034469662 -0.053476423 0.008034715
0.074456364 -0.029384151 -0.029707761 0.046935134 -0.009110927 0.07831971 -0.035947613 -0.036833975
-0.07315436 -0.042245727 -0.06519759 0.031895187 0.054868955 0.08905087 0.030951092 0.0066911606
0.036708124 -0.049501788 0.046086095 0.052329022 -0.07008468 -0.016954197 0.026078792 0.08497573
0.079257436 -0.015264928 0.061828077 -0.07597893 0.022738518 0.08288027 -0.015733542 -0.08910789
-0.037767693 -0.027809346 0.06017997 -0.08308373 0.034800336 -0.065353796 -0.04611951 -0.025136279
0.022428421 -0.026346179 0.042198963 0.027520595 -0.0056774532 0.0009794608 -0.030032018 0.05276161
0.059595764 -0.07279475 -0.081467964 0.05071418 0.026976058 -0.012060697 -0.04532187 -0.027349668
0.008224551 -0.026543748 0.011371698 0.0010185008 -0.012394906 0.047634598 -0.0042005526 0.016804088
-0.097618274 -0.006775055 0.09781697 0.0021775225 -0.08208605 0.026684346 -0.062543 -0.068655394
-0.051301934 0.004891956 -0.00976799 -0.08089396 -0.08101724 -0.045265835 0.11539726 0.003112311
-0.0607543 -0.0072439793 0.06592301 -0.05951356 -0.014780525 -0.094624974 0.05189662 -0.06595516
0.031688854 -0.08187964 -0.03252616 0.063691415 0.06973819 0.048933655 -0.032509368 -0.045433793

linear1.bias f4 [64]
00000000: f752 e73b 6217 43bd 55c6 5ebc 0905 63bd
00000010: 1c75 063d 7665 2abd 9c7c 3dbd 0d0a 1abc
00000020: 9272 953d f5b6 36bd 789f 9fbc f8d0 8d3d
00000030: 3b16 a03d 1aeb 6a3d b093 563c 2a83 1b3b
00000040: a162 313d 0bd2 4ebd 39fa 1fbd 7614 3f3d
00000050: 1963 073c b1ee 5c3d 96ad 893d f1c6 883c
00000060: d03a a53d 2bf3 0a3d 014f 1b3c 823d 373d
00000070: 032f 3cbd bc5a 633d b52a bfbc 2db6 34bd
00000080: 9c6a 573d 3a9f 793c f618 cbbc 6fee 8cbd
00000090: 54b3 d7bb f8fd a9bc cd39 2e3d b204 a9b9
000000a0: e0fb 993d f4bc 5b3d a3a4 2e3d 977c a4bd
000000b0: f0b1 f53b b083 963d 5a21 f3bc b692 c9bc
000000c0: f387 b5bd 93bb 603d 39b0 39bb 1b32 cbbc
000000d0: ef41 5abd 8fcd b5bd 2ed9 a63d 39c4 95bc
000000e0: a5e2 233d ef84 963c 64e9 6d3d 5719 5dbd
000000f0: b9f6 693d 4039 27bd f1e7 4dbd 43c9 523d
0.0070594507 -0.04762972 -0.013597091 -0.055424724 0.032826528 -0.041600667 -0.046261415 -0.00940181
0.07297243 -0.044608075 -0.01948522 0.06924623 0.0781674 0.057353117 0.013096735 0.0023729303
0.04330695 -0.05049328 -0.03905699 0.046650372 0.008263373 0.05393857 0.06722562 0.016696425
0.08067858 0.03392331 0.009479285 0.044736393 -0.04594327 0.055506453 -0.023335794 -0.04411905
0.052591905 0.0152357165 -0.024792176 -0.06881415 -0.006582657 -0.020750985 0.042535592 -0.0003223769
0.075187445 0.053646997 0.04263748 -0.08031576 0.0074980184 0.07349336 -0.02967899 -0.02460609
-0.08863821 0.054866385 -0.0028333797 -0.024804166 -0.053285535 -0.08877098 0.081468925 -0.018282043
0.040011067 0.018373935 0.058083907 -0.053979244 0.05712006 -0.040826082 -0.050270025 0.05146147

linear2.weight f4 [1, 64]
00000000: 7f26 dbbd f3fd ee3d eb03 b83d 2a37 373b
00000010: c6b8 6b3d 0583 b7bd 9008 81bd abb9 a4bd
00000020: 7060 fb3d 008f 20ba c1b7 e83d 64ab 4ebd
00000030: 6782 d93d d1c0 bb3d 5f48 513d 81da 83bd
00000040: 22f1 e9bd 86ba ea3d d491 473d fcaf 5dbd
00000050: 8edd b63d 3480 77bd a738 87bd 4317 5b3d
00000060: 4f02 f63c f7f2 d83d 9fa4 f73d 179e f03d
00000070: bbb5 d53d 0855 8c3d 1fac 813d 19f4 d6bd
00000080: e1b0 9cbd 3545 ebbd fdc1 c03d 21d6 de3d
00000090: 963d 23bc 717e 723d fe86 40bd 27e1 163d
000000a0: 9877 013d 794a e43c a331 d8bd 4fa5 0abd
000000b0: 7d82 983d ef32 773d 6029 9cbd 031f c43d
000000c0: a85d e9bd cdc6 01be 32b0 8d3d 4dab 01bd
000000d0: 8252 d1bc 4748 79bc ab92 02be 9720 60bd
000000e0: 2bab d1bd 421b a4bd dbf4 4f3d 6185 00bd
000000f0: 7160 22bd d510 a4bd 7da1 a43c 83d1 f3bb
-0.10700702 0.11669531 0.08985122 0.0027956464 0.05754926 -0.08960537 -0.06300461 -0.08043226
0.12274253 -0.0006124824 0.11363173 -0.05045642 0.106205754 0.09167636 0.05109441 -0.06438161
-0.114229456 0.11461358 0.048723057 -0.05412291 0.08928977 -0.060425 -0.066026025 0.05348898
0.030030398 0.10593217 0.12091946 0.11748903 0.10435053 0.06852156 0.063316576 -0.10495777
-0.076509245 -0.114878096 0.09412 0.108806856 -0.009963414 0.059202615 -0.04700374 0.036835816
0.031608194 0.027867543 -0.105563425 -0.033849057 0.07446764 0.06035131 -0.07625079 0.095762275
-0.11394817 -0.12673493 0.06918372 -0.031657506 -0.025552038 -0.015214986 -0.12751262 -0.05471858
-0.10237726 -0.080130115 0.05077062 -0.0313772 -0.039642755 -0.08011023 0.020096535 -0.007440747
